p1-Navigation/modelweights.pth (torch_old, 41849 bytes, 8 tensors)

fc1.weight f4 [128, 37]
00000000: 3e97 3f3d 46b4 833d a115 45bd ca5b e8bd
00000010: 364c 69bd 27d5 7d3e 7339 18be 242d 653d
00000020: e902 f8bd 0780 fabd 2585 92bd 95f5 0b3c
00000030: 27b4 01be 61c3 39bc 9513 9c3b 852f 4f3c
00000040: dca8 9e3d f1f7 543d 1953 0abe 88dd 103b
00000050: 952c 2a3e d6cb 2d3e 0ffe 3abd 1127 9e3d
00000060: 4b93 233c 33e6 9e3d a3a3 0c3e 84a7 4fbe
00000070: aec6 33be 265c 473a 5d95 0f3d a237 213e
00000080: d741 03be ba63 3cbe 20b8 92bd ef4c 15bc
00000090: 1f22 1bbe 0380 263e 266a bb3c 972f 9d3d
000000a0: 4d29 b43b c9db 09be da5e fa3d 58d1 b7be
000000b0: 96d7 16be fad1 3dbe 97c8 9abe e2d9 023e
000000c0: 07e6 13bd 6edd 173d cef3 ab3c 6239 0e3e
000000d0: 5516 003e 5619 a2bd 5f76 503d 6414 a1bd
000000e0: 360d 8abd 763b 8cbd 2efb 2abe ff5c f7bd
000000f0: 413c a93d fb40 1bbd f373 8bbd f92f 1ebd
00000100: d850 b83d 1bc3 a33c e805 33be e037 dd3d
00000110: 3e44 f63d ae43 023e 82e3 bfbd fb53 3dbe
00000120: b352 1d3e 6fd4 063e a19a 293e fea8 0a3e
00000130: 99b9 4f3d a50f 0cbe 6180 fb3a a093 01be
00000140: 379c d8bd b46d 0b3e cf6d 9c3d 478c 09be
00000150: 250a a43c 8c71 73bd 3b5a 04bd 19df 10bd
00000160: 9d1a c23d f959 f5bd 9bff 2a3c b86c e53d
00000170: b04e de3d f812 3b3d 4956 86be 2d5b 96bd
00000180: e833 e63d 4ea2 c53d 701b 18be b02f a7bd
00000190: 950a 073e 0b22 573d 8eee d0bd 66cd 34bd
000001a0: b493 04be 6585 313d d1f5 c6bd 5c17 65be
000001b0: b01e 3abb 8b20 fbbd 96d8 0fbe e8ce cf3d
000001c0: d726 8fbd 8272 153e 02d0 063e f4ad ddbd
000001d0: c551 a0bd 2bac aebc 81ea 503e 8f98 fe3d
000001e0: 5b2b 013f 3034 863c dac7 4cbe 54bd 0b3e
000001f0: 80b9 dabd f594 58bd d03b 03bd 8e9b 7cbd
00000200: 4c17 92bd 8b78 fabd 84b5 b53c 4af2 5c3d
00000210: fb1a e4bd f6e9 ff3c 2087 133e 429d 9a3d
00000220: 934f cd3d c201 8cbd 1e83 583d 2d18 cd3c
00000230: 69eb 6f3e 4d5d 1c3e 485f 1abc 3611 433d
00000240: 3214 cdbd b254 b4bb 6d2f dd3c 0c9e 9b3c
00000250: 8c63 7bbd abf3 92bd 8a8f 34be aef7 b2bc
00000260: 3749 b5bc 5808 873e 4a6c 8e3c 8d43 91be
00000270: 4de5 383c 4daf cfbe 777b b93a fe97 49bd
00000280: e348 44bc c8e8 e2bc c8b2 0ebe 7efe 35bd
00000290: 7d13 dcbc 509e 7d3b 3147 bbbc b880 ba3d
000002a0: cae1 0fbe 9f90 003c e756 f63d 6455 9cbd
000002b0: 7755 373e e1b6 1e3e 3863 0bbe 14da 363c
000002c0: 4397 043d 2369 f0bd 495b 433e ba53 98bd
000002d0: 5b4a f5bb 6b10 7fbc 8ad1 253e 3c8e d7bb
000002e0: 2260 ab3d 5899 9d3d ba63 94bc 35bf a1bc
000002f0: 66f7 b3bd bde8 933d 91f9 6b3e 476d f53d
00000300: 6022 66be 7272 f7bd a2c9 ddbe 688c babd
00000310: 74fe 46bd a2a2 f93d 1add 4cbe 359f 703d
00000320: 9794 233d c3b5 123e b410 07be ece0 01be
00000330: ecf9 0bbd e318 023e 42d0 ffbd 3123 203e
00000340: 3a29 dd3d c04f 76bd afa3 bfbb 41b1 743d
00000350: ae25 0c3d d271 313d 5eca 493c 82e2 bd3d
00000360: 8f02 c2bd 709a c9bd c577 0e3e 1ebc 6bbe
00000370: 6daa eb3d 9aa8 ee3d 7f80 0a3e b943 be3c
00000380: 9d15 3cbe d773 813d 2935 bdbd 1671 b8bd
00000390: 1b37 8e3d e011 203e a5d5 31bd 0573 003f
000003a0: 536c 213d b0a6 393e 50f4 ef3d a39c e5bd
000003b0: 3ce7 983d 270e 25bd c373 3fbd 0753 323d
000003c0: 1f07 d93c f5b4 dc3b 1b9f 48be a98e e93c
000003d0: 1777 283e 941d 28be 2605 153e a9c8 33bc
000003e0: e799 45bd 1428 3abd a968 47be f1a0 12be
000003f0: 5e07 193e ac18 b0bd a180 e6bd 7c3c 53bc
0.046775095 0.06430869 -0.04811633 -0.113456324 -0.056957446 0.24788342 -0.14865665 0.055951253
-0.1210993 -0.122314505 -0.071543016 0.008542438 -0.12666379 -0.011338086 0.0047630765 0.012645607
0.07747051 0.051994268 -0.13508262 0.00221047 0.16618569 0.16972288 -0.045652445 0.07722295
0.009983848 0.07758751 0.13734297 -0.20278746 -0.17556259 0.0007604979 0.035054553 0.15743878
-0.12818085 -0.18397418 -0.07164025 -0.009112581 -0.15149735 0.1625977 0.022877764 0.07675093
0.0054980875 -0.13462748 0.12225123 -0.35901904 -0.14730677 -0.18537131 -0.30231163 0.12778428
-0.036108043 0.037076406 0.020990279 0.13889077 0.12508519 -0.07914989 0.050894137 -0.07865217
-0.06740801 -0.06847279 -0.1669738 -0.120782845 0.08263446 -0.037903767 -0.06809225 -0.03861997
0.08999795 0.019990494 -0.17482722 0.10801673 0.12024735 0.1272113 -0.093695655 -0.18489067
0.15363578 0.13166974 0.16562892 0.13541028 0.05071411 -0.13677843 0.001918804 -0.1265397
-0.105766706 0.13616067 0.07638132 -0.13432418 0.020024369 -0.05943446 -0.032312613 -0.035369013
0.09477732 -0.119800515 0.010436918 0.11202377 0.10854852 0.045672387 -0.26237705 -0.07341609
0.11240369 0.09650098 -0.14854217 -0.081633925 0.1318763 0.0525227 -0.10201751 -0.044141196
-0.1294697 0.043340106 -0.097148545 -0.22372192 -0.0028399639 -0.122620665 -0.14047465 0.10146886
-0.0698983 0.14594463 0.13165286 -0.108241946 -0.07828096 -0.02132233 0.20401956 0.12431442
0.5045678 0.016382307 -0.19998112 0.13646442 -0.106799126 -0.05287643 -0.032039464 -0.061671786
-0.0713335 -0.12230023 0.02218128 0.053942002 -0.111379586 0.031239491 0.14407015 0.07549526
0.10024943 -0.06836273 0.052859418 0.025035942 0.23429646 0.15269966 -0.009422131 0.047623836
-0.100136176 -0.0055032605 0.027000153 0.018996261 -0.061374232 -0.07175382 -0.17632881 -0.021846619
-0.022129638 0.26373553 0.01738562 -0.2837185 0.011285138 -0.4056343 0.0014151175 -0.049217217
-0.011980268 -0.02769889 -0.13935387 -0.044432156 -0.026864761 0.0038699098 -0.022861095 0.091065824
-0.14050975 0.00784698 0.12028294 -0.076334745 0.17903696 0.1549945 -0.13612068 0.011160392
0.032370817 -0.11738803 0.19077791 -0.074378446 -0.0074856705 -0.015567879 0.16193214 -0.006578235
0.08367945 0.076952636 -0.01811396 -0.019744495 -0.08787422 0.07222126 0.23044421 0.119837336
-0.2247405 -0.120823756 -0.43317896 -0.091088116 -0.04858251 0.12189223 -0.20006219 0.05874558
0.03993663 0.14327149 -0.13189965 -0.12683457 -0.03417389 0.12704806 -0.12490894 0.15638424
0.10798879 -0.06013465 -0.00584837 0.059739355 0.03421562 0.043321438 0.0123163145 0.092717186
-0.09473144 -0.0984391 0.13912876 -0.2302098 0.115071155 0.11653252 0.1352558 0.023225652
-0.1836762 0.06320923 -0.09238655 -0.090059444 0.06944104 0.15631819 -0.043416638 0.50175506
0.039409947 0.18129992 0.11716521 -0.11211517 0.074659795 -0.0402967 -0.04674126 0.043536212
0.026492653 0.006735439 -0.19591944 0.028510408 0.16451679 -0.16417533 0.14552745 -0.010973134
-0.048242476 -0.045448378 -0.19473518 -0.14319207 0.14944217 -0.08598456 -0.11255003 -0.012892839

fc1.bias f4 [128]
00000000: f027 283d 5c9b e63d 0e9d e43b e5b2 cbbb
00000010: 8d2f 003d 8801 21bd 5d06 423e fb14 493e
00000020: c8f6 16be ede3 1e3e a32d 40bd 2974 adbd
00000030: 84db 283d aaf8 773d d541 8cbd 9265 313e
00000040: c3f8 223e d80d e7bc 640a 8eba 623e df3c
00000050: e92c b8bd 102b 2b3e da62 633e f322 0c3e
00000060: 7fec 933d 5d6a 7a3e 3dfd 453e e023 7cbd
00000070: e1da e0bc 35b6 e5bd 97a8 243e 79b4 733e
00000080: bd38 373c da5b 443e 1285 443e dbba 12be
00000090: ad06 023e 6a83 e73d 6740 0b3e 89db 9d3d
000000a0: 9ae1 f13d 9f4d 433e 616d 2e3e 7dd6 b93d
000000b0: 325d 2e3e 755d c6bc 632d 173e bc56 9bbd
000000c0: ea72 53bd 0277 2b3e 2de2 353e ae6f c63b
000000d0: c4b4 0f3d 4f0d 543e b8d4 1f3e dd11 b73d
000000e0: e6e8 5dbd 90d8 333c def6 2b3d 7855 23bd
000000f0: 92c9 20be 2532 c53d c50a 353e a819 033d
00000100: a0b9 693e 7a63 063d 5dde e93d 9d43 7ebd
00000110: fe66 87bd 2a2e e7bd 2e4b 803a 74b2 e7bb
00000120: 4142 093e 97a7 fdbd c45d 843c 416f fabc
00000130: 2e54 7d3e babb f3bd 9d50 183e 0651 6c3e
00000140: 14fb d93d ffd4 373e 23ed 573e a3aa a43c
00000150: 7c69 febb bcd3 623e 6e76 bb3d f56a 8f3c
00000160: 935f 373d 49b1 463e a03c 523e 7e6d d63d
00000170: 1dcc a9bd 2782 d7bd 56de 163d b4ab 133e
00000180: 5912 093c 7ff7 e2bd 6373 ba3d a75b 8d3e
00000190: 7dea 14be fc39 1abc 32ed f93d 7630 ef3d
000001a0: d887 ebbd 0f6c fcbd bd96 a3bd a02b f83d
000001b0: d128 043e 73ad aa3d c5ef 663d c8a0 0dbd
000001c0: 42ba 223d 172b 8abd 9ff8 0a3e afad 983e
000001d0: 2a30 cf3d 6881 2f3e 1223 fe3c 0c79 5d3d
000001e0: 6a6d 893d e121 983d ebbb 6a3d 7a27 41be
000001f0: 8543 64bd 1c4e cc3d d77d 843d e58f f7bd
0.041053712 0.11260101 0.00697673 -0.0062163942 0.031295348 -0.0393081 0.1894774 0.1963691
-0.14742577 0.15516634 -0.046918523 -0.084694214 0.04122497 0.06053988 -0.06848494 0.17323902
0.15915208 -0.028204843 -0.0010836837 0.027251426 -0.08992941 0.16715646 0.22205678 0.13685207
0.072228424 0.24454637 0.19334884 -0.06155765 -0.02744812 -0.11216394 0.16079937 0.23799314
0.011182961 0.19175664 0.19191387 -0.14329092 0.12697859 0.11304362 0.13598786 0.07707889
0.11810608 0.19072579 0.17033912 0.090741135 0.17027739 -0.024214486 0.14763407 -0.07584903
-0.051623262 0.16744617 0.1776206 0.0060557937 0.0350845 0.20708202 0.1560849 0.08938954
-0.054177187 0.0109769255 0.041983478 -0.03987643 -0.15701893 0.09628705 0.1767989 0.03200689
0.22824717 0.032809712 0.114193656 -0.0620762 -0.06611441 -0.11288102 0.000978803 -0.007070834
0.1340418 -0.12385481 0.016157992 -0.030570628 0.24739143 -0.119010404 0.14874502 0.23077783
0.106435925 0.17952345 0.21086554 0.020100897 -0.0077640396 0.22151083 0.09153448 0.017507056
0.04476888 0.19403566 0.20530939 0.10470103 -0.08290885 -0.105228715 0.03683313 0.14420968
0.008366191 -0.110823624 0.091040395 0.27608988 -0.14542575 -0.009413239 0.122034445 0.11679165
-0.115005195 -0.12325298 -0.079877354 0.12117696 0.12906195 0.08333864 0.056381006 -0.03457716
0.03972841 -0.067465 0.13571404 0.2982001 0.101166084 0.17139208 0.031022582 0.054070517
0.06710322 0.07428337 0.05730812 -0.18862715 -0.055728454 0.09975836 0.064693145 -0.120879926

fc2.weight f4 [32, 128]
00000000: e639 adbd f0fc 8cbd 9575 87bd e888 073d
00000010: 6cc0 773d 746a b93c 1fc2 613b 49a1 153d
00000020: af5b 873d 4b25 173d 988c e33c bc64 013d
00000030: e81f 143d 1611 85bd 2975 79bd 3f06 373c
00000040: 8ca6 34bc bf06 a5bd 8cc8 b2bd 888e a6bd
00000050: 4e20 8d3d 28b0 253d a8b2 91bd de72 91bb
00000060: c28b 2fbd fec2 823d 4ef4 b1bd 9f02 91bd
00000070: 397d bcbd fa43 2b3d 4ba4 44bd 8c8f 2e3d
00000080: 09a8 d53c 5582 76bd 7358 3dbd e18b 02bd
00000090: d6b6 083c 3574 47bd 5b1e ce3c e732 363a
000000a0: b634 a3bd 1bf3 86bd ca6a 8ebd 9ecd f33c
000000b0: 8662 533a ac64 88bc 5857 88bd ad90 a2bd
000000c0: 60e9 55bd 4876 c0bd be46 c9bd 3a58 a4bd
000000d0: 9051 89bd 22f9 b7bd edf8 ee3b 8349 5f3c
000000e0: d1f6 0d3d d57f dbbd d1c6 4f3d 0ba6 0bbb
000000f0: bd86 593d 392b 18bd e243 073d 64cd adbd
00000100: 2453 f83b 9a6a 803d fefc a23c 833d aebd
00000110: f843 cbbc f88d dfbc e24a 193d 1007 4ebd
00000120: e7b9 34bc 47da 15bd 6284 0dbd d2b5 27bc
00000130: 83ff 91bd af2b 6cbd 4e30 553d e239 663d
00000140: bad0 7dbc 3be5 503d 3f78 433d 9d79 81bd
00000150: 7b06 5cbd 0d66 6ebd a2f4 c83c 06b0 6cbc
00000160: 8098 46bc 4fc6 613d 2805 60bd ae9e 92bd
00000170: f54b 98bd 457d 41bd 5701 a43d 1512 47bd
00000180: d3cf 8fbc 704c e93c 3602 a0bd c8d0 7cbd
00000190: f1d0 6d3d 149f 86bd a9f0 85bd 3ac4 59bc
000001a0: a4d2 cdbc 8a01 303c d65d e53c 8551 85bd
000001b0: 8a55 9e3d 82d6 aabd d2dd ed3b 56e3 c8bc
000001c0: 344d 38bd 890f 873d eb20 cabd 3094 9ebc
000001d0: ed88 073d 3c93 8c3d d3a8 a8bd 1693 833b
000001e0: 96ae 8c3d 9988 e5bd 072b 903c c9d7 62bd
000001f0: dd14 123b f0b7 c1bd 37e2 2f3d 27b7 e4bc
00000200: 681f 4c3d 9a5d 88bc de61 d2bc 0905 d1bc
00000210: 8eb0 b4bd a1d6 38bd d56d 46bc 66d3 8dbd
00000220: eb82 873d d51c acbd c0f8 4bbd 897b b5bc
00000230: 95f1 98bd 46d5 6bbc 8535 4cbd e2b7 9bbd
00000240: 3cdf acbb 397c 8e3d a6c7 8b3c 9627 853d
00000250: aa57 e6bb 7494 14bd 69b8 383d db08 82bd
00000260: ac2d c0bd 84e9 6d3b 4ad6 8b3c e6b5 a5bd
00000270: 482a af3c 9bbf 14bd 24bf aebc c1bf c7bc
00000280: 5dce dcbc 4c33 b4bd c713 9c3b 2946 c0bc
00000290: 00d3 2f3d 7ed8 d9bb 1471 b3bd ef5b 98bd
000002a0: 6ebd 7ebd 759f e83c 9e43 88bd 9cdc 4cbd
000002b0: e994 9b3b 5e45 92bd 29e2 8cbd 904f 913d
000002c0: 2d3d 50bd 39eb 11bd 3ccc 0a3d fc25 5b3c
000002d0: 98b3 7b3d fa89 b8bd 1bb0 b03c feca 22bd
000002e0: 2d4a 84bd e772 7dbd 1e83 bfbd 86a2 8b3d
000002f0: 28c3 05bd 760c bcbd 5f66 a03d 500e df3c
00000300: fdd6 df3c 3306 7c3d 3990 853d c53a 553d
00000310: 727e 863d b155 823d c34b e03b e6d7 84bc
00000320: 24c1 8ebc 93dd 23bd 4733 133d 524f e9bb
00000330: 909a fb39 66db 85bd 6106 3fbd db43 703d
00000340: 1852 8bbc 3c5e e73b 705f b7bd c9e5 3ebd
00000350: b8ac 7abc c617 cbbc 72b0 463d ef78 30bd
00000360: 913f 8c3d 1342 1ebd 1bee 003c 68df a4bd
00000370: c198 29bc 008d cebd a4d9 afbd 88ff 82bd
00000380: ddf1 373c 4a22 4abc 6cf6 b4ba 243d bfbc
00000390: 3d4f 593d 8b5e 8c3d d4ad 033d c2c2 753d
000003a0: f164 91bb 9481 23bd fee8 e23c 5672 1b3d
000003b0: cbbc c0bc 1025 94bd 513f bd3c d2df d2bc
000003c0: dcd0 3cbd 98e9 383d 1136 eabc 140d 50bd
000003d0: f8b7 93bd c97e a43d ba16 443d 603d 99bd
000003e0: bc95 b2bc 4fa0 9ebc de71 a33c 5cd5 a9bd
000003f0: d48c b7bb 7a1c df3b 597e ea3c 20b5 adbb
-0.08458309 -0.068841815 -0.06614224 0.03308955 0.060486242 0.022633769 0.003444798 0.036530767
0.06609284 0.0369008 0.027777001 0.03159021 0.03616324 -0.064973995 -0.06090275 0.011170923
-0.011026036 -0.08057927 -0.087296575 -0.081326544 0.06890927 0.0404512 -0.07114154 -0.004438742
-0.042857893 0.06384848 -0.086891755 -0.07080578 -0.09203572 0.041812874 -0.048008244 0.042617366
0.026081102 -0.060182888 -0.04622693 -0.03187168 0.008344373 -0.048694808 0.025160959 0.0006950334
-0.07969038 -0.065893374 -0.06953962 0.029761132 0.00080636924 -0.016649567 -0.066572845 -0.07937751
-0.052224517 -0.0939756 -0.09827946 -0.080246404 -0.0670501 -0.08983065 0.007292858 0.013628366
0.03465921 -0.107177414 0.050726715 -0.0021308686 0.053107012 -0.037150595 0.033023722 -0.08486441
0.0075782705 0.06270333 0.019896027 -0.08507826 -0.024812683 -0.027289376 0.03742493 -0.050299704
-0.011030651 -0.03658512 -0.03455008 -0.01023622 -0.07128813 -0.057658847 0.05204802 0.056207545
-0.015491659 0.05099986 0.047722097 -0.06322024 -0.053717118 -0.058202792 0.024530713 -0.014446264
-0.01212132 0.055120762 -0.054692417 -0.07159172 -0.07436363 -0.047238607 0.08008068 -0.04860123
-0.017555153 0.028478831 -0.07812922 -0.061722547 0.05806059 -0.065733105 -0.06540043 -0.013291413
-0.025124855 0.010742554 0.027998846 -0.06509689 0.07731159 -0.08341695 0.007259109 -0.024522465
-0.0449955 0.0659476 -0.0986956 -0.01935777 0.033089567 0.0686402 -0.08235326 0.0040153367
0.06869237 -0.112076946 0.017598642 -0.05538157 0.0022290268 -0.094589114 0.042940345 -0.027919365
0.04983464 -0.016646195 -0.025681432 -0.025515096 -0.08822738 -0.04512656 -0.012111147 -0.06925087
0.066167675 -0.08403937 -0.049797773 -0.022153633 -0.07467953 -0.01439411 -0.049855728 -0.07603432
-0.005275635 0.06957287 0.017062973 0.06501691 -0.0070294933 -0.03627439 0.045097742 -0.06349345
-0.09383711 0.0036302516 0.017069954 -0.08091335 0.021382466 -0.03631554 -0.021331377 -0.024383428
-0.02695387 -0.087988466 0.0047631 -0.023470955 0.042925835 -0.0066481223 -0.08761802 -0.0743941
-0.062192373 0.028396348 -0.06653522 -0.050015077 0.004747976 -0.07142137 -0.06879074 0.070952535
-0.05083959 -0.035624716 0.03388618 0.013375755 0.06145057 -0.09010692 0.021568349 -0.03974437
-0.064594604 -0.061877158 -0.093511805 0.06818108 -0.03265682 -0.09182064 0.07832026 0.027228504
0.027324194 0.06152935 0.06521649 0.052058 0.06567086 0.063640006 0.006844969 -0.01621623
-0.017426081 -0.04000623 0.035937574 -0.0071200514 0.0004798961 -0.065359876 -0.046636943 0.058658462
-0.017006919 0.007060794 -0.0895375 -0.04660586 -0.015299968 -0.02479161 0.048508115 -0.04308408
0.06848062 -0.038637232 0.007869269 -0.08050424 -0.010351361 -0.10085487 -0.085864335 -0.06396395
0.011227098 -0.012337277 -0.001380635 -0.023344584 0.053054083 0.0685397 0.032148197 0.06000019
-0.004437082 -0.039918497 0.02769899 0.037950836 -0.023527524 -0.072336316 0.02310148 -0.025741491
-0.04609762 0.045144647 -0.028590234 -0.050793722 -0.07212824 0.08031995 0.047873236 -0.074824095
-0.021799915 -0.01936355 0.019951757 -0.08292648 -0.005601505 0.0068088146 0.0286247 -0.005301133

fc2.bias f4 [32]
00000000: e3d9 82bc ca4e bfbd e7e9 153e 649f 6abd
00000010: 21a8 043e 2ef9 7a3e bad7 a13d ba73 933d
00000020: 0631 fa3d 1ca0 6fbc 6804 153d 1839 c83a
00000030: f0fb 25bd ccf6 033e ec96 463d 25c3 ec3d
00000040: f1fd 5a3c c780 dd3c 4e3a 693d b4b2 fb3c
00000050: 987e 303d 3d2b b9bd a731 2e3e 3dad 1ebd
00000060: 1881 13bd fa3b a1bd 9d44 213d 7941 aa3d
00000070: c52d 72bd bf0e db3d 02af 033e 4d17 44bd
-0.015973037 -0.093412 0.14640008 -0.057280913 0.12954761 0.24509117 0.07902475 0.071998075
0.12216382 -0.014625575 0.036381155 0.0015275804 -0.04052347 0.12887114 0.048483774 0.11560658
0.013366208 0.027038945 0.05694037 0.03072486 0.04308948 -0.0904145 0.17011128 -0.03873943
-0.036011785 -0.07872768 0.039372075 0.08313269 -0.05912568 0.10696172 0.12859729 -0.047873784

fc3.weight f4 [32, 32]
00000000: 5572 123d c02d afbd 25da f6bc 6f6e bfbd
00000010: 33e8 153e 9267 45be b9cd e53d a45c b9bd
00000020: 23d3 823d d70b f73b 4529 2cbe 5c2c f4bd
00000030: 4f80 273b 1c6d aeba 5df8 aabd 38b6 b83d
00000040: 0d9d adbd 73cb efbd ef2d ae3d 9eb0 ee3b
00000050: c52a dc3c 5359 be3d 5534 d4bd bf9b f73c
00000060: 0434 c63d 44d5 a13c d224 013e 5775 aa3d
00000070: da60 cf3d 0834 013e b8a9 b23d b60b 4b3d
00000080: 106c cc3d 4cf6 ca3d e0c5 ab3d 4d40 3a3d
00000090: 96cc 10bd 0603 8c3d c1e6 d93d 2f35 b9bb
000000a0: b86f 583c 3e6f 8d3d 0688 38bc 395a c33d
000000b0: b5bc 2bbb ac61 83bc 8281 a1bd 0be6 613e
000000c0: 4666 4bbe f2be 80bd be63 c6bd b842 a7bd
000000d0: 0ab0 ce3d 46d1 b03c 2ac9 013e 917a 38be
000000e0: 7d43 4bbd 17a8 ca3c ac6b 53bd 6534 91be
000000f0: d1cf e93c 43ba 2d3e 694a d93c 3641 7a3e
00000100: c924 1b3e 8d66 9bbc ec01 3e3e 6be2 943d
00000110: 751c c23d eed2 393e bd54 58be 9971 2d3e
00000120: 109a 9b3e 8627 f2ba 5087 b53c d279 073c
00000130: 6a40 73be 680e 9ebc f184 483d 8e0f 2a3e
00000140: 133a ed3d 6dbf b2bd 0842 5f3e 3686 9cbd
00000150: 6432 5bbd 0948 60bd 8c95 313c 0392 843d
00000160: 193a 813b 1ebf aebc ce99 4fbe ea04 763c
00000170: b732 cc3d b639 773c 5046 8d3e ea49 f8bd
00000180: 5ab9 c3bd 963f ba3d 18a5 523e fd7e 883d
00000190: eac9 293e 5571 17be 3880 853d 3091 a53c
000001a0: 935b 72be 1609 1c3d bf8d 6e3d ad01 11be
000001b0: fd9b 8f3d 75fa c83d 5960 793e 4861 80be
000001c0: 1fdf 713e 8c6d a4bc cffe 82ba e6d0 00be
000001d0: 5157 46be 006e e2bd d1dd 51bd e5be cc3c
000001e0: 46b4 1a3e 0f07 283c 8cab 4b3e 9b94 3fbe
000001f0: ee50 f33d 6b0a 1cbe acf7 6dbe 1224 e33d
00000200: 66f8 f1bd 6658 4ebd 1573 9cbb c35b 47bd
00000210: 3121 203e 7063 633e 76eb e8bd 1659 32bd
00000220: 350b d9ba a8fa eabd b00e 14bd 2625 fc3d
00000230: 198d 773e 0ab5 1a3e 1bc6 f73d 48ac 813e
00000240: 63f4 c4bd 1827 8b3d c09c 883e 35d0 87bd
00000250: 7d67 133e 6127 febd 74f4 773e 9fa2 093e
00000260: 4474 6e3e 1d6f 17be da28 f9bd 1fe0 b53c
00000270: 77c2 2f3d 20f7 923e e670 023d 2959 c1bb
00000280: ab04 9c3c 1b86 32be c65d 5fbe 4db6 023e
00000290: 0529 d43c 21fd 423d d812 14bd af7b 803d
000002a0: bbcb 98bc b929 563d cc98 713d f4ea 4bbd
000002b0: 3b97 9abd 7494 29be f989 38bd 1fb9 0abe
000002c0: 87fa 12be c6cf 67bd 79bb b0bc cf42 673c
000002d0: b1ae 71bd 2b68 0abe bffd 02bd c1e5 c43d
000002e0: 727f e93d afa9 493e 4dcc b93d dc67 223e
000002f0: 4e8a 973b 48bf e2bd e531 993c 498a f23d
00000300: acd4 63bd 352e 803c 0637 a9bd 91df 253e
00000310: cf1a 26be a1ae a5bd d37b 173e 1bf2 3abd
00000320: d14a 5bbc 7be4 bdbd 8b71 2f3e a9d8 51bd
00000330: 0986 373d 4e4e 1dbe 217a 0f3e e793 573e
00000340: d908 60bd 868f b8bc 280e 733d e2ed f33c
00000350: 5175 c13d 1061 013e ac5b 063c 7faf c33d
00000360: 0f02 fbbd 95e2 46bd 1e9c 1bbc fc7e 0f3e
00000370: 166c 273e fffc 6b3e 2fb9 3d3d e6e1 20be
00000380: 835b 90bd 7f5c c9bc cb9f a0bd 43fa c53c
00000390: 3098 44bc 3258 9fbd b195 503d 831b 163d
000003a0: e553 95bc 1dcb adbc 737f 33be d131 d2ba
000003b0: d94b f7bd 98e5 5e3e 00a4 613e 428d e2bd
000003c0: 1ae9 21be 9feb 25be 38c2 323e 7d68 263d
000003d0: ed8c 34be 452b dabd fbcb 343e 65b6 ac3c
000003e0: 4ee4 e7bd d30f 363d 0fea 6c3e fc4a 5d3e
000003f0: 4fc1 3d3d e6ee 8dbc 39bc 753d 4227 353e
0.035753567 -0.08553648 -0.030133316 -0.093472354 0.14639358 -0.1927779 0.11220879 -0.09050873
0.063879274 0.007539253 -0.16812618 -0.119225234 0.0025558656 -0.0013307664 -0.08348153 0.090191305
-0.08477221 -0.11708727 0.08504855 0.007284238 0.026875863 0.09294381 -0.10361544 0.030225633
0.0967789 0.019755013 0.12611702 0.08323162 0.10125895 0.12617505 0.087237775 0.049571715
0.09981549 0.09910259 0.08387351 0.04547148 -0.03535136 0.06836514 0.10639716 -0.005652092
0.01321023 0.069059834 -0.011262899 0.09538693 -0.0026205007 -0.016037785 -0.0788603 0.2206041
-0.19863233 -0.0628642 -0.09686993 -0.081670225 0.100921705 0.021584164 0.12674394 -0.18015505
-0.04962491 0.024738355 -0.051616356 -0.28360286 0.028541477 0.16965584 0.02652474 0.24438938
0.15150751 -0.018969798 0.1855542 0.07269748 0.09478084 0.1814687 -0.21126075 0.16937865
0.30390978 -0.0018474914 0.022159249 0.00826879 -0.23755041 -0.019293979 0.048954908 0.16607496
0.115833424 -0.08727918 0.21802533 -0.07642786 -0.053514853 -0.054756198 0.010838877 0.06473162
0.0039436934 -0.021331366 -0.20273516 0.01501582 0.099706106 0.015089443 0.27592707 -0.12123473
-0.095568374 0.09094159 0.20570791 0.06664846 0.1658093 -0.14789326 0.065185964 0.020210832
-0.23667745 0.038094603 0.05824065 -0.14160796 0.07012174 0.09813396 0.2435316 -0.2507422
0.2362027 -0.020071767 -0.0009994152 -0.12579688 -0.19369246 -0.11056137 -0.05123693 0.02499337
0.15107831 0.010255589 0.19889659 -0.18709032 0.118806705 -0.15238349 -0.2323901 0.11090864
-0.11814956 -0.050377272 -0.004774461 -0.048671495 0.15637662 0.22205901 -0.113730356 -0.04354199
-0.0016559126 -0.1147359 -0.03614682 0.12311773 0.24174918 0.15108123 0.120983325 0.25326753
-0.096169256 0.06794566 0.2668209 -0.06631509 0.14394946 -0.12409855 0.24214345 0.13440941
0.2328654 -0.1478848 -0.12165995 0.022201596 0.042910066 0.28704166 0.03184595 -0.0059005213
0.019045195 -0.1743397 -0.21813115 0.12764855 0.025898466 0.047604684 -0.036150783 0.06273591
-0.018651834 0.052285884 0.05898361 -0.049784616 -0.07548376 -0.16560537 -0.045053456 -0.1354718
-0.14353381 -0.056594633 -0.021573769 0.0141150495 -0.05900449 -0.135163 -0.031980272 0.096141346
0.114012614 0.19693635 0.090721704 0.15859932 0.0046246415 -0.1107164 0.01870055 0.11842782
-0.05562274 0.015647033 -0.08262448 0.16198565 -0.16221164 -0.080899484 0.14793329 -0.045641046
-0.013384537 -0.09272095 0.17133157 -0.051232014 0.04480556 -0.15361902 0.14011432 0.21052514
-0.054695938 -0.022529375 0.059339672 0.029776517 0.094462045 0.12634683 0.008200567 0.095549576
-0.12256252 -0.04855593 -0.00949767 0.14013284 0.16349825 0.23045729 0.046319183 -0.15711173
-0.070487045 -0.024580238 -0.07842978 0.024167186 -0.011999175 -0.07780494 0.050924007 0.03664733
-0.01822848 -0.021215016 -0.17529087 -0.0016036575 -0.12075014 0.2176727 0.22035217 -0.11062099
-0.15811577 -0.16203164 0.17456901 0.04062699 -0.17631884 -0.10652784 0.17655937 0.021083066
-0.113228425 0.044448685 0.23136161 0.21610636 0.04632693 -0.01732583 0.059993956 0.17690757

fc3.bias f4 [32]
00000000: a889 c9bd 038e 6c3e cea7 653e 67ca f33d
00000010: a714 5f3e 90b3 9ebc be6c c73d 3bfd 4b3d
00000020: d10b 2cbd c07b a6bc bfd3 753e 2fd5 c93d
00000030: c0db 7c3d 5958 c0bb 7f83 2e3d 03c6 56be
00000040: 539f a5bd 5584 13bc dbee 11bd e5de 05be
00000050: d536 543c 1d43 e43d 12a0 223d 5777 9abc
00000060: 2535 dabd dd45 0bbb 0aa6 8fbd 66ee d23d
00000070: 5a74 a1bc f9b7 003e 9bc1 f2bc 0616 25bd
-0.09840709 0.23101048 0.22427294 0.119038396 0.21785222 -0.019372731 0.09737538 0.049802046
-0.042003457 -0.02032268 0.24006556 0.09855115 0.061733007 -0.005869907 0.042605873 -0.20973973
-0.08087029 -0.009003718 -0.03562818 -0.13073309 0.012952526 0.11145613 0.039703436 -0.018855734
-0.10654668 -0.0021251359 -0.07014091 0.10299377 -0.019708801 0.1257018 -0.029633334 -0.040304206

fc4.weight f4 [4, 32]
00000000: d182 aebd 818f 17bc 3811 f43d 35fa dfbd
00000010: b9b6 273e d0bc 373e 9f26 853e f988 143e
00000020: 6871 a93d e6db ce3e cad4 c3bd 8346 863e
00000030: 9cf5 70bc a9f8 923d 8408 503e 866b 70be
00000040: b8bb efbc 7b88 ba3d 78bd 64be 8220 7a3d
00000050: 19f6 1f3e 2d0f 8cbd 2adf 313c fe3d c83c
00000060: 6e43 af3c c7a5 5c3e b384 853e 6b8b 2cbe
00000070: 359a 193e 76ff 3dbe 1200 523e 1f26 be3d
00000080: d55e babd 2341 863d 8069 cd3d 9be3 6a3e
00000090: 97ed 753e 8e01 3cbd c679 093e 9f12 ea3c
000000a0: 8377 8e3e f7cb ef3c 1132 ba3d 0a5e 283e
000000b0: b90a 82bd a269 2c3e c134 c0bd 9232 bebd
000000c0: 04e0 72bc 18e8 fd3c 8450 243c c2b5 fd3d
000000d0: af63 8cbc 257e c73d a6b2 2fbd 694c 413b
000000e0: fd1d 11be 0e18 573e 07e0 1e3e ab17 043e
000000f0: 0a60 e3bc 0359 173e 010f 713e 26f2 20be
00000100: ba5d 80bd f239 9b3e fc57 693e 1742 02be
00000110: 188c f03d 48f1 dabd bb32 e9bd 1466 8a3b
00000120: 6888 b93e ca1b babd 55f7 943e 3265 c3bd
00000130: ce07 ef3d 0ecf 423e c033 013c 1f19 a9bc
00000140: 3ecf fcbd 7097 34be aef9 743e 1a7c 1ebe
00000150: 2827 89bd 3564 b43e 1d67 7f3e cd82 2a3d
00000160: 4075 dd3b 53fc 39bd ab1f 913e 02da b53c
00000170: 15a0 0fbd b3cd 143e 81a0 e33d 5f74 76bd
00000180: 5bdb cb3d 3012 833e b2e7 99bd cbf5 093e
00000190: 91f4 7c3e f7c6 4cbd d715 13be 7f6a 053e
000001a0: 5f6b ac3d b103 44be ccc9 19be 157a 483e
000001b0: bf8a f6bd bad2 59bd de91 1e3e 7d3c 4c3d
000001c0: 3c89 663e 72ed 553e d844 813e 1a8e a23d
000001d0: bbe5 403d 317f 973e caa5 a0bc 7618 5e3e
000001e0: 26c3 5b3d c16b 753e f361 b5bc a916 18be
000001f0: 2711 393e 8562 19be 4e8e 863d dbb1 023e
-0.08521045 -0.009250523 0.11917347 -0.10936395 0.16378297 0.1794312 0.26006028 0.14505376
0.08273584 0.40402144 -0.09562071 0.2622567 -0.014706995 0.071763344 0.20315748 -0.23478517
-0.029264316 0.09108063 -0.22337902 0.061066158 0.15621223 -0.06838832 0.010856429 0.024443623
0.021394458 0.21547614 0.26077804 -0.16850059 0.15000232 -0.18554482 0.2050784 0.09284615
-0.09100119 0.065553926 0.10029888 0.22938387 0.24016415 -0.04589992 0.13425359 0.028573332
0.27825555 0.029272063 0.09091581 0.16442123 -0.063497014 0.1683717 -0.09385062 -0.09286989
-0.014823917 0.03099446 0.010028962 0.12388183 -0.017137377 0.09740857 -0.04289498 0.0029495007
-0.14171596 0.2100527 0.15515147 0.12899654 -0.027755756 0.14780049 0.2354088 -0.15717372
-0.06267877 0.30317646 0.2278747 -0.12720524 0.11745471 -0.10690552 -0.11386629 0.0042235944
0.36236882 -0.090873316 0.2909495 -0.09540786 0.116714105 0.19024298 0.007885873 -0.020641861
-0.12344216 -0.17635894 0.2392337 -0.15477028 -0.066969216 0.35232702 0.24941678 0.041628648
0.006758362 -0.04540665 0.28344473 0.02219868 -0.035064775 0.14531593 0.11114598 -0.060169574
0.09953948 0.25599813 -0.075148955 0.13472669 0.2470267 -0.049994435 -0.143638 0.13028906
0.08418917 -0.19142033 -0.15018386 0.1957782 -0.120381825 -0.05317948 0.15485331 0.049862374
0.22513288 0.2089136 0.25247836 0.0793726 0.047094088 0.29589227 -0.019610304 0.21689019
0.053652905 0.23966886 -0.022141432 -0.14852394 0.1807295 -0.14978988 0.06570111 0.12763159

fc4.bias f4 [4]
00000000: b895 133e af1f c93d 64b4 bc3c 70fc a23b
0.14412582 0.09820496 0.023035236 0.0049739406
