p2-ContinuousControl/DDPG_checkpoint_critic.pth (torch_old, 89512 bytes, 9 tensors)

fcs1.weight f4 [128, 33]
0.06788748 0.18356436 0.09131266 -0.021876603 -0.08492924 0.53508514 -0.17686826 -0.044086225
-0.0658829 0.069838144 -0.005255406 0.005579708 -0.039857384 -0.11231555 -0.087622344 -0.15381025
-0.06441602 0.03290164 0.31847358 0.16598041 -0.0136106415 0.012400221 -0.0060478193 -0.03628324
-0.028043171 -0.030349247 0.13999401 0.003547453 0.20725122 -0.041901354 -0.0798607 0.053069852
-0.8514911 0.04125874 -0.4438471 -0.09648693 0.32514837 0.38161093 -0.32071838 -0.27392524
0.057900682 -0.12745221 0.091549814 0.009528553 -0.10814676 0.063013405 -0.0754967 0.25766382
0.025019784 0.35462463 -0.50603265 0.01557257 -0.010712093 -0.03134531 -0.008372835 -0.015010292
0.0101348655 0.12923299 -0.07571338 0.0676355 -0.015729068 0.0052743377 -0.03656374 -0.014960468
0.035700403 -0.15487985 0.09246689 -0.04341324 -0.041453216 -0.41456077 -0.13297696 -0.24396941
0.39133954 0.0031386241 -0.002913951 -0.03394633 -0.003618629 -0.02485939 0.03341504 -0.06417078
-0.09345748 0.070344515 -0.0016827466 0.07776126 -0.33376122 0.26563114 0.0044170246 0.01073267
-0.00403152 0.00758738 -0.0111929355 0.02450677 -0.016283013 0.18790075 -0.10200603 0.04471358
-0.20173107 -0.061080277 -1.2524226 -0.042760108 -0.016065586 -0.07808767 -0.2757507 0.09761097
0.16406119 0.1798279 -0.04162329 0.07043986 0.08421843 -0.023749141 0.0013537116 -0.0062350566
0.0790075 0.031502653 0.022271272 -0.07236725 -0.065665096 0.0880851 -0.0032224646 0.0007325143
0.0032083683 0.0041493764 -0.012126826 0.005147995 0.007322253 -0.13345207 0.24954073 0.07092556
0.08174717 -0.09927916 -0.009382471 -1.5432457 0.0659513 -0.0848924 -0.11336095 0.73351806
0.12226478 0.021565752 -0.24032384 -0.03780142 0.026433805 -0.04606998 0.03505496 0.016101273
-0.036756724 -0.22827557 0.036445588 0.030768516 -0.10208743 0.03904069 -0.48986423 -0.34349984
-0.012221352 -0.011211155 -0.13612232 -0.21542105 0.08608801 -0.054740686 0.04666284 -0.012777095
-0.04684748 -0.05201529 -0.09711405 0.04671303 0.22875604 -0.25096366 0.17733356 -0.015610889
-0.41824502 -0.3020986 0.10776839 -0.44043565 0.07814869 0.0055868817 -0.12561838 0.0039576115
0.06575752 -0.003829774 0.20105238 -0.22574995 -0.09207246 0.3636255 -0.0067808833 -0.03976891
-0.34288007 0.032560594 -0.07202102 0.021795483 -0.016364865 -0.008370075 -0.033152174 0.010421153
0.2517403 0.035000086 0.03514702 -0.24069388 0.05494047 -0.44568896 -0.11392439 -0.036101494
-0.04473504 -0.037987873 0.12259145 0.22260223 0.23465337 0.011514101 0.05258108 0.017539835
-0.005247081 0.019628704 0.0032444044 0.033348236 0.042913094 0.03505216 0.101137705 0.18442157
-0.007354807 0.11550795 0.0047215964 0.0030909507 -0.00089964486 0.021110905 0.010376134 -0.0033967174
0.13280782 0.05902791 -0.04073467 0.058375604 -0.07973122 0.04586526 -1.5322431 0.08082261
0.16823162 0.07387668 0.61598426 0.01701662 0.16814354 0.05755794 -0.09848206 0.13613452
0.16670683 -0.19770855 0.0062353383 -0.032161884 -0.05072462 -0.149604 -0.14608988 -0.007608404
-0.11737418 -0.41229102 -0.22562455 0.0018333037 -0.058693957 0.0125990715 0.018386122 0.07751046
00000000: 9708 8b3d 4cf8 3b3e 2202 bb3d 9036 b3bc
00000010: 62ef adbd 57fb 083f f41c 35be c293 34bd
00000020: 9ded 86bd 4d07 8f3d 8a35 acbb fcd5 b63b
00000030: 7f41 23bd b205 e6bd 5873 b3bd 6f80 1dbe
00000040: 8cec 83bd dfc3 063d f80e a33e c5f6 293e
00000050: 2bff 5ebc 4c2a 4b3c c92c c6bb bc9d 14bd
00000060: cbba e5bc fc9e f8bc 975a 0f3e 637c 683b
00000070: aa39 543e c1a0 2bbd 028e a3bd c65f 593d
00000080: 52fb 59bf edfe 283d ed3f e3be f19a c5bd
00000090: d979 a63e 8262 c33e 3335 a4be ee3f 8cbe
000000a0: 4429 6d3d d582 02be 787e bb3d a61d 1c3c
000000b0: 0c7c ddbd 2c0d 813d 049e 9abd 83ec 833e
000000c0: 4af6 cc3c 5c91 b53e 5b8b 01bf 1824 7f3c
000000d0: c681 2fbc f163 00bd 372e 09bc baed 75bc
000000e0: b50c 263c a755 043e 9e0f 9bbd 7b84 8a3d
000000f0: 3fda 80bc 5ad4 ac3b dcc3 15bd c01c 75bc
00000100: 963a 123d d398 1ebe 485f bd3d 15d2 31bd
00000110: d9ca 29bd 4f41 d4be 1d2b 08be 1ed3 79be
00000120: a85d c83e 60b1 4d3b fcf7 3ebb 4f0b 0bbd
00000130: 8526 6dbb eba5 cbbc 35de 083d f86b 83bd
00000140: a366 bfbd c910 903d 9b8f dcba 4c41 9f3d
00000150: c0e2 aabe ce00 883e b0bc 903b 15d8 2f3c
00000160: d71a 84bb 8e9f f83b 9362 37bc 6cc2 c83c
00000170: f463 85bc 0e69 403e 8ae8 d0bd 9625 373d
00000180: 9792 4ebe 502f 7abd 624f a0bf 3925 2fbd
00000190: fa9b 83bc 6eec 9fbd 322f 8dbe 43e8 c73d
000001a0: a8ff 273e ce24 383e 2f7d 2abd c642 903d
000001b0: b67a ac3d 8f8d c2bc 066f b13a 724f ccbb
000001c0: afce a13d ed08 013d 3e72 b63c 4835 94bd
000001d0: 6c7b 86bd f665 b43d fc2f 53bb 3406 403a
000001e0: 7d43 523b 7ef7 873b 98af 46bc 83b0 a83b
000001f0: 83ef ef3b a9a7 08be 9b87 7f3e 6c41 913d
00000200: 0f6b a73d df52 cbbd f0b8 19bc 1389 c5bf
00000210: 7a11 873d 11dc adbd c929 e8bd d7c7 3b3f
00000220: f565 fa3d a9aa b03c 7417 76be a9d5 1abd
00000230: b58b d83c e0b3 3cbd ca95 0f3d d1e6 833c
00000240: 388e 16bd 12c1 69be f847 153d 410e fc3c
00000250: 3713 d1bd 21e9 1f3d 7ccf fabe 36df afbe
00000260: 113c 48bc feae 37bc a663 0bbe 5697 5cbe
00000270: e94e b03d c537 60bd 8921 3f3d 0557 51bc
00000280: 25e3 3fbd fc0d 55bd bbe3 c6bd 2a56 3f3d
00000290: 063f 6a3e 4f7e 80be ee96 353e d0c4 7fbc
000002a0: 3624 d6be abac 9abe acb5 dc3d c880 e1be
000002b0: 6c0c a03d 2912 b73b 1ba2 00be daae 813b
000002c0: e1ab 863d f2fc 7abb ade0 4d3e ff2a 67be
000002d0: 7c90 bcbd 1f2d ba3e 2c32 debb b9e4 22bd
000002e0: fa8d afbe 425e 053d c27f 93bd 718c b23c
000002f0: 9c0f 86bc a422 09bc 93ca 07bd 7cbd 2a3c
00000300: 1be4 803e 405c 0f3d 52f6 0f3d 7578 76be
00000310: 4209 613d 5831 e4be 3151 e9bd 29df 13bd
00000320: 173c 37bd 2c99 1bbd 3a11 fb3d d7f1 633e
00000330: f948 703e a4a5 3c3c 425f 573d b3af 8f3c
00000340: b5ef abbb 60cc a03c 13a0 543b 2998 083d
00000350: a4c5 2f3d db92 0f3d 4921 cf3d 02d9 3c3e
00000360: 9800 f1bb 6f8f ec3d 9fb7 9a3b 8c91 4a3b
00000370: 25d6 6bba c7f0 ac3c a900 2a3c 769b 5ebb
00000380: c6fe 073e 40c7 713d 66d9 26bd 421b 6f3d
00000390: 1f4a a3bd 36dd 3b3d 8b20 c4bf 5386 a53d
000003a0: e944 2c3e a84c 973d 25b1 1d3f 7066 8b3c
000003b0: d22d 2c3e e0c1 6b3d f6b0 c9bd d966 0b3e
000003c0: 32b5 2a3e 1c74 4abe cf51 cc3b 2ebc 03bd
000003d0: 9fc4 4fbd ca31 19be 9698 15be eb4f f9bb
000003e0: e061 f0bd cf17 d3be 1f0a 67be 774b f03a
000003f0: 1369 70bd 566c 4e3c 7e9e 963c cebd 9e3d

fcs1.bias f4 [128]
0.07238796 -0.16269231 -0.17618552 -0.18477008 0.06697743 -0.17936918 -0.084158316 -0.20436555
-0.13980542 0.21220876 -0.23120391 -0.06444101 -0.24095264 -0.3491428 -0.3313565 -0.024333643
-0.15721191 -0.22019178 0.018663464 -0.2228829 -0.18562469 -0.26308683 -0.1734993 -0.0087890085
-0.062494278 -0.08593445 0.009335217 -0.31828374 -0.08528666 -0.071715504 -0.12821504 -0.076294184
-0.2723232 -0.30378404 -0.36624053 0.047711097 0.08883046 -0.13860153 -0.082524285 -0.26961845
-0.038534675 -0.07543584 -0.02160165 -0.07751562 0.19244128 -0.26935056 -0.08410224 0.07804215
-0.09272669 0.075883 0.17251003 -0.019181814 0.24544059 0.057127636 -0.13747333 -0.21197224
-0.22304429 0.047586206 -0.0546885 -0.0926404 -0.0031045047 0.07575763 -0.05460278 0.2909038
0.0401951 -0.21909636 0.0008920085 -0.313247 -0.10433836 -0.0755073 -0.09340407 0.8200961
-0.0752995 -0.10751443 0.09631795 -0.21875787 -0.16185759 0.0031429485 -0.06157782 0.13962054
-0.1549242 -0.07537749 -0.26973978 0.026210917 0.37662336 -0.2165362 -0.088851504 0.22428115
-0.14108062 -0.13222006 -0.05850866 -0.13767631 -0.31301093 0.030886501 0.1729545 -0.12385847
0.24606736 -0.18434349 -0.030843226 -0.14868528 0.06165706 -0.17993769 0.08458768 0.19362514
-0.2202094 -0.20076571 -0.28812936 0.07978224 -0.10723773 -0.24063298 -0.088014364 -0.36811277
-0.096545085 -0.1025487 -0.07261226 0.06465836 -0.30522773 -0.07605834 -0.27836707 -0.08877237
-0.18485615 -0.1157325 -0.075964086 -0.13447216 -0.14239061 0.059972886 -0.25675675 0.019068174
00000000: 2440 943d d098 26be fa69 34be 5e34 3dbe
00000010: 762b 893d 8eac 37be 325b acbd 3445 51be
00000020: 2729 0fbe 414d 593e b8c0 6cbe a6f9 83bd
00000030: 4abc 76be d8c2 b2be 8fa7 a9be 5957 c7bc
00000040: 29fc 20be f479 61be 1fe4 983c 6a3b 64be
00000050: 6614 3ebe 51b3 86be cda9 31be c6ff 0fbc
00000060: 00fa 7fbd 67fe afbd bdf2 183c 16f6 a2be
00000070: c6aa aebd 94df 92bd ce4a 03be 2040 9cbd
00000080: f26d 8bbe 9589 9bbe e183 bbbe b66c 433d
00000090: bfec b53d 8fed 0dbe 7e02 a9bd 6e0b 8abe
000000a0: 89d6 1dbd 1b7e 9abd f2f5 b0bc 82c0 9ebd
000000b0: 540f 453e 51e8 89be cc3d acbd 90d4 9f3d
000000c0: 7ee7 bdbd 8c68 9b3d 78a6 303e 2e23 9dbc
000000d0: c754 7b3e abfe 693d cfc5 0cbe 400f 59be
000000e0: b965 64be c1e9 423d 0c01 60bd 40ba bdbd
000000f0: f274 4bbb d126 9b3d 2aa7 5fbd 58f1 943e
00000100: 9ea3 243d cc5a 60be add5 693a e961 a0be
00000110: 5aaf d5bd 92a3 9abd a24a bfbd d1f1 513f
00000120: a036 9abd 8730 dcbd 5842 c53d 1002 60be
00000130: ffbd 25be edf9 4d3b 0639 7cbd b0f8 0e3e
00000140: 73a4 1ebe 835f 9abd 551b 8abe 47b8 d63c
00000150: c7d4 c03e aabb 5dbe c7f7 b5bd f5a9 653e
00000160: 7077 10be b264 07be c7a6 6fbd 05fb 0cbe
00000170: f842 a0be b005 fd3c fc1a 313e 82a9 fdbd
00000180: 15f9 7b3e 8ac4 3cbe efaa fcbc f440 18be
00000190: 1d8c 7c3d 9641 38be 4e3c ad3d ab45 463e
000001a0: 937e 61be 8795 4dbe b185 93be df64 a33d
000001b0: 749f dbbd 7e68 76be e040 b4bd 4779 bcbe
000001c0: 6eb9 c5bd 0e05 d2bd bdb5 94bd 9a6b 843d
000001d0: cf46 9cbe 7ac4 9bbd 2186 8ebe 4ace b5bd
000001e0: ee4a 3dbe 2905 edbd 0f93 9bbd 12b3 09be
000001f0: d8ce 11be 21a6 753d 9f75 83be dc34 9c3c

fc2.weight f4 [128, 132]
-0.25744408 0.13439652 -0.05514529 0.12838823 -0.29947427 0.13221817 0.18279569 0.035263743
0.018178103 -0.11790344 0.026148729 0.111142695 0.122473635 0.032067247 0.017346209 0.084576435
0.065488204 -0.019736659 0.04967682 0.1131226 0.1955034 -0.09349215 -0.2835156 -0.04517953
0.16040918 -0.13080946 -0.09131051 0.18294239 -0.24741164 -0.019500053 0.09852422 -0.107305765
0.053556796 0.02720909 0.030098526 0.03722763 -0.083658375 -0.1677592 -0.057943624 -0.19529693
-0.11616882 0.013818358 -0.20770438 0.25842956 -0.10625129 0.07545177 -0.080229044 -0.12535605
-0.12461325 -0.039779555 -0.20867412 -0.105442874 -0.42406413 0.040285934 0.1460561 0.030898964
-0.050177068 -0.2405747 -0.0313716 -0.028409043 -0.013207763 -0.059517756 0.025405824 0.14937098
0.053362258 -0.044182424 -0.44764942 -0.09690858 -0.03435227 -0.06672642 0.13282992 0.05428621
-0.17367034 -0.13515131 -0.09659323 -0.083052345 -0.15956421 0.17605981 0.14283493 0.08357698
0.06115054 0.09465834 0.08778833 -0.2290265 -0.21389994 -0.0048736148 0.04387964 -0.12064369
-0.35957167 0.11018649 -0.054629445 0.20381781 -0.03304819 -0.24052009 -0.12114018 0.24548975
0.15028872 -0.41219282 0.06525082 -0.05305941 0.044475254 -0.4058032 -0.015281695 -0.12851767
0.13083775 0.031983532 0.03330974 -0.12734927 -0.1182644 0.16094854 -0.04548799 -0.08746806
-0.07626639 0.005295206 -0.08847881 -0.15551664 -0.19445224 0.018906353 -0.0800702 -0.06432869
0.04661483 0.042334322 0.20934445 0.111281775 -0.06740716 -0.04360173 -0.119813845 -0.22286513
0.013230907 0.013514628 0.012843029 3.3755558e-05 0.037769206 -0.44590017 -0.20250261 -0.038101308
-0.021050707 -0.15122575 -0.101106144 -0.1412278 0.04954993 -0.29087096 -0.21023043 -0.19824684
-0.14134164 -0.008860265 -0.24326031 0.25108096 0.11430653 0.11888034 0.15103802 0.122154586
-0.24092427 -0.058882102 -0.45957655 0.05938533 -0.0085167345 -0.0386657 0.02872035 -0.11987121
-0.00020871454 0.12087003 0.05771494 0.107845485 -0.19421907 0.060971323 0.02085046 0.048731588
0.11483301 0.28031915 -0.09506826 0.070573665 0.03226766 0.18297486 -0.11079201 0.08748056
0.025545383 -0.091376916 -0.25862873 0.020997697 -0.12772447 -0.0066905613 0.0020185893 -0.2857212
0.15534207 -0.04544214 0.047881637 0.067404345 0.0931391 0.0020307472 -0.14184019 -0.019613886
-0.06292496 -0.42430836 -0.10366379 0.21719408 -0.07433307 0.057074375 0.09349023 0.09027782
-0.010421706 -0.39627138 0.06747072 0.031181032 -0.13367642 -0.24655592 0.08125375 0.03029764
-0.24047075 -0.029289508 0.33147073 -0.39155486 -0.36535963 -0.15009572 -0.08644795 0.007021796
-0.21216542 0.0365356 0.04484079 0.049165457 0.03169735 -0.21997136 -0.0006397522 0.14912419
-0.023270823 -0.020671284 -0.064526156 -0.17067452 0.063823245 -0.12986776 0.19696051 -0.09134226
-0.13235794 -0.2273154 -0.029566903 -0.03601275 0.042108152 -0.08627175 -0.052528825 0.040917832
0.06762979 -0.061051782 -0.19089222 -0.12952757 -0.036072765 -0.18069378 -0.106830165 -0.030843664
0.029366067 -0.068077795 0.13812447 -0.05866 0.008284899 -0.24436057 0.08040925 -0.18400408
00000000: b6cf 83be 3e9f 093e 07e0 61bd 3478 033e
00000010: b154 99be 3364 073e cb2e 3b3e b770 103d
00000020: 3fea 943c 5c77 f1bd dc35 d63c c89e e33d
00000030: 75d3 fa3d f258 033d a319 8e3c 6936 ad3d
00000040: ae1e 863d c6ae a1bc ec79 4b3d d2ac e73d
00000050: 0b32 483e d078 bfbd f528 91be 2c0e 39bd
00000060: 4e42 243e eaf2 05be 0101 bbbd 4055 3b3e
00000070: 7a59 7dbe 93be 9fbc 11c7 c93d 20c3 dbbd
00000080: 5f5e 5b3d 99e5 de3c 2f91 f63c 007c 183d
00000090: 1555 abbd 11c9 2bbe 4b56 6dbd ebfb 47be
000000a0: ebe9 edbd 6566 623c 75b0 54be e150 843e
000000b0: 479a d9bd 7586 9a3d 204f a4bd 565d 00be
000000c0: 3b35 ffbd e3ef 22bd abae 55be 6ff2 d7bd
000000d0: ef1e d9be dd02 253d bb8f 153e d31f fd3c
000000e0: 7886 4dbd 3759 76be 827f 00bd 15ba e8bc
000000f0: 6065 58bc e4c8 73bd e01f d03c b5f4 183e
00000100: 6292 5a3d a1f8 34bd 4e32 e5be 0178 c6bd
00000110: f7b4 0cbd dca7 88bd 9104 083e 385b 5e3d
00000120: a3d6 31be 1b65 0abe acd2 c5bd 5917 aabd
00000130: cd64 23be 0649 343e 5243 123e 682a ab3d
00000140: fd78 7a3d 3bdc c13d 5eca b33d ec85 6abe
00000150: 9608 5bbe d8b2 9fbb 23bb 333d 0a14 f7bd
00000160: c719 b8be 74a9 e13d 20c3 5fbd 9eb5 503e
00000170: 8a5d 07bd e64a 76be 5818 f8bd aa61 7b3e
00000180: 49e5 193e f00a d3be 39a2 853d d354 59bd
00000190: af2b 363d 70c5 cfbe 1360 7abc 239a 03be
000001a0: 55fa 053e 2a01 033d cb6f 083d d967 02be
000001b0: 9b34 f2bd b2cf 243e 9d51 3abd 7422 b3bd
000001c0: 8e31 9cbd 6883 ad3b 6134 b5bd c13f 1fbe
000001d0: 7d1e 47be 7fe1 9a3c d8fb a3bd c3be 83bd
000001e0: 31ef 3e3d c166 2d3d 645e 563e b3e7 e33d
000001f0: c40c 8abd ba97 32bd f660 f5bd c236 64be
00000200: 72c6 583c 756c 5d3c 916b 523c c194 0d38
00000210: e2b3 1a3d 074d e4be d85c 4fbe 1e10 1cbd
00000220: 8872 acbc ecda 1abe bd10 cfbd 059e 10be
00000230: def4 4a3d 0aed 94be a546 57be 3801 4bbe
00000240: ddbb 10be a52a 11bc 3b19 79be af8d 803e
00000250: 8b19 ea3d 8977 f33d b6a9 1a3e 2f2c fa3d
00000260: dab4 76be 5c2e 71bd 9e4d ebbe 083e 733d
00000270: c689 0bbc ed5f 1ebd f046 eb3c 097f f5bd
00000280: 62da 5ab9 b58a f73d 8066 6c3d 18de dc3d
00000290: 5de1 46be 11bd 793d 95ce aa3c c69a 473d
000002a0: 922d eb3d fe85 8f3e 26b3 c2bd ed88 903d
000002b0: 182b 043d c35d 3b3e ece6 e2bd 0229 b33d
000002c0: 8d44 d13c d223 bbbd fc6a 84be 5d03 ac3c
000002d0: 34ca 02be 7f3c dbbb 4f4a 043b 0d4a 92be
000002e0: fe11 1f3e 8a21 3abd 891f 443d 4a0b 8a3d
000002f0: b6bf be3d 4916 053b 8e3e 11be 4dad a0bc
00000300: cdde 80bd f23e d9be ae4d d4bd 2068 5e3e
00000310: f03b 98bd d2c6 693d ce77 bf3d 94e3 b83d
00000320: cebf 2abc 15e4 cabe 172e 8a3d 5d6f ff3c
00000330: 79e2 08be 2879 7cbe 5e68 a63d c232 f83c
00000340: f73d 76be 8df0 efbc 88b6 a93e e179 c8be
00000350: 6b10 bbbe b1b2 19be 9f0b b1bd 1817 e63b
00000360: e441 59be 5aa6 153d faaa 373d b861 493d
00000370: 15d5 013d 2c40 61be 0bb5 27ba 03b4 183e
00000380: 74a2 bebc d356 a9bc 4a26 84bd 4dc5 2ebe
00000390: c3b5 823d 0efc 04be 04b0 493e a711 bbbd
000003a0: d788 07be 5ec5 68be 4a36 f2bc 1b82 13bd
000003b0: 9979 2c3d 3eaf b0bd 7728 57bd 7599 273d
000003c0: 7d81 8a3d 6f11 7abd 4079 43be e0a2 04be
000003d0: 09c1 13bd ca07 39be c6c9 dabd daab fcbc
000003e0: 1b91 f03c 5f6c 8bbd 8070 0d3e 7845 70bd
000003f0: 63bd 073c a839 7abe 9bad a43d 916b 3cbe

fc2.bias f4 [128]
0.23943844 -0.18532301 0.15167636 0.36025456 -0.08673928 0.061054118 0.3769812 -0.33132035
-0.19201285 0.3385084 0.028643716 -0.37536418 -0.31335473 -0.31467268 -0.28098297 -0.2058108
-0.21287693 -0.21180011 -0.31748518 -0.25729576 -0.21761239 -0.07454379 -0.08956083 -0.0030038718
0.1525103 0.27037743 -0.25694886 -0.23364648 0.1511078 0.07432125 -0.34891897 -0.23493738
0.29662797 0.5205056 -0.35383865 -0.17205945 -0.1573357 -0.35046813 -0.09971699 -0.29980996
-0.06162349 -0.40118742 0.228534 -0.32850373 -0.008345576 0.08009166 -0.34748715 -0.14784142
-0.17707708 -0.26508084 -0.25290003 -0.29686463 0.39819473 -0.31073508 -0.20440026 0.37294292
-0.083680324 0.2119724 -0.22664782 -0.3177911 0.21078098 0.02430083 -0.25923315 -0.06038028
0.21258762 0.16298212 -0.19939491 0.0488393 -0.17186877 0.022088237 -0.18380079 0.15128957
-0.121405005 0.021730712 -0.3137605 0.66182774 -0.2664338 -0.3234748 -0.16134204 -0.25386462
-0.29042554 -0.21861619 -0.2505582 -0.07731838 -0.2736589 0.1484217 0.091452606 -0.24703935
-0.32346544 0.12769121 0.16101879 0.3545787 -0.058900993 0.08681972 -0.0629712 -0.15084782
-0.35173425 -0.092835344 0.17890929 -0.25202414 -0.15319693 -0.34029937 0.18502866 -0.17557918
-0.1862754 -0.2016376 0.16498478 -0.2323156 -0.27255338 -0.38464436 -0.39672133 -0.12216224
-0.30041894 -0.25546506 0.32946908 0.44105828 -0.22450255 -0.029418467 0.10722286 -0.18762328
-0.18075818 0.16562918 -0.36159143 0.2763111 0.1335721 0.13918345 0.10710747 -0.19745275
00000000: 5a2f 753e 51c5 3dbe 0c51 1b3e 4973 b83e
00000010: 5da4 b1bd e213 7a3d ae03 c13e d2a2 a9be
00000020: 049f 44be f950 ad3e 3aa6 ea3c bc2f c0be
00000030: 0870 a0be c71c a1be 00dd 8fbe 11c0 52be
00000040: 69fc 59be 21e2 58be 6b8d a2be 45bc 83be
00000050: c8d5 5ebe 6aaa 98bd ab6b b7bd 9bdc 44bb
00000060: a92b 1c3e e96e 8a3e cd8e 83be 0641 6fbe
00000070: 01bc 1a3e bd35 983d 82a5 b2be 6d93 70be
00000080: 9fdf 973e db3f 053f 572a b5be 5a30 30be
00000090: 9c1c 21be 8f70 b3be 6c38 ccbd b180 99be
000000a0: ea68 7cbd 7068 cdbe d104 6a3e a431 a8be
000000b0: e2bb 08bc 1907 a43d d6e9 b1be be63 17be
000000c0: b253 35be adb8 87be 1d7c 81be a4fe 97be
000000d0: 2ee0 cb3e ab18 9fbe 4d4e 51be 60f2 be3e
000000e0: 9760 abbd 4b0f 593e 5e16 68be 84b5 a2be
000000f0: f8d6 573e 8912 c73c 35ba 84be 5051 77bd
00000100: 92b0 593e c9e4 263e 2e2e 4cbe b80b 483d
00000110: 5efe 2fbe 64f2 b43c 4636 3cbe a7eb 1a3e
00000120: 30a3 f8bd 9b04 b23c 37a5 a0be 8b6d 293f
00000130: 036a 88be 7d9e a5be d936 25be 8bfa 81be
00000140: a8b2 94be ecdc 5fbe 2a49 80be 1959 9ebd
00000150: 051d 8cbe dcfb 173e 814b bb3d e2f7 7cbe
00000160: 439d a5be 7cc1 023e 1ce2 243e 578b b53e
00000170: 2b42 71bd 8ace b13d 0bf7 80bd da77 1abe
00000180: 8316 b4be 7520 bebd ff33 373e 4f09 81be
00000190: a8df 1cbe b83b aebe 2778 3d3e 07cb 33be
000001a0: fabe 3ebe 167a 4ebe c5f1 283e 24e4 6dbe
000001b0: 1e8c 8bbe 1bf0 c4be 0f1f cbbe 3230 fabd
000001c0: 83d0 99be 51cc 82be 2cb0 a83e 64d2 e13e
000001d0: ffe3 65be fffe f0bc a997 db3d 5120 40be
000001e0: ac18 39be b29a 293e 8322 b9be a678 8d3e
000001f0: 20c7 083e 1b86 0e3e 295b db3d 0e31 4abe

fc3.weight f4 [1, 128]
0.13301076 0.20438479 0.102077715 0.10488266 0.10969299 0.07438165 0.11945472 -0.1101743
-0.24433471 0.09206596 0.12550181 -0.20418932 -0.2095864 0.3114923 -0.16050628 -0.183309
-0.13356756 -0.1531059 -0.09836032 -0.37242827 -0.22162166 0.12821633 0.1175359 0.09182596
0.11321716 0.104313724 -0.2233219 0.24000221 0.12441237 0.12158366 -0.16596824 0.21768814
0.07463069 0.13130985 -0.10885929 -0.0902405 -0.19286762 -0.22300033 0.12797605 -0.1843714
0.15922363 -0.21413524 0.14239003 -0.24013479 0.090576254 0.10974831 -0.2585137 -0.115659416
0.1372998 -0.19084856 -0.10519595 -0.14984809 0.14318085 -0.1673473 -0.16695893 0.11746094
0.13486925 0.11758045 -0.091879316 -0.20090082 0.087825924 0.10164766 -0.1341442 0.1472335
0.091195755 0.081847094 -0.1963203 0.11790858 -0.18025593 0.120327316 0.22052348 0.11251141
-0.10988759 0.1369854 -0.10319502 0.19215332 -0.15720674 -0.18460222 -0.057051912 -0.15225032
-0.1374316 0.33860725 -0.12481457 0.13751338 -0.099276446 0.10683189 0.061121926 -0.16108885
-0.1643533 0.10818673 0.08660759 0.112514876 0.12549435 0.094580635 0.103614405 -0.16888012
-0.14417847 0.1565748 0.1539872 -0.22633295 -0.09514724 -0.15342839 0.14042795 -0.17663904
-0.11505619 -0.09414691 0.086509846 0.3699684 -0.233181 -0.17744577 -0.2808823 0.15995432
-0.09792887 -0.21881309 0.11826079 0.09698687 -0.09868394 0.11645487 0.09991512 -0.07752396
-0.19091609 0.102304086 -0.13637628 0.1309587 0.09055807 0.091257185 0.086487316 -0.077664405
00000000: f933 083e 3f4a 513e 1f0e d13d b8cc d63d
00000010: b8a6 e03d 6855 983d ada4 f43d 10a3 e1bd
00000020: e132 7abe 148d bc3d 8c83 003e 0117 51be
00000030: d19d 56be eb7b 9f3e c25b 24be 5bb5 3bbe
00000040: efc5 08be cbc7 1cbe 2371 c9bd ebae bebe
00000050: caf0 62be 244b 033e a9b6 f03d 400f bc3d
00000060: 66de e73d 6fa2 d53d 7fae 64be 24c3 753e
00000070: eacb fe3d db00 f93d 94f3 29be a4e9 5e3e
00000080: fad7 983d 1776 063e 9ff1 debd 03d0 b8bd
00000090: 177f 45be 335a 64be 270c 033e dbcb 3cbe
000000a0: 850b 233e 4546 5bbe b1ce 113e e5e5 75be
000000b0: 0b80 b93d b9c3 e03d e85b 84be d8de ecbd
000000c0: 5298 0c3e ce6d 43be f970 d7bd c771 19be
000000d0: 009e 123e 175d 2bbe 48f7 2abe 5c8f f03d
000000e0: 2a1b 0a3e 05ce f03d 392b bcbd f2b8 4dbe
000000f0: 14de b33d a62c d03d 195d 09be 61c4 163e
00000100: d7c4 ba3d 739f a73d 3008 49be 0e7a f13d
00000110: 0395 38be 2b6e f63d e8d0 613e 626c e63d
00000120: bf0c e1bd e745 0c3e e957 d3bd d7c3 443e
00000130: cefa 20be 5d08 3dbe 44af 69bd 82e7 1bbe
00000140: dfba 0cbe ee5d ad3e c89e ffbd 4fd0 0c3e
00000150: 7351 cbbd aeca da3d fc5a 7a3d 7af4 24be
00000160: 3b4c 28be 0191 dd3d 525f b13d 336e e63d
00000170: 9781 003e 7eb3 c13d ca33 d43d e9ee 2cbe
00000180: 85a3 13be 2555 203e d2ae 1d3e d3c3 67be
00000190: 8edc c2bd 551c 1dbe 58cc 0f3e dde0 34be
000001a0: 94a2 ebbd 18d0 c0bd 132c b13d 806c bd3e
000001b0: 00c7 6ebe 58b4 35be cecf 8fbe 11cb 233e
000001c0: ee8e c8bd 8a10 60be b732 f23d 0da1 c63d
000001d0: ce1a cabd e47f ee3d 4ca0 cc3d e2c4 9ebd
000001e0: 827f 43be ce84 d13d 39a6 0bbe 0a1a 063e
000001f0: 8276 b93d 0ce5 ba3d 4320 b13d 840e 9fbd

bn1.weight f4 [128]
0.60722965 0.302995 0.4770115 0.60745674 0.3618251 0.2684777 0.7391533 0.34612972
0.55640316 0.72392565 0.33586028 0.41868 0.7568522 0.6137812 0.8615779 0.51281947
0.34058732 0.49189708 0.5244695 0.6480196 0.34188125 0.7508482 0.28055224 0.29478595
0.480822 0.47653753 0.48471978 0.4423746 0.42539477 0.27548164 0.95403975 0.2970923
0.34586084 0.39599055 0.5060047 0.47185847 0.1640246 0.22299987 0.3354162 0.25964075
0.39759162 0.5160789 0.45986444 0.049263313 0.35597277 0.2685622 0.25839072 0.50683707
0.2921468 0.5217798 0.59898895 0.4236377 0.578985 0.5044447 0.4648715 0.7174822
0.21863146 0.5272466 0.7542065 0.51695615 0.7325303 0.40904358 0.36622563 0.5328895
0.47624856 0.60901296 0.34140584 0.63978684 0.42145184 0.9602743 0.25758296 0.42290068
0.47189915 0.5209758 0.27000976 0.2873719 0.55280924 0.81629246 0.3190226 0.34139425
0.58105665 0.65308553 0.15333225 0.3700614 0.554681 0.3516954 0.80032736 0.35680237
0.39507598 0.68078053 0.38801426 0.40993792 0.4385638 0.33825928 0.70081615 0.49032593
0.37841588 0.64008445 0.3126476 0.4703528 0.28446305 0.62048733 0.44999117 0.3666869
0.3228734 0.70258963 0.3674502 0.38560492 0.5167836 0.15493453 0.5598948 0.40344432
0.55858326 0.5950728 0.74846035 0.5494733 0.48075685 0.41137895 0.49346727 0.30514
0.27667785 0.8616341 0.5198418 0.24623568 0.50309587 0.44326594 0.5117988 0.3969059
00000000: 6773 1b3f 2922 9b3e da3a f43e 4982 1b3f
00000010: 2441 b93e e975 893e 2739 3d3f ea37 b13e
00000020: 7070 0e3f 3153 393f e1f5 ab3e 3a5d d63e
00000030: 11c1 413f c420 1d3f 5f90 5c3f 2348 033f
00000040: 7661 ae3e efd9 fb3e a243 063f 9de4 253f
00000050: 0f0b af3e 9637 403f 8ba4 8f3e 2fee 963e
00000060: 4d2e f63e bafc f33e 312d f83e ec7e e23e
00000070: 58cd d93e ee0b 8d3e f33b 743f 7b1c 983e
00000080: ac14 b13e 46bf ca3e 8689 013f 6f97 f13e
00000090: 11f6 273e 145a 643e acbb ab3e a2ef 843e
000000a0: 2191 cb3e bf1d 043f 5a73 eb3e 54c8 493d
000000b0: 1042 b63e fc80 893e ca4b 843e 13c0 013f
000000c0: 4494 953e 5c93 053f 5757 193f 0ae7 d83e
000000d0: 5c38 143f 4a23 013f a303 ee3e eaac 373f
000000e0: ede0 5f3e a2f9 063f ad13 413f 3d57 043f
000000f0: 1b87 3b3f 296e d13e ed81 bb3e 726b 083f
00000100: dad6 f33e 46e8 1b3f bfcc ae3e 12c9 233f
00000110: 89c8 d73e 89d4 753f eae1 833e 7086 d83e
00000120: c49c f13e ac5e 053f b83e 8a3e 6922 933e
00000130: e884 0d3f 8bf8 503f ee56 a33e 3acb ae3e
00000140: 21c0 143f 9d30 273f 2103 1d3e b078 bd3e
00000150: 93ff 0d3f 6b11 b43e 41e2 4c3f cdae b63e
00000160: 6647 ca3e a247 2e3f cea9 c63e 62e3 d13e
00000170: 6f8b e03e 5230 ad3e b068 333f 000c fb3e
00000180: babf c13e 93dc 233f 5913 a03e 15d2 f03e
00000190: 24a5 913e 42d8 1e3f 3e65 e63e 63be bb3e
000001a0: aa4f a53e eadc 333f 6f22 bc3e 026e c53e
000001b0: ee4b 043f 28a7 1e3e 4455 0f3f 4190 ce3e
000001c0: 50ff 0e3f b156 183f 199b 3f3f 48aa 0c3f
000001d0: c325 f63e 43a0 d23e bea7 fc3e 4f3b 9c3e
000001e0: b8a8 8d3e 0d94 5c3f 5a14 053f 3525 7c3e
000001f0: e4ca 003f c1f3 e23e 3f05 033f 4037 cb3e

bn1.bias f4 [128]
-0.09912827 0.23452003 0.076477915 -0.1409049 0.08012138 0.01624877 0.095145464 0.052682906
0.24845332 0.007957132 0.109681904 0.32177496 0.27107638 0.09621689 0.0747959 0.0008585415
0.17677331 0.09916002 -0.09530781 0.084271535 0.01471672 0.12112966 0.10480116 0.022673715
-0.20315869 0.07227407 -0.22946623 0.15264767 0.08550786 0.02336659 0.18748036 0.063654065
0.24569087 0.16811873 -0.12610531 0.1645478 -0.2714751 -0.18067165 0.18083109 -0.30529726
0.1422005 0.1917985 0.14037095 0.34295577 0.13337952 -0.1417966 0.084999785 0.06357252
-0.055258 -0.020305157 -0.032001097 0.19143717 0.008474126 0.028188711 0.044604283 0.2060162
0.23428398 0.0133607015 0.101182744 -0.10434425 0.047632355 0.4524914 0.17595035 0.08674216
0.1183586 0.016021306 0.09867831 -0.04545022 0.33481213 0.14119619 -0.20849435 -0.09451406
-0.08028324 -0.053804908 -0.3810487 0.028379474 0.14880802 0.07833125 -0.26030663 0.1681165
0.15126468 0.02420759 -0.059174646 0.004455782 0.12196119 0.17799181 0.07981201 -0.020381277
0.05074678 0.14317472 -0.13563074 0.07496487 0.042662174 0.09025464 0.16347995 -0.060566004
0.053348977 0.023833906 -0.033091426 -0.010411016 0.074876 0.2004065 -0.17752202 0.03123168
-0.024858069 0.10532328 0.072463796 -0.008816123 0.02528109 0.27785474 0.18847075 0.101894364
0.015730679 0.20173109 0.16386962 -0.15130799 0.031303134 0.093577914 0.12086897 0.013504712
0.404462 0.056867264 0.045733873 0.14122626 -0.0059713237 0.12082771 0.05489287 0.014769725
00000000: c303 cbbd 0526 703e 74a0 9c3d 6049 10be
00000010: ae16 a43d 241c 853c a0db c23d 08ca 573d
00000020: 8c6a 7e3e a15e 023c e8a0 e03d b0bf a43e
00000030: 86ca 8a3e 5c0d c53d 982e 993d bf0f 613a
00000040: 1004 353e 6914 cb3d be30 c3bd 8e96 ac3d
00000050: 661e 713c d412 f83d fea1 d63d 3abe b93c
00000060: d508 50be 6d04 943d 32f9 6abe ac4f 1c3e
00000070: bf1e af3d 4a6b bf3c dafa 3f3e 105d 823d
00000080: 6396 7b3e 5127 2c3e c021 01be 387f 283e
00000090: c9fe 8abe fd01 39be c92b 393e ec4f 9cbe
000000a0: 029d 113e d366 443e 67bd 0f3e e697 af3e
000000b0: a494 083e 2133 11be 5e14 ae3d 4f32 823d
000000c0: 3656 62bd 0057 a6bc 9513 03bd 1b08 443e
000000d0: 10d7 0a3c 03ec e63c fbb2 363d e9f5 523e
000000e0: 24e8 6f3e d8e6 5a3c e638 cf3d 70b2 d5bd
000000f0: 251a 433d f4ac e73e 542c 343e e0a5 b13d
00000100: fe65 f23d 1d3f 833c db17 ca3d 032a 3abd
00000110: 7f6c ab3e bc95 103e 8b7f 55be 9690 c1bd
00000120: 8a6b a4bd 8962 5cbd d118 c3be 127c e83c
00000130: 2161 183e 226c a03d e946 85be bb26 2c3e
00000140: 21e5 1a3e ff4e c63c 1d61 72bd cf01 923b
00000150: cac6 f93d 7c43 363e 7b74 a33d a3f6 a6bc
00000160: dbdb 4f3d 659c 123e c9e2 0abe 2f87 993d
00000170: 88be 2e3d 6dd7 b83d 4a67 273e 0f14 78bd
00000180: 7584 5a3d 533f c33c e08a 07bd f792 2abc
00000190: 9758 993d 5d37 4d3e 55c8 35be 95d9 ff3c
000001a0: 26a3 cbbc bbb3 d73d e667 943d 8071 10bc
000001b0: 4a1a cf3c fa42 8e3e 7afe 403e fead d03d
000001c0: a0dd 803c 9892 4e3e 70cd 273e 7bf0 1abe
000001d0: b737 003d c7a5 bf3d 278a f73d de42 5d3c
000001e0: a515 cf3e a6ed 683d 7153 3b3d 9e9d 103e
000001f0: 18ab c3bb 8574 f73d 59d7 603d b7fc 713c

bn1.running_mean f4 [128]
0.2875308 0.72925276 0.13913512 0.16044363 0.7670139 0.03422784 0.32284102 0.4346189
0.28241408 0.39656964 0.07137793 0.51972646 0.19681151 0.11494486 0.1760724 0.43420634
0.6438884 0.3269605 0.43857676 0.14937077 0.28909528 0.11893751 0.17376563 0.24417056
0.23605448 0.18850864 0.40827355 0.20620209 0.1041792 0.26459438 0.2625698 0.2147052
0.22627993 0.25777152 0.36478886 0.32866535 0.6728314 0.027169399 0.4572952 0.15796308
0.09602196 0.56391084 0.27426276 0.3550524 0.44854182 0.17605604 0.026171274 0.22647443
0.14140004 0.3448437 0.38352805 0.3515767 0.44087267 0.20209064 0.0856881 0.29690132
0.07304263 0.19756906 0.32066923 0.2976927 0.5338988 0.949028 0.278644 0.7282032
0.47624394 0.35137907 0.30001718 0.114085235 0.5579001 0.20842236 0.16674212 1.6300952
0.40122867 0.22148728 0.349969 0.061041012 0.43191803 0.1965376 0.15875176 0.24734989
0.25207853 0.1975694 0.05388332 0.14896882 0.3965436 0.15229599 0.17848115 0.17968696
0.16815569 0.3749061 0.21217994 0.8509207 0.111921854 0.15908891 0.59940284 0.27435407
0.9235205 0.2432036 0.2160411 0.34372854 0.53686035 0.14436899 0.42148745 0.14289159
0.18804437 0.24610648 0.42762798 0.31936595 0.25189015 0.13568534 0.30206442 0.05381999
0.23949257 0.4489787 0.25989252 0.57496053 0.26134434 0.021313362 0.16886856 0.13022846
0.67906374 0.20725763 0.30088693 0.048732582 0.13989738 0.09871258 0.08269735 0.20151132
00000000: 3d37 933e 4fb0 3a3f 7079 0e3e 564b 243e
00000010: 065b 443f 7e32 0c3d 6b4b a53e 5e86 de3e
00000020: 9498 903e 2d0b cb3e 982e 923d cb0c 053f
00000030: f588 493e 3668 eb3d 534c 343e 4b50 de3e
00000040: dfd5 243f 5e67 a73e 228d e03e a7f4 183e
00000050: 4c04 943e 8295 f33d 9eef 313e d907 7a3e
00000060: 44b8 713e 6908 413e 3b09 d13e a426 533e
00000070: e85b d53d ea78 873e 8c6f 863e aedb 5b3e
00000080: edb5 673e a1fa 833e 9bc5 ba3e d346 a83e
00000090: ae3e 2c3f 5c92 de3c 9922 ea3e 13c1 213e
000000a0: 29a7 c43d 765c 103f 2b6c 8c3e 6ec9 b53e
000000b0: 46a7 e53e 0948 343e 2465 d63c eae8 673e
000000c0: 2ccb 103e 5a8f b03e ca5d c43e dc01 b43e
000000d0: 10ba e13e d9f0 4e3e 3e7d af3d 7303 983e
000000e0: 6097 953d 8b4f 4a3e c22e a43e 2d6b 983e
000000f0: 97ad 083f 80f3 723f 6daa 8e3e 866b 3a3f
00000100: 3fd6 f33e f5e7 b33e da9b 993e 85a5 e93d
00000110: 8ad2 0e3f ac6c 553e 72be 2a3e f6a6 d03f
00000120: d86d cd3e 90cd 623e 232f b33e 2406 7a3d
00000130: 5c24 dd3e 2741 493e d28f 223e 4a49 7d3e
00000140: 7010 813e a24f 4a3e c2b4 5c3d 488b 183e
00000150: c307 cb3e 7bf3 1b3e c3c3 363e dcff 373e
00000160: 0131 2c3e b1f3 bf3e b345 593e f0d5 593f
00000170: 4937 e53d 34e8 223e 7772 193f 2378 8c3e
00000180: d76b 6c3f 5d0a 793e e139 5d3e 30fd af3e
00000190: ae6f 093f 77d5 133e 34cd d73e 2c52 123e
000001a0: b48e 403e 5603 7c3e 0ef2 da3e ef83 a33e
000001b0: bff7 803e 19f1 0a3e 30a8 9a3e 5a72 5c3d
000001c0: 8a3d 753e 89e0 e53e a210 853e 9d30 133f
000001d0: edce 853e 5c99 ae3c e1eb 2c3e 9c5a 053e
000001e0: 1fd7 2d3f 583b 543e da0d 9a3e d19b 473d
000001f0: 4241 0f3e d229 ca3d 3a5d a93d fc58 4e3e

bn1.running_var f4 [128]
0.20677525 0.2716772 0.0896156 0.12537722 0.6880955 0.020809906 0.2941576 0.34801608
0.19296989 0.28501296 0.06940264 0.44512793 0.12067665 0.06291138 0.12853338 0.36368975
0.40196 0.17977592 0.34808183 0.086359866 0.20633312 0.08866505 0.08164766 0.18847229
0.17573492 0.15559864 0.30408406 0.17746072 0.06421986 0.17334265 0.2139559 0.1438374
0.17740105 0.16074793 0.33414194 0.21478969 0.99918467 0.012332772 0.2112731 0.088098004
0.07065584 0.36075115 0.13267459 0.3452331 0.28154758 0.14118108 0.01716771 0.17680982
0.10745823 0.17313041 0.23872775 0.235726 0.3462499 0.13630018 0.058605183 0.21452853
0.05666114 0.19732004 0.26733106 0.17838122 0.29598618 0.43761155 0.24068117 0.6828175
0.33118787 0.32318565 0.28067824 0.07164619 0.44545582 0.14127672 0.10819866 0.34383303
0.2891034 0.21606344 0.1966234 0.04377492 0.38091385 0.11022993 0.113017924 0.22972374
0.21593443 0.12600997 0.036827445 0.12686981 0.17182001 0.13100123 0.14859156 0.18053707
0.08198653 0.32621327 0.13259262 0.564614 0.08029456 0.13334437 0.33040005 0.22895278
0.9536262 0.14724034 0.16673663 0.32379755 0.44114077 0.11317131 0.37193298 0.08115506
0.13629188 0.23723733 0.22122596 0.1610805 0.19568278 0.116606064 0.19849648 0.039388966
0.21533534 0.327151 0.18710092 0.48402795 0.22096796 0.016454972 0.14661032 0.123920776
0.46708703 0.13058354 0.29395577 0.040717136 0.1155573 0.08544044 0.051665574 0.14210148
00000000: e4bc 533e 4619 8b3e 6288 b73d e362 003e
00000010: 0727 303f 8979 aa3c d39b 963e 2a2f b23e
00000020: e699 453e 38ed 913e f922 8e3d cfe7 e33e
00000030: 5225 f73d aed7 803d 419e 033e 8b35 ba3e
00000040: b3cd cd3e 2e17 383e c837 b23e 71dd b03d
00000050: fd48 533e 0696 b53d e336 a73d e1fe 403e
00000060: dbf3 333e 4055 1f3e e8b0 9b3e 43b8 353e
00000070: b485 833d bc80 313e 4117 5b3e 1d4a 133e
00000080: 9fa8 353e 1b9b 243e a714 ab3e d4f1 5b3e
00000090: 91ca 7f3f 650f 4a3c fa57 583e ba6c b43d
000000a0: 02b4 903d 60b4 b83e d9db 073e 65c2 b03e
000000b0: 0127 903e c691 103e 4ca3 8c3c a20d 353e
000000c0: 0f13 dc3d 1949 313e 0c75 743e 2862 713e
000000d0: ab47 b13e 4692 0b3e fd0b 703d 5ead 5b3e
000000e0: 8315 683d 440e 4a3e 9edf 883e 91a9 363e
000000f0: 808b 973e 9f0e e03e 2075 763e 21cd 2e3f
00000100: 7591 a93e 9778 a53e 0fb5 8f3e 3dbb 923d
00000110: c912 e43e d8aa 103e 4297 dd3d e20a b03e
00000120: 5c05 943e bc3f 5d3e a557 493e 554d 333d
00000130: 2407 c33e 3bc0 e13d f175 e73d b33c 6b3e
00000140: ea1d 5d3e c208 013e 60d8 163d 29ea 013e
00000150: 96f1 2f3e 3025 063e 6328 183e b6de 383e
00000160: 8ee8 a73d 6d05 a73e 5cc6 073e 8b8a 103f
00000170: 7971 a43d 6d8b 083e 322a a93e 9972 6a3e
00000180: d920 743f 2cc6 163e 02bd 2a3e cbc8 a53e
00000190: 34dd e13e 5cc6 e73d 006e be3e a034 a63d
000001a0: 1990 0b3e 58ee 723e 0f89 623e 49f2 243e
000001b0: 1161 483e 29cf ee3d a942 4b3e 5356 213d
000001c0: de80 5c3e 5680 a73e 6297 3f3e 83d2 f73e
000001d0: 6d45 623e 94cc 863c 0421 163e 2dca fd3d
000001e0: 0826 ef3e b1b7 053e 5f81 963e 03c7 263d
000001f0: 4ea9 ec3d 66fb ae3d 489f 533d 0d83 113e
