p2-ContinuousControl/DDPG_checkpoint_actor.pth (torch_old, 88990 bytes, 10 tensors)

fc1.weight f4 [128, 33]
00000000: 95ba 14be 7f2c 4dbe fbd3 a8bd eef0 973e
00000010: b02e 89bc b956 71be dc40 38bf 17f9 c1bd
00000020: 3211 343e e0b9 703d 22a8 9d3d a33f 4c3c
00000030: cab9 d4bd 6f5f dc3d dc0c ef3d d18e e538
00000040: 25c9 bc3d bc0c 59be dca1 92be b40d bdbe
00000050: 97ea ff3c 412c 513c 4824 15bd 59c7 0c3e
00000060: f930 73bb f929 a9bc 374e c73d 2c7d 403d
00000070: 0243 64bd 97b8 24bd f753 88bd 960b 4c3d
00000080: 55b9 6c3f e1e3 983d 03bf 843b 3d09 c8bb
00000090: 72c9 9cbc c470 9d3d 4c8d dd3e 02a7 f73d
000000a0: c9f8 4d3c 7a8b fb3d 9996 bcbd 0117 b13d
000000b0: 3a85 4cbd 61bd b13d 0b80 153d 548e 1b3e
000000c0: 7853 ef3d 44a6 893e d48d 813e a23a 893e
000000d0: 4cd5 39be 5be0 f53c 38a0 a93d 477c ec3b
000000e0: 6934 f03d a1cb 033e fccd 37bd 5a5e 7b3e
000000f0: 7d9b 883e 0668 39be 0136 993d 4885 92be
00000100: 002a bf3b 5f49 283f 1999 ae3d b466 2e3e
00000110: 9693 c4bc 6d1a 363e c939 fa3d 77af 2cbf
00000120: bb0a aa3e e427 1fbd 1b0b cb3d 8d03 b1bd
00000130: bf0e 823d fab7 c8bc 704c 51bc 3505 22be
00000140: f390 35bd 6ac9 b33c 3471 8f3e efb7 9f3e
00000150: 2dae 573e d9a6 873e d413 4bbc e971 77bc
00000160: 6e2d 1e3d 3027 14bd 6d55 0b3c a641 d8bc
00000170: f6a0 8c3e 6733 963e 1c08 7fbd 90ed 9bbc
00000180: 9e7e 89be 9c09 9abd a563 fdbd daf2 4bbe
00000190: ae9d 2bbe 2079 0a3e d689 31bd 6736 be3e
000001a0: a34c 3e3e a2e4 af3e 9567 833d 1768 edbd
000001b0: 917c 133c b638 393b aaa6 03bd 934e ef3c
000001c0: dd5e 953e 2d32 223e 150e 0abe 3a20 5bbe
000001d0: f756 d0bc 5206 92bd d365 de3e 5a2c acbc
000001e0: dea0 5dbc 34ea 173d b09d 243e c972 c13d
000001f0: 9a8a 8ebc b59f ddbd 0105 49bd 185f ad3c
00000200: d88f 763c 74bb 873c 3903 38bd 7dea 9b3e
00000210: 74e4 95bd f742 72bd de8f dcbc 0804 e5bd
00000220: cbc7 01bf fa6f 393e 1577 9dbe 863c 05bd
00000230: c1a4 523e 2333 37bc 1a3e 8fbc 3814 2f3b
00000240: fb35 c5bc db2a c63d f2fc 1e3e 6990 6dbd
00000250: 04fd c43e dc51 a2be 9f4c a73d 90bd ce3e
00000260: f78d 26bc 78ea 02bd 76a0 0abe ed10 983d
00000270: 2eb3 413d 6516 c6bd 8a36 02be 86a6 a63e
00000280: 8ad3 68be 7bb3 aa3d 6a8f acbe 5c26 823c
00000290: ac7a 6ebe 5d41 a03d 212a 0cbe 0334 a5bd
000002a0: fbd6 bcbd e43e 93bd 0109 88bd 95ba 983e
000002b0: bd3e d5bd 2c50 0fbd 9bcf 20be 4333 243d
000002c0: c717 aabc 6e94 b5bd d9c3 99bc e3ee b73e
000002d0: 6d53 483e 8863 7c3e ee2a 59be 1450 10be
000002e0: 0633 083f 4f66 ad3d 17fe c33d 692b 763d
000002f0: 4499 8d3d 3115 b43d 6506 97bd 7294 c4bd
00000300: a1e5 b9bc 3064 35be d8d3 92bc febf 1c3d
00000310: 1ae3 b4bd aeac 93be c072 84be b3a1 e93e
00000320: e064 58be 51ea d43e 0e7a 8b3d 3b41 2a3c
00000330: cf6a 14be e20f 243e 71e5 3f3e 77e9 ee3d
00000340: f1ec e4bd da4a 27bc 16dd 9fbc 88f0 62bc
00000350: a903 a1be 72ab f23a 0a5c cbbd be52 fdbd
00000360: a1b9 82bd e12a b2bc 028b 833d 0c7a 86bd
00000370: dc68 853c ce27 78bd d0b6 bebd 4e67 203e
00000380: 41bb 013d aeb0 b63d 915d 013e 1ac6 92bd
00000390: 44c1 dc3b 746a 8dbc af69 7fbd 1c69 81be
000003a0: 6351 4dbc 0e4f a23d 3820 94be 1ba3 29bd
000003b0: 55d5 2c3f ab53 7fbe 98de 373e 4f56 053f
000003c0: 6c65 a53d 423e 6abd 23b8 0c3d 7b0e 133c
000003d0: c9fe 1a3e fa62 88bd 3e18 d0bd 2fea 14bf
000003e0: 5402 74be d330 ce3d e3c8 033f 02fe 3dbd
000003f0: e7a8 c7bc 734b 5b3d 90df 433e 5763 153d
-0.145243 -0.20036505 -0.08243557 0.29676002 -0.016745895 -0.23568238 -0.7197397 -0.09471338
0.17584684 0.058771014 0.076980844 0.012466344 -0.10386999 0.1076039 0.116723746 0.000109461726
0.09218053 -0.21196264 -0.28639114 -0.36924517 0.03123979 0.012766899 -0.036411554 0.1374792
-0.0037108047 -0.020649897 0.09731715 0.046994373 -0.055727966 -0.0402151 -0.0665664 0.049815737
0.92470294 0.074653395 0.0040510907 -0.006104617 -0.019139025 0.07687524 0.43271863 0.12092401
0.012571522 0.122824624 -0.09208412 0.08646966 -0.049931742 0.08678699 0.036499064 0.15191013
0.11685842 0.26884663 0.2530352 0.26802546 -0.18147773 0.030014208 0.082825124 0.0072169635
0.117287464 0.12870647 -0.044874176 0.24547711 0.26681128 -0.18106088 0.074810036 -0.2861731
0.005833864 0.65736955 0.08525295 0.17031366 -0.023996156 0.17783518 0.12218053 -0.6745524
0.33211312 -0.038856402 0.099142276 -0.086432554 0.06350469 -0.02450179 -0.012774572 -0.15822299
-0.044327687 0.021946628 0.28016055 0.31195018 0.21062537 0.26494482 -0.012394864 -0.015102842
0.038617544 -0.036170185 0.008504254 -0.026398491 0.27466553 0.29336092 -0.062263593 -0.019034177
-0.26854414 -0.07521364 -0.12372521 -0.1991686 -0.16759369 0.13522768 -0.04334434 0.3715088
0.18583922 0.3435412 0.06416241 -0.11592119 0.009001867 0.0028262562 -0.032141365 0.029212272
0.29173937 0.15839453 -0.13481934 -0.21399012 -0.025432093 -0.07130112 0.4343706 -0.021017242
-0.013527123 0.037088588 0.16075778 0.09445722 -0.017400075 -0.10821477 -0.049077038 0.021163508
0.015048943 0.016568877 -0.04492495 0.30452338 -0.073189646 -0.059145894 -0.02692407 -0.111824095
-0.50695485 0.18109122 -0.30754915 -0.032528423 0.20570661 -0.011181626 -0.017485667 0.0026714932
-0.024073591 0.09676143 0.15526178 -0.05799905 0.38474286 -0.3170308 0.08168911 0.40379
-0.010165683 -0.031961888 -0.13537773 0.07425103 0.04729002 -0.0967224 -0.12716118 0.32548922
-0.22736946 0.083350144 -0.33703166 0.015887432 -0.23288983 0.07824967 -0.13687946 -0.08066561
-0.09220692 -0.0718973 -0.06642342 0.2982985 -0.10412357 -0.034988567 -0.15704195 0.04008795
-0.020763291 -0.08866201 -0.018770145 0.35924444 0.19563074 0.24647343 -0.21207783 -0.14093047
0.53202856 0.084667794 0.09569948 0.060099993 0.06913999 0.087931044 -0.073742665 -0.09598626
-0.022692503 -0.17714 -0.01792328 0.038269036 -0.08832379 -0.28842682 -0.25868797 0.4563118
-0.21132231 0.4158502 0.068103895 0.010391529 -0.14493869 0.16021684 0.18739869 0.11665624
-0.111780055 -0.010210717 -0.019514602 -0.013851292 -0.31448105 0.001851423 -0.099296644 -0.123692974
-0.06383062 -0.021748962 0.06422998 -0.06566247 0.016285352 -0.060584836 -0.093122125 0.15664408
0.03167272 0.08920418 0.12633349 -0.07166691 0.0067369062 -0.017262675 -0.062356647 -0.25275505
-0.012531611 0.07925235 -0.2893083 -0.041415315 0.6751302 -0.2493426 0.17956007 0.5208482
0.08075985 -0.05718828 0.034355294 0.00897562 0.15136255 -0.06659503 -0.10160874 -0.58169836
-0.23829013 0.10067906 0.51478404 -0.04638482 -0.024372531 0.05353875 0.19128251 0.03647169

fc1.bias f4 [128]
00000000: bd25 ab3d 3e38 c2be 51e9 93be 3a27 743d
00000010: c594 93be 1d9d 183e 5d57 0ebd 641d 3ebe
00000020: 3946 293e c4ff 433e a6a5 50be d78d 43bd
00000030: c457 183e ee45 73be a471 48be 1bf5 edbc
00000040: aa85 1dbe d16c 323d ed2f 37be 18a7 0fbe
00000050: 223a b53d 978d 23bd 9a49 183e e70f 193e
00000060: 608b 6a3e aafe 15bd 9abd cd3c 4a57 b4bd
00000070: 5d24 853e c705 1cbd 7e39 d1bd 66e2 c83d
00000080: 313b 2cbd f00b b0bd 3e48 6dbe 4e3b 1fbe
00000090: 75d4 1ebd 61db e53d 7c7f 85be 750a 9cbd
000000a0: 66c3 4f3e 965b 1a3e af03 c5bd 373c dabd
000000b0: f2a3 1d3d 0208 5abe 7606 dd3d d97a f3bd
000000c0: 9bef 13bd 154f 9ebc d530 d1bd 84e0 8e3e
000000d0: 9dd6 ccbc 966a b83d 2a10 39be cf6a 3a3e
000000e0: baa6 083d 8cdc 6abe a54e 7f3e 2362 ac3d
000000f0: b5eb 3fbe 98d3 4ebe 87c5 2b3d e8e4 6b3c
00000100: 5e63 3fbe 27bf a6be 7c45 07be 0ec9 96be
00000110: fa94 13be c6dc a3be dce8 06be 022e b3be
00000120: e9f9 26be 112b a5bc ea52 0a3e 279c 41be
00000130: 432b 8dbe 38ea bd3d f2a5 3f3e 8b20 4fbe
00000140: ad43 82be e95c 12be 5b8f d53d 097e c3bd
00000150: 8317 d8bd 3606 073d 14f6 d8bd d09f 833e
00000160: e8b4 af3d 6c39 f8be 8c7c b1bd b725 9b3c
00000170: 8bd6 49be a8a2 45be fba0 8abd a4a8 dabd
00000180: 97b2 3ebe 488c 2a3c 645f b33b ebe6 3bbe
00000190: 9039 a5bd 439c 23be dfc7 97be 7f6c 4e3e
000001a0: 6744 b13d 81fe 9fbe 34fa c0be 4579 6b3e
000001b0: d27a c53d 2634 13be ad6c d1be 8d24 81be
000001c0: 11a4 4abe 5115 8abe ef47 8fbd a5a4 d0be
000001d0: 770f c5be b5d2 9a3e 170e c5bd d83c 27bc
000001e0: e0a3 823d 45cd 02bd cb8e 3f3d 5a90 e0bd
000001f0: 486f 803d 7862 7f3b a090 21be 3fe3 dcbd
0.083568074 -0.37933534 -0.28888944 0.059607722 -0.2882444 0.14903684 -0.034751285 -0.18565899
0.16530694 0.19140536 -0.2037569 -0.04774269 0.1487723 -0.23757145 -0.195746 -0.02904754
-0.1538302 0.043560807 -0.17889376 -0.14028585 0.088489786 -0.039929952 0.14871827 0.14947473
0.2290473 -0.03661982 0.025114823 -0.088057116 0.26004305 -0.038091447 -0.10216044 0.09808807
-0.042048637 -0.08596027 -0.2317209 -0.15549967 -0.038776834 0.11223484 -0.26073825 -0.07619182
0.20289382 0.15074 -0.09619843 -0.10656016 0.03848643 -0.21292117 0.10792248 -0.11888666
-0.036117177 -0.019324819 -0.10214392 0.27905667 -0.02500468 0.09004705 -0.18072572 0.18204807
0.033362128 -0.22935694 0.24932344 0.084171556 -0.18742259 -0.20197904 0.041936424 0.014397837
-0.1869025 -0.32567713 -0.132101 -0.29450268 -0.14412299 -0.32004374 -0.13174766 -0.3499604
-0.1630627 -0.020162137 0.13508192 -0.18907224 -0.2757207 0.09273189 0.18715647 -0.20227258
-0.25442258 -0.14293255 0.104277335 -0.09545524 -0.105513595 0.032964908 -0.10593811 0.25707865
0.08579427 -0.4848131 -0.086663336 0.018938882 -0.19710748 -0.1930033 -0.06768986 -0.10676697
-0.18622814 0.010409422 0.005474018 -0.18349807 -0.0806762 -0.15977578 -0.29644677 0.20158575
0.08655625 -0.3124886 -0.3769089 0.2299548 0.09642567 -0.14375362 -0.40903226 -0.252232
-0.19789149 -0.26969388 -0.06996142 -0.40750614 -0.3848836 0.30238882 -0.09621828 -0.010207377
0.06378913 -0.03193404 0.046767037 -0.10965033 0.06271225 0.0038968604 -0.15777826 -0.10785531

fc2.weight f4 [128, 128]
00000000: fc96 09be 090d 7c3c e547 8a3e f25f bbbd
00000010: dad5 fe3e 58ac b23d 809d 9b3e 4025 77bd
00000020: e019 0e3e 2211 2a3d baf7 b5bc d1ea 7bbe
00000030: 34bb 113d 0b36 85be 8b80 b9be 6924 023f
00000040: 21b0 c6bd f4ec 6dbd 796d 5ebe 587b 54be
00000050: d633 f0be 6c9c e0be 42aa 50bc 0978 ddbd
00000060: 6ffe c3bd 76e6 753e ec52 cdbe d47e ab3d
00000070: c60d a83d 41f2 55be bf49 d5be 5b72 cbbc
00000080: 6f89 85be 31fd 0fbe 12a4 dbbd 6149 8a3d
00000090: 6351 b53e 3f46 61be 24ce 4a3d 2f7a e03d
000000a0: fbe5 9e3c 93d2 d73c c7de 32bf 06b5 593d
000000b0: ef21 1bbe 0188 c6be 7e13 ecbd 63c3 46be
000000c0: d939 2b3e 2cb4 c5bd 74d2 70be 31ca 153e
000000d0: 5009 103e 07e7 29be 6a88 d63d 69b6 2ebe
000000e0: 92d3 6fbe c3ac cabb 3790 ad3c d317 afbd
000000f0: ecc7 0c3e 2595 2c3e 7f6d 27bf 7201 cf3d
00000100: a342 363d 5a48 103e 5b86 59bd 0598 b73b
00000110: 9e82 19be 501d babe 6505 27be cb0d f7be
00000120: 3edd b03d b25b 96be 9ef1 0dbf 75dc 8a3e
00000130: 02ab 323e 4909 853e b752 a23d 9765 9fbd
00000140: 9b8d 8a3e 978b a7be 03a8 573e 2841 3bbe
00000150: d68d b43e fb20 383e 57f1 f23c 797d 8b3e
00000160: e39d 82bd 7022 d0be 6356 0d3e 7036 1cbd
00000170: 3f03 343e a78a dd3d dfdc b3bb 4a23 13be
00000180: d156 67bf acaf 273d 8e00 1e3e 029a 80bc
00000190: 222d 913e 35d3 2fbe 19b1 bf3d 7b9a b1be
000001a0: 8617 e93c 6086 8d3e c8fe cb3c 0209 1abe
000001b0: cf26 eabe 846b 8c3c 1099 48be 904d f9bd
000001c0: 5b89 ed3d 2df5 053e 045f 16be 8791 9f3e
000001d0: 2bb8 2cbe a8dc 303e 217c 07bd 636b 6ebe
000001e0: 959f 95bc 637a 9bbe f8a5 bebd da3e 813e
000001f0: 5ef3 b9be bbe9 a6bc 2de6 273e 46d0 b8bc
00000200: 492f 53be ccf8 2fbe 5fb6 75bc a809 ab3d
00000210: 8981 213e a086 c13d 48d3 f53d edb7 063f
00000220: ae1e 9fbd 3f91 5f3e be80 003e b09a 343f
00000230: 9a4a b63d 1355 e1be 80e6 8f3e fd9e f03d
00000240: d981 5c3e 9ee3 953e 0241 553e 09bb e03e
00000250: f8b9 7b3e 8f17 663c 6bde 1d3d d9f0 03be
00000260: dab2 c9bd eb5e f73a ad1d 2fbe f665 713e
00000270: b0d9 cb3b 937c 6f3d 179f bd3e 76c7 903d
00000280: 5a6a e13e fa46 cabe 787e 103d 7bcc b43d
00000290: 12fa 3c3e cbcd b7be d9e0 fcbd 073a 9f3e
000002a0: 3b78 073f c79f 053f 3b01 c9bd 70b9 a03e
000002b0: 7b2d 41be 03ee 8d3c 88c6 2cbe 0f1a 08bf
000002c0: c3b9 cabe a55a 7dbe 1a46 24bf 4673 533e
000002d0: 322e 68be 1d90 913e 33ca 42bd 1ed9 80be
000002e0: 69a1 d13e 3673 3f3e 72b5 9ebe a1a2 12be
000002f0: 299f 403e d137 253e 936a dbbe 21ec 81be
00000300: f7fa 413e dfac 0d3d 0da2 e6be 4a56 06be
00000310: 5864 e0bd 41ed bd3d 02e5 18be e78b dd3d
00000320: 09eb 32bd 8e5f 673e 5bf0 c63d ddd8 6fbd
00000330: a846 ddbd 0ffc 8f3e 790d 8b3e b404 edbd
00000340: 6004 0c3e 221e 813e 51dd bb3d 4574 0f3e
00000350: 33a0 7c3e a36d 1c3e 57ee 8a3e fafe 13be
00000360: c22f 923e 263e 233e 77c0 9e3d 6377 acbe
00000370: 5248 1b3f a379 3f3e 7b2f a33d 37d9 88be
00000380: db07 77be 256f d5bd 96a2 7ebe ca05 c03b
00000390: c553 b6bd 020b 89bc 7d56 b73c cc14 38bb
000003a0: 2af4 c43e e85f a2be c147 bb3d d101 f5bd
000003b0: cd40 f5bd f19c 06be 049b 0abe 88e7 e5bd
000003c0: 4fef 28be 2a05 d23c 0b80 6d3e 3a52 b43d
000003d0: 2f9e 2c3b c824 d1be 84b7 d3bc c128 063f
000003e0: d97a 033d 2fcd 43bd ca57 863e 3b2f 01be
000003f0: 9e17 623e 52d6 f0be 4fe0 eb3e 18dc 25be
-0.13436502 0.015383967 0.27007976 -0.091491595 0.4977253 0.08724278 0.303936 -0.06033826
0.13877058 0.041520245 -0.022212852 -0.24601294 0.03557892 -0.26017794 -0.36230883 0.5083681
-0.09701563 -0.058087304 -0.21721448 -0.20750177 -0.46914548 -0.4386934 -0.012735905 -0.108139105
-0.09570014 0.24013695 -0.40102327 0.083738 0.08205752 -0.20893194 -0.41657826 -0.024834802
-0.26081416 -0.14061429 -0.10724653 0.06752277 0.35413656 -0.21999453 0.049512997 0.10960805
0.019396773 0.026345527 -0.6987118 0.053151153 -0.15149663 -0.38775638 -0.11527155 -0.19410472
0.16721286 -0.09653506 -0.23517781 0.14627911 0.14066052 -0.16592036 0.10475238 -0.17061771
-0.23420551 -0.0061851456 0.021186931 -0.08549466 0.13748139 0.16853769 -0.6540145 0.101076975
0.044497143 0.140901 -0.053106647 0.005602839 -0.14991233 -0.3635049 -0.16310652 -0.4825271
0.086359486 -0.29366833 -0.55446804 0.2712132 0.17448047 0.25983647 0.07925933 -0.077830486
0.2706116 -0.32723686 0.21060185 -0.18286574 0.35264462 0.17981331 0.029656095 0.27244166
-0.06377771 -0.40651274 0.13802485 -0.038137853 0.17579363 0.108174615 -0.0054889764 -0.1436893
-0.90366846 0.040939018 0.15429899 -0.015698437 0.28354746 -0.17170413 0.093599506 -0.34688172
0.0284536 0.27641582 0.024901763 -0.15042499 -0.45732734 0.017141111 -0.19589639 -0.12172997
0.11598464 0.13081808 -0.14684683 0.31165716 -0.1686713 0.17271674 -0.033077363 -0.23283152
-0.018264571 -0.3036681 -0.09309 0.25243264 -0.36318487 -0.020375123 0.16396399 -0.02256025
-0.20623507 -0.17184752 -0.014997094 0.08351451 0.1577207 0.09449506 0.12003189 0.526244
-0.077695236 0.2183275 0.12549111 0.70548534 0.08900948 -0.4401022 0.28105545 0.117490746
0.21533908 0.2927522 0.2082558 0.43892696 0.2458266 0.014043703 0.038542192 -0.12884845
-0.09848566 0.0018872892 -0.17101164 0.23574051 0.0062210187 0.058468413 0.37035438 0.07069294
0.44026452 -0.39507276 0.03527686 0.08828064 0.18454769 -0.35899195 -0.12347574 0.3109896
0.5291783 0.52196926 -0.09814688 0.31391478 -0.18865006 0.017325407 -0.16872609 -0.5316476
-0.3959485 -0.2474161 -0.64169466 0.20649442 -0.22673872 0.28430262 -0.047556113 -0.25165647
0.4094346 0.18696293 -0.30997807 -0.1431985 0.18810715 0.16134574 -0.42854747 -0.25375465
0.18943392 0.03458869 -0.4504551 -0.13118854 -0.10956639 0.09273768 -0.1493111 0.108177
-0.04368118 0.22595045 0.09713813 -0.058556426 -0.10804492 0.28121993 0.27158716 -0.11573163
0.13673544 0.25218302 0.09173072 0.14009197 0.24670486 0.15276198 0.27134964 -0.14452735
0.2855206 0.15941676 0.077515535 -0.33684835 0.6065723 0.18698744 0.079680406 -0.26728222
-0.2412409 -0.1042159 -0.24866709 0.005860065 -0.089026965 -0.016728882 0.022380108 -0.0028088568
0.38467532 -0.31713796 0.09144545 -0.11963237 -0.119752504 -0.13145806 -0.13535696 -0.11225802
-0.16497539 0.025637228 0.23193376 0.08804746 0.0026339402 -0.40848374 -0.025844343 0.52405936
0.03209958 -0.0478031 0.26238853 -0.12615673 0.22079322 -0.47038513 0.4606957 -0.1619724

fc2.bias f4 [128]
00000000: 7b6a a0bc b0b5 af3d e910 5cbb c942 5abd
00000010: 31b3 0dbe 06a9 1bbc 1b12 cebd fb5f 4bbe
00000020: 5bda bdbd 3b16 b2be 207f b6be fe40 4ebe
00000030: 8a54 6abe f83e 38be 6138 11be 5867 b9bd
00000040: 3fdd 91be e148 5f3e 1410 1fbe 66f0 4b3e
00000050: 8d40 b7be 1c50 c9be ea28 9abe 8363 cabe
00000060: 742e e2bd cdfa 3dbe 00e6 5abe 6c0c d8bb
00000070: f2b1 31be 3724 413d d683 99bd f9e8 93be
00000080: ef8b ccbe c2d9 1cbe 9fca 523d 78f6 97bd
00000090: a85e d1be 0f76 46be 9407 b5be 1d6b 72bd
000000a0: 052f 60be 63a9 19be b507 23be 1099 b1be
000000b0: 7478 153e 7910 08bc 8a1a 313d 7505 56bd
000000c0: d1b4 d93c e1f3 4dbe 621c b0bd 2e05 2bbe
000000d0: 47a2 a9be daa1 97be 0700 4abe 26dd e9bd
000000e0: 2c18 54be 7ef9 35be ee64 c63d 11f2 89be
000000f0: c032 ff3d 6495 64be 2e18 2ebd 2bf9 91bc
00000100: 4796 1cbc b179 4cbe 9e60 33be 24bc b9be
00000110: 170f 43be 5680 f2bd dd22 08be 574b 48be
00000120: f9de 17bb be0c e23c 1610 32bd 9081 113c
00000130: 618b 68bd 31c4 f4bd 98c0 75be 4882 a2bd
00000140: 7f0b 00bd d035 1fbe 9278 26be 64f6 44be
00000150: 1101 a3be 65b0 e7bd a652 3ebd c47c 8abe
00000160: 31dc 58be 74c6 d6be 0e47 ca3d eb7b f13d
00000170: 34fb 96be f7bd 4f3e 9471 0c3d 12e1 493e
00000180: b6b4 d2bd 2092 b4bd 8eb2 64be 2b9b 0e3e
00000190: ab70 8abe ba04 08be 95cf 27be 4a58 59be
000001a0: 454d 0bbe d70e 50bc 9571 91be b0bf 35be
000001b0: 31e0 81bd 5855 32bd f3f5 8bbd 8e6f b6be
000001c0: 83c8 3abd 034d 893d ab43 53be 9683 79be
000001d0: 706b cf3d 3fd5 4bbd 7352 7dbd 59f8 99be
000001e0: 5140 773d 0c13 aabd 722e 28be 21f8 e4bd
000001f0: 06e7 d8bb 4784 cbbd aef8 e7be e9d5 3fbe
-0.019582024 0.08579576 -0.0033579415 -0.053286348 -0.13837887 -0.009500748 -0.10062047 -0.19860832
-0.092701636 -0.34782586 -0.35643864 -0.2014198 -0.22883812 -0.1799277 -0.14181663 -0.090529144
-0.2848911 0.21805145 -0.15533477 0.19915923 -0.35791436 -0.3931893 -0.3010934 -0.39529046
-0.110440165 -0.18552704 -0.213768 -0.0065932777 -0.17353037 0.047153678 -0.07495849 -0.28888682
-0.3995051 -0.15317443 0.051462766 -0.07420057 -0.4089253 -0.19380973 -0.35357344 -0.059184182
-0.21892937 -0.15006022 -0.15920909 -0.3468709 0.1459673 -0.008304709 0.0432382 -0.052251298
0.026575478 -0.20112564 -0.085991636 -0.16701195 -0.3313162 -0.2961567 -0.19726573 -0.11419134
-0.20712346 -0.17770955 0.096872196 -0.26942495 0.12460852 -0.22322613 -0.04250353 -0.017819008
-0.009557313 -0.19968297 -0.17517325 -0.36276352 -0.19048725 -0.118408844 -0.1329455 -0.1955999
-0.0023173674 0.027593967 -0.043472372 0.008880988 -0.056773547 -0.11951483 -0.2399925 -0.079350054
-0.031260964 -0.15547872 -0.16256931 -0.19234616 -0.3183675 -0.113129415 -0.04646554 -0.27048314
-0.21177746 -0.41948283 0.09876834 0.117912136 -0.29488528 0.2028731 0.034288004 0.19714764
-0.10288374 -0.08816934 -0.22333738 0.1392638 -0.27039084 -0.13283053 -0.1638778 -0.21225086
-0.13603695 -0.012698851 -0.2840697 -0.17748904 -0.06341589 -0.04353842 -0.068340205 -0.35631984
-0.04560138 0.06704142 -0.20631282 -0.24366602 0.10127914 -0.049763914 -0.061846208 -0.30072287
0.06036407 -0.08304414 -0.16423967 -0.11180139 -0.006619337 -0.09937339 -0.45306915 -0.18733944

fc3.weight f4 [4, 128]
00000000: 87b5 08be e66f 68bf d2f4 a7be 79f3 e33d
00000010: 3952 e03e ba84 3dbd 923a da3d 016b 873f
00000020: f4de 133f 8551 2d3e f3de eabe 25d9 3dbf
00000030: 63a5 cc3e 9924 48be 10c8 efbe 7fba 693e
00000040: 522a 30bf 57bd 833e e671 a93e 20d4 31bf
00000050: d55c f53e 55e9 f33e 678f 0dbf 319a 3abc
00000060: 0cbe 45bd 9b97 11bf e85e 913f 2769 143d
00000070: 7bf7 5dbe b7c4 76bf 6827 6a3f 2171 7a3f
00000080: 8af0 3c3d d14d d6bd 0e0c 4a3d 6e77 073e
00000090: 989f adbe 4cbb 443f ac4f 2a3f c9d5 12be
000000a0: bbad 0bbe 504f 5a3f a47b 633e 6186 793f
000000b0: a0f0 863d 91a8 18bf 783f 253e f9c5 d03e
000000c0: c8bb 87bf ebe6 d43e 72e0 7fbd d385 1ebf
000000d0: 0306 8dbe cc8a 6c3e bfdd 923f 2dcc e03e
000000e0: eef2 63be 4e86 2bbf 4506 7d3e 396d 2c3f
000000f0: 8fe6 0cbf fff0 2cbf c89c 90be a0d3 9cbc
00000100: 1a67 5f3e cdd1 533e 693e 7b3e 3f64 bcbe
00000110: 3b9a 8a3e e1a4 e83e e370 033f 6820 563f
00000120: aa26 be3e 90f9 32bf da63 a03d c047 0cbf
00000130: 051c 1abe 0227 89be f03f 7d3f b4dc 8a3e
00000140: 58a7 373c 6ef4 efbe 635b 2e3f 5104 57bf
00000150: a854 8abe 0eeb 53bf ff01 b8bd 2ed4 d63d
00000160: 6818 ccbe 0387 1a3e 622d ffbe 556e 6d3e
00000170: b963 06bf 0cd1 e9be 0fee 90be d037 d8be
00000180: 0102 89be 05d2 243d abde 23be 1b94 45be
00000190: 67e5 4f3f 024c 803e 1628 5f3e 4f33 223f
000001a0: 061e 663f f824 26be 28aa 4bbf 71e8 f3bd
000001b0: 5613 583e cf3f 20bf a9d9 163e a101 1f3e
000001c0: 644e 1fbe b8d7 31bf ea02 9d3d fa3c 96be
000001d0: 5a4b efbd 2afe f73e 34f3 c43e 5daa 05bf
000001e0: 14bc 4e3f c96e e83d 9c13 e1be b5e7 853e
000001f0: 9cc9 19bf b308 1dbf f337 11bf a962 e9be
00000200: dbef d63e e9e3 93be 4f57 fe3e 944e 553e
00000210: a92c aa3e d931 833f cd07 edbe 4569 2fbe
00000220: e674 6f3f f7eb 70bf d29d b1be f90c 0e3f
00000230: a55f aa3d 461c f43e 618e 333e 59b9 883e
00000240: 57fb e13e 6f50 23be 42a1 18bd cf32 4c3e
00000250: eba6 06bf 45f8 123e ea79 b53e b2cf 38be
00000260: 9978 a7be 3568 eebe f3be ba3e 8571 dd3e
00000270: 710a c43e 54fb 8fbe 833f 193e ffa0 7ebe
00000280: 6ee9 2e3f 4f1c 8fbe 9f29 5abf bd1c c03e
00000290: fd40 963f 0203 abbe af1f 803e 1845 47be
000002a0: 7002 edbe 81b2 1f3f ea6e 743f 3e7f 0e3f
000002b0: 9774 eabe e5b8 5d3e 784b 9ebd 3261 9d3b
000002c0: 8e33 adbe 7d2b aebe 1f6f ffbe 8331 f83e
000002d0: 03ad f93e 15f4 553f 3527 1f3e 0014 d33d
000002e0: d756 1a3d 5a3a 8abd 66a2 f73d 6a81 113f
000002f0: bb5f 413d dcba bb3e f8e5 ffbe 8106 2abf
00000300: 51d4 0fbe 5dfc 8ebf ec0e 3bbd 956e 3e3f
00000310: 50e4 20bf 2d7a 1dbf 1ef4 0abf 6fc5 023f
00000320: c9af 513f 2866 143e ef3d 00bf fcbd e1be
00000330: 890e f13d d0f1 40be fc2a 9f3e f185 313d
00000340: 93b9 75bf d572 143f 8018 01be 4998 dcbe
00000350: f800 983e ed25 763e f1ac 033f 6ba5 de3e
00000360: b4f6 0bbf d57b 043f 3721 3e3f fb4c 2f3e
00000370: a706 b93e 814c d5be 52e9 173f 911d e6be
00000380: 13e8 303f 1ef3 acbe 7504 153c 8a2e 053d
00000390: 1537 81be d531 393f e37c b23d 08f0 0bbf
000003a0: 82dd e23e 7539 2abf d3cc b3be 58bf 1bbf
000003b0: f934 22bf 939f cfbe 08c8 37bf ea50 bc3c
000003c0: 1b90 80bd ac1e 59be 39e6 db3e effe 67be
000003d0: d6eb df3d 01c3 debe 6cd5 733f fd48 483e
000003e0: 7788 833e b031 75bf b719 053f 5ef4 47bf
000003f0: a6ad 1c3e a54c b8be 7e90 90be 30f9 133f
-0.13350497 -0.90795743 -0.3280397 0.11130423 0.4381273 -0.046269156 0.10655703 1.057953
0.57762074 0.16925628 -0.45873222 -0.7415946 0.3996993 -0.19545211 -0.46832323 0.22825049
-0.68814576 0.25730392 0.3309471 -0.694643 0.47922388 0.47638956 -0.5529694 -0.011389301
-0.048276946 -0.56871957 1.1357088 0.036233094 -0.21676438 -0.96393913 0.9146638 0.9782887
0.046127833 -0.10464061 0.049327902 0.13229153 -0.33910823 0.7684829 0.6652782 -0.14339365
-0.13640492 0.8527727 0.22215134 0.9747067 0.06588864 -0.5963221 0.16137493 0.4077604
-1.0604181 0.41582426 -0.062469907 -0.6192295 -0.2754365 0.23099822 1.1473922 0.43905774
-0.22260639 -0.6700181 0.24709423 0.6735416 -0.55039304 -0.6755523 -0.28244615 -0.01914388
0.21816674 0.20685501 0.24535526 -0.36795232 0.27070794 0.45438293 0.51344126 0.836432
0.37138873 -0.6991205 0.07831545 -0.5479698 -0.15049751 -0.26787573 0.98925686 0.27121508
0.011209331 -0.46866173 0.68108195 -0.8399096 -0.27017713 -0.8278054 -0.08984756 0.10489689
-0.3986237 0.15090565 -0.49839312 0.2318662 -0.52495915 -0.45667303 -0.28306624 -0.42230082
-0.2675934 0.040239353 -0.1600291 -0.19294779 0.81209415 0.2505799 0.21792635 0.6335954
0.8988956 -0.1622504 -0.7955651 -0.11909569 0.21101126 -0.62597364 0.14731468 0.15527965
-0.15557247 -0.69469786 0.076665714 -0.29343396 -0.11684294 0.484361 0.384668 -0.5221308
0.80755734 0.113492556 -0.43960273 0.2615334 -0.60073256 -0.613414 -0.56725997 -0.45583084
0.4197987 -0.2888482 0.49675986 0.20830756 0.33237198 1.0249587 -0.46295014 -0.17130001
0.9353775 -0.94110054 -0.3469072 0.55488545 0.08319024 0.4767782 0.17534782 0.2670391
0.4413707 -0.15948652 -0.037263162 0.19941257 -0.52598447 0.1435252 0.35444576 -0.1804798
-0.32709196 -0.4656388 0.36473808 0.4325067 0.38289216 -0.28121436 0.14965634 -0.24866103
0.68324935 -0.27951285 -0.8521976 0.37521926 1.1738583 -0.33400732 0.25024173 -0.19459951
-0.46290922 0.6238175 0.9548174 0.55662906 -0.45792076 0.21652563 -0.07729238 0.0048028463
-0.33828396 -0.34017554 -0.49889466 0.48475274 0.4876481 0.83575565 0.155423 0.10306549
0.037680473 -0.06749411 0.12091522 0.56838095 0.047210436 0.36666 -0.4998014 -0.66416174
-0.14045836 -1.1170765 -0.045668527 0.74387485 -0.6284838 -0.6151455 -0.54278743 0.5108251
0.8190885 0.14492095 -0.50094503 -0.4409026 0.117703505 -0.18842244 0.31087482 0.043340627
-0.9598629 0.5798772 -0.12607002 -0.43084934 0.2968824 0.24037905 0.5143576 0.4348558
-0.54673314 0.5175145 0.7426943 0.1711921 0.36137888 -0.4165993 0.59340394 -0.44944432
0.6910412 -0.33779234 0.009095301 0.032515086 -0.25237337 0.7234166 0.087152265 -0.54663134
0.44309622 -0.6649392 -0.35117206 -0.6083884 -0.6336208 -0.40551433 -0.717896 0.022987802
-0.06277486 -0.21203107 0.42949083 -0.22655843 0.10933654 -0.4350815 0.9524753 0.19559093
0.25690052 -0.9577894 0.5199236 -0.7810725 0.15300617 -0.35995975 -0.2823524 0.57802105

fc3.bias f4 [4]
00000000: 198a a63b 8c3e 1ebd 7501 efbc 0845 883d
0.0050823805 -0.038633868 -0.0291755 0.06653792

bn1.weight f4 [128]
00000000: 5e64 453f 446d 113f ed3b 5e3f cfac 833f
00000010: 8300 1b3f 1b02 3f3f bdb1 223f 13f2 193f
00000020: 5e8c 823f b803 6d3f e0f8 3e3f 3170 ff3e
00000030: 4ba6 663f 05de 453f 26a1 803f 08ec 553f
00000040: 5aa7 633f d250 993f 77dd 643f 1476 2e3f
00000050: da78 6e3f 25d9 963f 8c9a 843f 06fa 343f
00000060: 2f31 413f 7c8b 7c3f e3d1 413f a0e2 623f
00000070: dd2b 113f 0a3a 2f3f edfe 1a3f adf1 483f
00000080: 13b9 c53f 05da 943f a654 6f3f 653b 833f
00000090: 7cc7 7a3f dd3b 9e3f 356b 303f c86c 283f
000000a0: 1c2c 0d3f c3fe 943f f4cc 323f 8764 5a3f
000000b0: 27c1 943f a1b8 5f3f 8b70 843f 3bae 613f
000000c0: 1d6f 1c3f 79aa 0b3f 6b6e 663f dc71 683f
000000d0: ed9c 6b3f ebfd 8c3f 2ed5 323f cd71 303f
000000e0: 3f6c 533f 50c8 853f eaf3 983f 94fa 5f3f
000000f0: e068 373f d314 843f 2808 1b3f 43b7 563f
00000100: f789 b13f ae4b 183f 0388 1c3f 7036 893f
00000110: b635 3b3f 4368 943f a460 763f a28a 5a3f
00000120: f4ad 553f b06f 653f 1405 673f 5822 8d3f
00000130: 0caa 503f debf 5f3f 9e54 983f 3265 5d3f
00000140: 1661 473f 2f04 36bf c4c6 9e3f 5841 603f
00000150: cc51 573f 0595 8d3f f86b 5b3f c510 713f
00000160: 1a60 4c3f 174d 3c3f cde5 583f d266 3b3f
00000170: 30c0 353f 691d 403f b80f 573f eb27 2d3f
00000180: a372 313f 9fd0 683f 70ce 903f fc9d 6b3f
00000190: 652b 273f a50b 7e3f 43e8 703f d3da 853f
000001a0: ced7 0d3f 8159 b13f 82a1 673f 09cf 4a3f
000001b0: d7c1 9a3f 99d8 353f 6c98 b23f e230 a93f
000001c0: ee45 0d3f 7a2f 383f edd4 263f f799 5c3f
000001d0: ec2b 4c3f 2cc5 493f e893 413f 7ddb 283f
000001e0: 3fc2 903f e4b9 343f 71d7 b83f 64f4 893f
000001f0: f890 233f ebda 323f 0d53 7b3f 0d88 b03f
0.77106273 0.5680735 0.8681019 1.0287112 0.60547656 0.7461259 0.6355246 0.60135
1.0199087 0.925838 0.74598503 0.49890283 0.9009749 0.772919 1.0049179 0.8356328
0.88927233 1.1977789 0.8940043 0.6814892 0.93153155 1.1785017 1.0359664 0.70694005
0.75465673 0.98650336 0.75710887 0.8862705 0.56707555 0.68447936 0.60545236 0.7849377
1.5447105 1.1629034 0.9348854 1.0252501 0.9796064 1.2362019 0.68913585 0.65790987
0.5514543 1.1640247 0.69843984 0.8530964 1.1621445 0.87391096 1.0346845 0.8815648
0.61107045 0.54556996 0.90012234 0.90798736 0.92036325 1.101499 0.69856536 0.68923646
0.82587045 1.0451756 1.1949437 0.87491727 0.716444 1.0318855 0.6055932 0.83873385
1.3870229 0.5949048 0.6114504 1.0719738 0.7312883 1.1594318 0.9624121 0.85367787
0.83468556 0.89623547 0.90242124 1.1026106 0.8150947 0.8740214 1.1900823 0.86482537
0.77882516 -0.71100134 1.2404408 0.87599707 0.8410919 1.1061102 0.8571162 0.94166213
0.7983414 0.7355513 0.8472565 0.73203766 0.7099638 0.75044876 0.8400836 0.67639035
0.69315547 0.9094333 1.1313 0.9203794 0.6530059 0.9923652 0.94104403 1.0457405
0.55407417 1.385544 0.90480816 0.7922216 1.2090405 0.71033627 1.3952765 1.3218043
0.5518483 0.71947443 0.6516865 0.8617243 0.7975452 0.78816485 0.7561631 0.6595991
1.1309279 0.70596147 1.4440747 1.0777707 0.6389308 0.6986529 0.981736 1.3791519

bn1.bias f4 [128]
00000000: a339 173f b019 9a3d e298 92be a769 043d
00000010: 236e b9bc 299f 783e 14ad d4be 9c5d b63b
00000020: ef49 ff3d a0a7 7c3e 2e5e 0cbe 57be f13c
00000030: de2e 6bbc 9f55 293e 83f2 d53d 3063 8cbd
00000040: 2974 fc3d 7675 0a3e f3bb a63c 2401 9b3d
00000050: 5772 e6bc fd57 8d3d b7a6 523e 0805 1dbc
00000060: 579d 12bd 4a03 c23e 6d79 00bd a9c7 6b3e
00000070: 1cdb a33e f2c7 8d3e bf94 ed3d fb4d ac3c
00000080: 0510 6d3e 49c8 fa3d ee73 643b 84c5 2e3e
00000090: 7b5c 613e 04bd 013d 07fb 723e 92a8 babd
000000a0: d716 293e fb92 babb bdd3 45bd a2ef f7bd
000000b0: deaa c13c 2e56 d23e fb7a 823c e3e1 ee3d
000000c0: f0ca f43d c7ff a73e 2dba d73e 460c 12be
000000d0: c2bf f5bd 4ae4 033e 880e f6bd 3c4a 21b9
000000e0: b84b 0b3f d67a 203e 2040 093e 86b1 61bd
000000f0: 108c de3d 0b5f 013e 921e 813d 44c7 003d
00000100: 32a0 22bd 2a37 2cbd d1aa 743e d755 07be
00000110: bb8b 15be 6a05 053e 02ab 1b3d 009b 563e
00000120: d0a5 3ebb afa9 6d3e 97a6 243e 9a81 97bd
00000130: 12aa 3dbe 5760 da3d 15ee 39be 1acf d73e
00000140: b916 fd3d fa5f e43e 7913 9f3d 03e5 573d
00000150: 414e 053e 07e8 41be 45b6 623e 2ad6 a43e
00000160: 6c91 bfba 27a6 d73d 1080 2b3e 9259 783e
00000170: 43d0 d8bc da52 2b3e e962 a3bd c69c d2be
00000180: b952 e83e 36cd 4e3d 79b1 b9be e7d2 9abd
00000190: f251 873c 18b1 763e 2ed2 d63b 2ac2 3a3d
000001a0: 371b 4e3e 2c72 dbbd d395 f63d a71d 7cbd
000001b0: 9ecd f63e baab c53d 2a48 4a3e cecb 873e
000001c0: fe39 5abd 36a0 413e 1d7e c13d 794b 873e
000001d0: 73a8 db3c 3e30 e73d 2991 9d3e 2097 fcbd
000001e0: 9527 41be b4d5 ea3e b4fc e63d 8e4a 96bd
000001f0: 7bda 49be e68c 8cbd 3e71 8b3e 48f6 98be
0.5907232 0.07524431 -0.28632265 0.03232732 -0.022635525 0.24279465 -0.41538298 0.0055653583
0.124652736 0.24673319 -0.13707802 0.029509706 -0.014354436 0.16536568 0.10446646 -0.06854856
0.12326843 0.1352137 0.020353293 0.07568577 -0.028130693 0.06901548 0.20571409 -0.009583719
-0.035794582 0.37893134 -0.0313658 0.23025383 0.32003105 0.2769161 0.11600637 0.021033278
0.23150642 0.122452326 0.0034859139 0.17067534 0.22007935 0.0316744 0.23728572 -0.091141835
0.16512619 -0.005693791 -0.048297632 -0.12106253 0.023641046 0.41081375 0.015927782 0.11664178
0.1195277 0.3281233 0.42134228 -0.14262494 -0.119994655 0.12880054 -0.1201449 -0.00015381811
0.5441241 0.15671858 0.13403368 -0.05510094 0.108665586 0.12633912 0.06304659 0.031440035
-0.039703555 -0.042044796 0.23893286 -0.13216339 -0.14604084 0.12990347 0.038004883 0.20957565
-0.0029090531 0.2320926 0.16079174 -0.073977664 -0.18521908 0.106629066 -0.18157227 0.42150193
0.1235785 0.44604474 0.07767386 0.052708637 0.13018133 -0.18936168 0.22139843 0.32194644
-0.0014615483 0.10529738 0.1674807 0.24252918 -0.026466494 0.16730824 -0.0797785 -0.41135234
0.45375612 0.050488673 -0.36268213 -0.07559758 0.016518567 0.24090993 0.006555817 0.045595326
0.20127569 -0.10715136 0.120402955 -0.061551716 0.48203748 0.09651895 0.19754091 0.26522678
-0.053277962 0.18908772 0.09447882 0.2642477 0.026813721 0.11288498 0.3077481 -0.12333512
-0.18862756 0.45866168 0.11278668 -0.07338439 -0.1971225 -0.06862812 0.27234834 -0.29875398

bn1.running_mean f4 [128]
00000000: 39bf 303f 52b7 803e 6e70 ca3d 891b e03e
00000010: 9224 ad3e f333 523e d18f ac3e d064 8c3e
00000020: 1ed1 953f 472b 0e3f 4932 023e 57c7 ab3d
00000030: a922 e33e bef7 0b3f 3f9a 543e f955 313e
00000040: 0fc5 223f 5118 4f3f b669 be3e 5dc3 613f
00000050: 40f6 593f 9efc db3e b163 553f 31bd 013f
00000060: 47a1 903f d956 dd3e 748f 4c3e 2387 e63d
00000070: 1a78 3c3f d237 353e 03d7 c73d 41b8 8c3f
00000080: bae5 853e d2ec b83e acaf e63e ae50 693e
00000090: 7102 433e 52bd 393f 0ecf f23e 42f3 bc3d
000000a0: 51cb 3e3e 96e9 f73e b205 8b3e 7fc8 4d3e
000000b0: 4269 913e 0ced 083e dec5 9b3e ddb2 573f
000000c0: f75b 843f 23b6 023f 2638 ad3e bb64 1c3f
000000d0: 57f5 b53e 3ab3 db3e aa9f b23d 8321 bc3f
000000e0: cb85 e33e aac6 9e3e dad9 5f3f fe1d 473f
000000f0: b40a 923e d459 2b3f 1b9a 733f a8e7 3b3f
00000100: 665c 6b3e 51bc e13e e508 cd3e 307d 6f3e
00000110: 1889 d93e 563c 453e 75b7 8c3e 6dae a33e
00000120: dc5d cf3d ebe4 573f bf0e a93e fbe6 103e
00000130: dfdd 833e d70c ce3e b806 543e 5b46 8b3e
00000140: e83a a83e 1816 c83d 0ee7 813e 263d 963e
00000150: dbc1 0c3d 2c47 d63e 98db 833e 82b9 863f
00000160: 20e4 f03e 96c4 813d ba56 ad3f ba56 203f
00000170: f36a cc3e 49bd c23d 3d3c 6e3e c6a7 a33e
00000180: 71de 933e 8d19 773f cdc0 a33d acde 1f3f
00000190: dc99 033f 1d74 db3e b702 4f3e 07a4 ea3e
000001a0: 3550 3e3f d14c 663e eafe 2c3e ffac 423f
000001b0: a905 913f f230 663c 8bd4 093e 9669 843e
000001c0: f703 063f ad56 913e dc60 943e 9e0d b73e
000001d0: fde9 8e3e 0c54 f23e 40e0 6d3e 40c8 053f
000001e0: ff34 ca3e 118f a43e b009 973e 8857 ef3d
000001f0: 5d03 c53e 4a72 073f 9f4b 303e c53f 983e
0.6904178 0.25139862 0.098847255 0.43771008 0.33816963 0.2052763 0.33703473 0.27420664
1.1704443 0.55534786 0.12714495 0.083876304 0.4436238 0.546749 0.20761965 0.17317952
0.6358194 0.8089648 0.37190026 0.88188726 0.8514137 0.4296617 0.8335524 0.5067931
1.1299218 0.43230322 0.19976598 0.11256244 0.7362076 0.17697075 0.09757807 1.099373
0.2615183 0.3611818 0.45055902 0.22784683 0.190439 0.72554505 0.47423595 0.09226085
0.18632247 0.484204 0.27152783 0.20096014 0.28400618 0.13371676 0.30424398 0.842573
1.0340565 0.5105917 0.338319 0.610912 0.35538742 0.42910177 0.0872186 1.4697727
0.44438013 0.31010944 0.8744179 0.7778014 0.2852379 0.6693394 0.9515702 0.73400354
0.22984466 0.44088987 0.40045848 0.23387599 0.42487407 0.19261298 0.27483717 0.31969014
0.10125324 0.84333676 0.33019063 0.14150612 0.25755212 0.4024417 0.20705688 0.27202114
0.32857442 0.09769839 0.25371593 0.29343528 0.034364562 0.41851175 0.25753474 1.0525362
0.47049046 0.06336324 1.3542092 0.62632334 0.39925346 0.095087595 0.23265167 0.31963938
0.28880647 0.9652336 0.07995758 0.62449145 0.51406646 0.42862025 0.2021588 0.45828268
0.74341136 0.2249024 0.16894117 0.7604522 1.1329852 0.014049755 0.13459985 0.25861806
0.523498 0.2838644 0.28980148 0.35752577 0.27912894 0.47329748 0.23230076 0.5225868
0.39493558 0.321404 0.29499578 0.11686617 0.38479128 0.52908766 0.17216347 0.29736152

bn1.running_var f4 [128]
00000000: d9c1 0d3f b306 803e c5e6 6d3d 20a3 9f3e
00000010: 5e9a b43e 9d18 203e c9ea 923e ba56 843e
00000020: 1e64 983f 9572 823e 7567 d33d 1494 c03d
00000030: aa72 ad3e 9c30 ad3e 5f76 463e d2d2 e53d
00000040: 181a 2b3f 733c 3f3f 83dc a93e 96a6 a73f
00000050: 2528 033f 549f d73e db98 f43e ad6d c53e
00000060: 8cd4 833f 04bd c63e 509b 1f3e d600 803d
00000070: f439 e93e 8089 303e fe19 903d 10e6 a23f
00000080: 8588 5a3e 53be e23e 340b cc3e ce3f 233e
00000090: de72 1e3e 84ed 213f 1fb4 d63e 2d36 843d
000000a0: ed49 5e3e d5b8 ce3e 008f 1c3e 8475 353e
000000b0: 9a90 973e e760 cb3d 3f4a 773e cc35 683f
000000c0: 3e38 503f fb27 df3e c99f a63e fe16 aa3e
000000d0: 7b38 b83e 25e7 613e aadf 8d3d 040f 053f
000000e0: a14e cc3e a742 6e3e eb8b ec3e fc35 993e
000000f0: ff2a 6a3e 389e c13e 6e70 b23f 392f 143f
00000100: 4f7c 333e 5ad3 dd3e 0cb3 cf3e d5b2 483e
00000110: e178 a13e b1fd 213e b5a8 733e eda9 9a3e
00000120: c605 903d b9e7 903f 4691 8b3e 5476 c53d
00000130: 3c57 613e 5171 af3e d55d 0e3e 7a26 7a3e
00000140: 8109 bc3e d868 ad3d 8a63 433e 9c63 8e3e
00000150: b93c db3c 7357 a03e 23cc 693e abb4 833f
00000160: 4c04 043f e434 0c3d 1594 e73f 8bee e83e
00000170: 2569 cb3e e881 b83d 864b 223e 4e1e a23e
00000180: 6b63 8f3e 1f89 093f aa13 8b3d 92a3 283f
00000190: 2aef 153f c686 d93e 972c 3a3e 3e74 973e
000001a0: 40cc e53e d9c8 1e3e 0b44 463e 0b86 153f
000001b0: f57e 1e3f dcca 253c 794d a73d 4877 303e
000001c0: d1c9 203f fbc1 8a3e 43d1 573e b3f6 a13e
000001d0: 8388 763e 01e0 af3e 881b 663e 4127 ee3e
000001e0: d98f 473e 2e0e 813e 18ae 693e 8a8f d93d
000001f0: 7870 eb3e 82ca e43e b768 ed3d fd15 833e
0.55373913 0.2500511 0.058081407 0.31179142 0.35274023 0.15634389 0.28694752 0.25847417
1.1905553 0.25478044 0.10322467 0.09403244 0.33876544 0.3382615 0.19381092 0.112218514
0.6683669 0.74701613 0.3317605 1.3097713 0.5123313 0.42113745 0.4777287 0.38560238
1.0299239 0.38816082 0.15586591 0.062501594 0.45552027 0.17239952 0.070362076 1.272646
0.2134114 0.4428583 0.39852297 0.15942308 0.15473506 0.63253045 0.41934296 0.06455646
0.21707888 0.4037539 0.15288925 0.1772061 0.2960251 0.09930592 0.24149416 0.9070709
0.8133582 0.4358519 0.3254378 0.33220667 0.3598059 0.22060831 0.06927426 0.5197604
0.3990374 0.23267613 0.462005 0.29924 0.22867964 0.37816024 1.3940561 0.57884556
0.17527889 0.4332531 0.4056629 0.19599469 0.31537536 0.15819432 0.23794825 0.30207768
0.07032351 1.1320716 0.27259272 0.0964171 0.22005934 0.3426614 0.13902982 0.2442874
0.36726 0.08467263 0.1908094 0.2781037 0.026762353 0.31316718 0.22831778 1.028951
0.51569057 0.034230128 1.8092066 0.45494494 0.39728656 0.09009153 0.15849122 0.31663746
0.28005537 0.53724855 0.0679086 0.6587459 0.5856806 0.42485636 0.18181072 0.29580873
0.44882393 0.15506305 0.19361894 0.5840766 0.6191247 0.010119166 0.081690736 0.17233002
0.6280795 0.2710112 0.21075921 0.3163353 0.24075513 0.3435059 0.2247144 0.46514323
0.19488467 0.2520613 0.22820318 0.10623081 0.45984244 0.4468575 0.115922384 0.25602713
