p2-ContinuousControl/TD3_checkpoint_critic1.pth (torch_old, 89528 bytes, 9 tensors)

fcs1.weight f4 [128, 33]
000000 6c 29 49 3d 79 59 d9 bd e0 a5 99 3d 9d 82 33 3e
       0.04911177 -0.10612769 0.07502341 0.17530294
000010 50 38 1d be c0 f6 14 3c ec c8 37 be b2 1d 42 3d
       -0.15353513 0.009092033 -0.1794774 0.0473916
000020 0d 1b 0c bc ed 7e 2a bd dd 98 27 3b 5b bb 90 bc
       -0.008551371 -0.041624952 0.0025573291 -0.017667463
000030 38 1b c4 3c 52 4e 0c be da a2 f7 3d 88 32 71 bd
       0.02393876 -0.13701752 0.12091608 -0.05888608
000040 4c de 85 3e 2f ed de 3d 68 59 d7 3d 75 3d f7 3d
       0.26146162 0.10885083 0.105151 0.12072269
000050 1a 6e c1 bc 49 cf 55 3c f4 00 31 3c c6 88 4f bd
       -0.02361207 0.013049909 0.01080345 -0.050667547
000060 b0 81 87 3d 90 bd d1 bb cb 09 55 3e 58 9c 06 3e
       0.06616533 -0.0064007714 0.20804517 0.13145578
000070 e5 35 aa bb c1 a0 2b bd 77 c1 54 be c6 5f 59 3d
       -0.005194413 -0.041901354 -0.20776926 0.053069852
000080 e8 48 40 bf 21 a8 52 bd 8a 67 1b bd 29 4d b7 3d
       -0.75111246 -0.05142987 -0.03794054 0.08950264
000090 03 62 5f be ff 21 24 be 52 db 40 3f 0c 81 ac bd
       -0.21814732 -0.16028593 0.75334656 -0.08423051
0000a0 b6 ea 93 3d d5 32 b3 bb b0 19 36 bd ac 33 c2 bd
       0.07222502 -0.005468706 -0.04445809 -0.09482512
0000b0 dc 56 4b 3d e8 d8 59 3c b0 a7 b1 3c f8 d1 cd bd
       0.049643382 0.013296343 0.021686405 -0.10049814
0000c0 1a 8a 02 3d fb 99 c7 3d 4d b3 15 be 25 5a 0a be
       0.031869985 0.09746166 -0.14619179 -0.1351095
0000d0 4e 8f 9a bc d6 86 1c be e0 52 bd bb a5 98 9b 3d
       -0.018867161 -0.15285811 -0.0057777017 0.07597474
0000e0 20 c4 8f 3e 0a fb 6f bd af 64 25 3e 78 a6 76 bc
       0.2807932 -0.05858902 0.16151689 -0.015054338
0000f0 f9 3d d1 3d 1a 44 8c 3b dc c3 15 bd e7 0b 08 be
       0.102168985 0.0042805793 -0.03656374 -0.1328579
000100 96 3a 12 3d 10 c8 f8 bc ec cf 8d bd 3a 6a 9f be
       0.035700403 -0.030368835 -0.069244236 -0.31135732
000110 d6 1a 68 3e 83 42 2d 3d 13 c7 3b 3e a6 0e 24 bf
       0.22666487 0.04229976 0.1833766 -0.6408485
000120 d9 cc 8e 3e 7c 8b 0f bd 9b bf 33 3e be ce 8d 3c
       0.2789066 -0.035045132 0.1755356 0.017310496
000130 50 8a 19 3d 47 ef 98 3c 1e b7 95 bd bf 39 67 3c
       0.03748542 0.018668784 -0.073103175 0.014112889
000140 5a 66 19 3e aa a3 57 bd d0 59 92 bd 1a a7 14 be
       0.1498045 -0.052646317 -0.071460366 -0.14516869
000150 42 b6 89 3d 62 9e a4 3e 7d 87 92 3b 6d c4 e4 3c
       0.06724216 0.32152086 0.004471718 0.027925694
000160 52 29 10 be a2 48 07 3e 35 d7 f1 bc c9 de 98 bd
       -0.14078262 0.13211301 -0.029521564 -0.07464368
000170 3f 11 b4 bc 6b 2c e9 bd 32 57 04 be 96 25 37 3d
       -0.02198088 -0.11385425 -0.12923887 0.04471358
000180 d1 d8 cc 3d 50 2f 7a bd 39 60 96 3e 75 25 d9 3d
       0.10002292 -0.061080277 0.29370287 0.106028475
000190 1c 98 a3 3d f1 84 8a 3e d8 1a b3 be 4f 92 a2 be
       0.07987997 0.2705455 -0.34981418 -0.3175225
0001a0 d0 da ea be d6 3c e5 bd 72 9b 4c bc 30 39 e9 bd
       -0.45870066 -0.11193244 -0.012488233 -0.11387861
0001b0 55 d2 78 3c 3c ee 9b bb 06 e7 96 3d 18 a6 07 3c
       0.015186866 -0.0047586244 0.07368283 0.008279346
0001c0 88 d0 18 be 07 86 f7 37 9d 58 cd bd 3d f1 f6 3e
       -0.14923298 2.9507106e-05 -0.10026667 0.48230925
0001d0 7f 6b 16 3d c3 f9 3f be e4 95 3e bd c7 2b cc 3b
       0.03672361 -0.1874762 -0.046529666 0.0062308046
0001e0 d1 78 12 3d 53 1b 00 bd 6a fd a7 bd 07 2b b8 3b
       0.03575975 -0.03127606 -0.08202632 0.0056203636
0001f0 9d fd f5 bc 10 38 47 bd 45 18 0b bd b4 ca 7d 3d
       -0.030028159 -0.04863745 -0.033958692 0.06196089
000200 0f 6b a7 3d 9b a5 3c 3e f0 b8 19 bc d4 7c 08 bf
       0.08174717 0.18422548 -0.009382471 -0.5331547
000210 a9 25 66 3e 54 64 7e 3d b8 0d 8e 3e ee 2e 37 3e
       0.22475304 0.0621074 0.27744842 0.17888996
000220 06 b8 7c be 9d f4 fa bd 73 25 82 3d 10 93 28 3e
       -0.24679574 -0.122536875 0.06354799 0.1646235
000230 79 83 ff bd b7 40 80 3c a2 11 b1 3d cb 00 1e bd
       -0.12476248 0.015655858 0.08645941 -0.038574975
000240 f0 42 ac 3c fe 6f 13 be 0c 23 d5 bd 7b e9 2f be
       0.021028012 -0.1439819 -0.10407075 -0.1717891
000250 bd 48 72 3b bf e8 e3 3c f8 9a 4a be fc 5d 81 bd
       0.0036969625 0.027820943 -0.19785678 -0.06316754
000260 6d 64 85 bd 7c 9d cd bd a7 d2 16 bb 55 3e b9 3b
       -0.06513295 -0.100398034 -0.0023013742 0.0056531825
000270 02 0c a1 3a 4c e1 e5 3b db f9 29 bd 28 da 26 3e
       0.0012286904 0.007015383 -0.041498046 0.16294158
000280 cc 5d df bc fc 0d 55 bd c2 b0 8b be 2a 56 3f 3d
       -0.027266406 -0.05201529 -0.27283293 0.04671303
000290 f5 f8 05 3f ba ea e3 b9 a5 03 a1 3e 10 66 35 3e
       0.52333003 -0.000434717 0.31448093 0.17714715
0002a0 51 4a 68 3e e9 8e f6 bd ba fe 2a bd 66 95 6c 3e
       0.226846 -0.12038977 -0.041746832 0.23103866
0002b0 c9 dd ca b9 a3 3c 8f 3d ef 38 4e 3e cf 73 b0 bd
       -0.00038693685 0.069939874 0.20138906 -0.08615839
0002c0 1f 77 8c bc 44 75 00 bd 84 a8 b0 3d 38 2e df bc
       -0.017146645 -0.031361833 0.08625892 -0.027243719
0002d0 42 fc 0b be 09 ea a0 3e 5a cf 5e bd 0b b6 07 3e
       -0.13670447 0.31428555 -0.054396965 0.13253038
0002e0 bd 74 28 bc 07 a9 28 bc 68 84 e6 3c 9e a7 b0 3c
       -0.010281739 -0.0102942055 0.028139308 0.021564301
0002f0 42 a0 81 3d fb 44 64 3d b4 ee 95 bc 20 d7 48 3e
       0.06329395 0.055729847 -0.0183023 0.19613314
000300 db a3 66 3e ea f6 83 bc 52 f6 0f 3d 56 54 5b be
       0.22523443 -0.016108949 0.03514702 -0.2141889
000310 42 09 61 3d 4c 88 11 3f 5f cc ff 3d 5d 13 1f bd
       0.05494047 0.568486 0.124901526 -0.038836826
000320 03 71 3c 3d 47 bd 27 be c5 84 01 3e 30 80 87 3e
       0.046006214 -0.16380797 0.12648304 0.26464987
000330 01 0e 6c be 8f 37 dc 3c f9 21 20 3c 2f 91 ee 3d
       -0.23052217 0.026881961 0.009773725 0.11648785
000340 60 9b 50 3d 85 e9 e0 bc eb ca 8c 3c ac 6d be bc
       0.050929427 -0.0274551 0.017186603 -0.023245655
000350 c5 de df bc 10 c9 f6 bb 75 78 55 bd cc 6d a5 bb
       -0.027327904 -0.0075312927 -0.05211683 -0.005048489
000360 03 c5 44 be a7 7e 3c be a9 c9 0b 3b 42 1f ba 3b
       -0.19215779 -0.18407689 0.0021329916 0.0056799958
000370 2b 5c fe ba 72 43 92 bc ef 4f e6 bc 8c 32 33 bc
       -0.001940613 -0.017854426 -0.028114287 -0.010937344
000380 d6 62 b6 3d 88 6a b8 3d 39 b0 87 3d 42 1b 6f 3d
       0.0890557 0.09004694 0.06625409 0.058375604
000390 22 d1 e2 bd 36 dd 3b 3d 42 ed 9b bf 08 6e a5 bb
       -0.11075045 0.04586526 -1.218178 -0.005048517
0003a0 fe e7 02 be 78 cf ff bd e0 8e 7e 3c c9 51 0e 3e
       -0.1278381 -0.124907434 0.015536994 0.13898386
0003b0 0e f2 a0 3e 01 95 f1 3d 20 db 2e 3d ea 8a 99 bd
       0.31434673 0.11795998 0.042689443 -0.07497199
0003c0 7b 3e 82 ba 41 d6 a6 bb 23 63 9a 3b 36 84 81 3c
       -0.0009936834 -0.005091459 0.004711525 0.015810113
0003d0 8d 70 02 be 90 01 a8 3d b4 75 f6 3d 1f b8 7d be
       -0.12738247 0.08203423 0.12034169 -0.24777268
0003e0 3e cd 13 3e d7 cc a1 3d ba eb be 3e 7a bf 81 bc
       0.14433762 0.07900398 0.3728922 -0.015838373
0003f0 e3 0c fa bb 40 fc 82 bc 98 88 ba bd 56 8c 2d 3c
       -0.0076309307 -0.015989423 -0.091080844 0.010592541

fcs1.bias f4 [128]
000000 5a 65 63 bd 9e a9 8f be f7 95 00 3e 4a 33 ca 3d
       -0.05551658 -0.28059095 0.12557207 0.09873064
000010 e4 b4 de bd a0 88 1c be 4b e2 eb bd ef 78 9f bd
       -0.10874346 -0.15286493 -0.11517771 -0.07786738
000020 45 40 51 bd 1d 18 74 3e 6c 90 5a bd 1a 56 2a 3e
       -0.051086683 0.23837323 -0.053360388 0.16634408
000030 8a e8 35 be ac c5 aa bd a5 00 26 be 2a 20 80 bd
       -0.17764488 -0.08338484 -0.16211183 -0.06256135
000040 83 1e 28 be aa 15 1e be 1d f9 23 be 15 f1 69 bd
       -0.1641789 -0.15437952 -0.16012998 -0.05711468
000050 55 44 89 bd 16 a5 24 be ed 12 ad be e9 05 0e be
       -0.067024864 -0.160786 -0.33803502 -0.13869442
000060 c6 ae 4d be 10 1d 02 be f9 d4 ae 3c 8a e3 8d bd
       -0.20086202 -0.12706399 0.021341788 -0.06928165
000070 5e e9 7c 3e 90 2c 73 3c 73 0a d9 bd 65 7a 5d be
       0.24698398 0.0148421675 -0.10597696 -0.21628721
000080 4b eb ff bd 62 29 77 be 06 3d 63 be 99 f9 22 be
       -0.124960504 -0.2413688 -0.22191247 -0.15915526
000090 3c 21 e1 bd 54 ba 10 be 36 42 d1 bd 01 ec 83 be
       -0.10992667 -0.14133579 -0.10217707 -0.25765994
0000a0 b7 1c 34 3e 03 06 26 3d 9b d2 37 3e 3b ee b8 be
       0.17589079 0.040533077 0.17951433 -0.36119255
0000b0 2a 26 13 be f5 44 ca be f8 dc 99 bd fa a7 55 be
       -0.14370027 -0.39505735 -0.075128496 -0.20864859
0000c0 92 1e 03 be 6e 14 df 3d 3d cb ee 3d 1f 75 52 3e
       -0.1280463 0.108925685 0.116598584 0.2055249
0000d0 85 c6 65 3b 8e 86 fd bd fd 46 a5 be 71 57 aa be
       0.0035060954 -0.1237918 -0.32280722 -0.33269837
0000e0 d6 e8 65 be 60 ae 45 bc 51 af bf 3c 1c 92 4e bd
       -0.22452101 -0.0120655 0.023399027 -0.05043231
0000f0 2d 80 45 3e 53 28 8c bc d9 9b d0 3d 11 c1 c3 bd
       0.19287176 -0.017109072 0.101859756 -0.09558309
000100 d1 4c af be b3 d0 9b be e4 48 cf bd fe 01 bb bc
       -0.34238294 -0.30432662 -0.10121325 -0.022828098
000110 75 47 71 be a7 fe cf bd a3 6f 25 ba e4 83 a0 3d
       -0.23562415 -0.10155993 -0.00063108857 0.07837656
000120 b8 bb 1c be f0 a2 48 be 1a 02 d7 bd 76 f5 ca be
       -0.15305984 -0.19593406 -0.10498448 -0.39640397
000130 a8 9d 5b be 34 43 63 bd c7 01 7b bb bf 73 81 bd
       -0.2144686 -0.05548401 -0.003830062 -0.06320905
000140 a9 61 73 be df c4 03 be 0c 52 4d be 21 cb 7d be
       -0.23767723 -0.12868069 -0.2005083 -0.24784519
000150 6a 23 db 3c b0 f5 1e be 1e 85 41 3e bf d8 21 3c
       0.026750285 -0.1552341 0.18898436 0.009878336
000160 7b 2c b3 bd 4e 3a 7c be 9f 0c c8 bd db 92 fb bd
       -0.08748718 -0.24631616 -0.09768032 -0.1228387
000170 79 6b d1 bd 7d 0d 9a b8 d2 f6 6f bc bf 83 dd bd
       -0.10225577 -7.3458046e-05 -0.014646249 -0.10816144
000180 53 c0 e5 3d 9e a6 fe bd f0 0d 2d 3e 3f 4a f5 bb
       0.112183236 -0.124341235 0.16899848 -0.0074856575
000190 2c 80 b2 3e b9 a4 43 be 79 eb b3 bd ee 7c 56 be
       0.34863412 -0.19105805 -0.08785147 -0.20946094
0001a0 2e 90 24 be ac 7a 20 be c5 35 77 be ee 1a 8a 3d
       -0.16070625 -0.15671796 -0.24141605 0.06743418
0001b0 09 a3 ee bd 4d a6 c1 be 58 4e 66 be 31 52 8b bd
       -0.1165219 -0.3782219 -0.22490823 -0.06802786
0001c0 e5 73 53 3d ff 21 a0 bd 09 c3 8e be bd 6b f3 be
       0.051624198 -0.07818984 -0.27883175 -0.47543135
0001d0 3b 3c 01 be 8d 02 5c bd 0e d6 cd bd 8f 2b 73 bd
       -0.12620632 -0.05371337 -0.10050593 -0.059367713
0001e0 81 70 0d be 40 e9 0c be a9 0d cd bd e2 4d de 3d
       -0.13812448 -0.13760853 -0.10012371 0.10854699
0001f0 14 2d 2d bd 3f 07 79 3d df 23 5a be bb fb 06 3e
       -0.042279318 0.060797926 -0.21302746 0.13181965

fc2.weight f4 [128, 132]
000000 cd 2a 1a bd 96 26 3a 3e b3 eb ae 3b ff a3 b4 bd
       -0.037638474 0.18178782 0.005338156 -0.08820342
000010 c0 fa f8 bd f9 2e 80 3e cc c5 98 bd a9 f5 27 bd
       -0.12157202 0.25035837 -0.07459602 -0.041005764
000020 4a 01 1b 3d e3 bc 70 bd a5 d6 d4 bd 7d 04 bc 3d
       0.037843026 -0.058773886 -0.10392503 0.091805436
000030 b1 af 96 3d 11 6a a0 bc 8b ec 2b 3d a6 f7 cd 3b
       0.07357729 -0.019581826 0.04197363 0.0062856255
000040 cb 71 e2 bd 8f 92 01 be db 91 25 3e 15 ab 52 3d
       -0.110568605 -0.12653564 0.1616892 0.051432688
000050 4b 90 af 3d 24 14 93 bd fa bf 8c 3d d7 e0 a2 3c
       0.085724436 -0.07181576 0.06872554 0.019882603
000060 9b 6b cf bd 98 7a 32 3d 1e 18 f7 3c 4f 4f 76 3d
       -0.10127946 0.043573946 0.030162867 0.06013423
000070 2a 0f ae bc 7f f4 f9 be b0 b3 81 be fa 7b eb bd
       -0.021247465 -0.48819348 -0.25332403 -0.11498256
000080 90 1a 14 bd 1e 1f b5 bd 0c 9e 23 3d 42 27 c0 bc
       -0.036158144 -0.08843826 0.039945647 -0.02345622
000090 eb 31 96 3e ed 25 69 be c8 b7 7a 3c d6 20 f3 3d
       0.2933496 -0.22768374 0.015302606 0.11871497
0000a0 fd b8 08 3d 6d 07 d3 bd 76 93 2d 3e 09 23 4b 3e
       0.033379544 -0.10304151 0.16950783 0.19837584
0000b0 2f e5 ab 3d f8 93 5b bd 6f b3 3c be b2 41 ea be
       0.08393323 -0.05360791 -0.18427823 -0.45753247
0000c0 70 6b bb bd bb 9e 21 bd c7 43 47 be b6 49 17 be
       -0.091513515 -0.039458018 -0.19459449 -0.14774212
0000d0 6a ac 23 be b3 09 8c bd db bd 29 bd 54 3a e1 3d
       -0.1598374 -0.068377875 -0.041440826 0.10997453
0000e0 39 14 ff bc dc 66 fd bb cb b2 88 be 8c 4b c4 3d
       -0.031137573 -0.007733209 -0.26698908 0.09584722
0000f0 86 9c 8a bd cd d3 96 bd 0f 59 97 bd 28 4f 1b be
       -0.06768136 -0.073646165 -0.073900335 -0.15166914
000100 46 83 18 bd 51 77 82 bd 13 dc ad 3d f1 e5 84 be
       -0.037234567 -0.06370414 0.084892415 -0.2595668
000110 d1 92 21 3d 45 33 91 3c 4c 7e f7 bc 4e 90 ae 3d
       0.039446656 0.017724643 -0.03021159 0.08523618
000120 36 00 49 be 7c 0f 3c bd 21 bc 3b be 84 19 1a 3e
       -0.19628987 -0.045913205 -0.18333484 0.15048796
000130 36 7e 09 be 17 5a 98 bd a8 28 14 3e 44 ae 71 3e
       -0.13427052 -0.07439058 0.14468634 0.23601633
000140 ac 18 5c be e4 21 28 be 8c 5c d6 bd 96 f8 f4 3d
       -0.21493787 -0.16419178 -0.10466871 0.119614765
000150 72 e0 48 be 58 75 c6 3d d4 9b 8e be 59 9c 06 3d
       -0.19616869 0.0969035 -0.27853262 0.03286395
000160 03 b8 1e bd be 39 d3 3d 7e 9b 87 3b 90 2b 43 be
       -0.038749706 0.10313748 0.004138409 -0.19059587
000170 37 0d 3d 3d 7f 26 26 bd 6a 38 72 3c a1 b7 17 bd
       0.04615518 -0.040564056 0.014783958 -0.037040357
000180 eb 11 81 3d c1 06 b7 bb d4 1e c9 bd 72 96 61 bd
       0.06302246 -0.005585522 -0.09820333 -0.055075116
000190 91 df c6 be 65 b6 b4 bd 55 2d d7 bd f8 11 20 be
       -0.38842443 -0.088238515 -0.10506693 -0.15631855
0001a0 37 05 58 bd 81 c8 90 bc ce 41 ba bd f4 17 2a 3a
       -0.05273935 -0.017673733 -0.090945825 0.00064885546
0001b0 5c f4 5a bd 73 1b b2 3c b9 b5 8a 3d 3d 06 b3 bc
       -0.053455696 0.021741604 0.06772942 -0.02185356
0001c0 ca 46 f5 3d a0 94 d0 bd 48 64 40 3d d1 74 8a 3c
       0.119763926 -0.10184598 0.046970636 0.016901406
0001d0 2d c3 e5 3d ec d3 eb bd b2 68 2b bd 36 17 c7 bd
       0.112188675 -0.1151503 -0.041847892 -0.09721224
0001e0 0e cf 05 be 9b 11 76 bd 5a bb ca 3c 5c c7 48 be
       -0.13067266 -0.060075384 0.02474754 -0.196073
0001f0 8d fd 2c 3c 9f 03 8c bd 0b 5b 91 bd ca 69 20 3d
       0.010558498 -0.06836628 -0.07097443 0.03916339
000200 df 97 23 bc d4 18 18 bc 07 22 ac 3c 16 ef 1f bd
       -0.009984939 -0.009283263 0.02101232 -0.03904637
000210 4f 29 07 bd 85 67 d3 3d df cc 0d bd f3 64 02 be
       -0.03299838 0.10322479 -0.03461921 -0.12733822
000220 96 86 d6 bd aa d8 e6 bd 5a 63 02 3e 5d ca a6 be
       -0.10474889 -0.11271794 0.12733212 -0.32576266
000230 0f a0 9f 3c 4e 66 86 3d da 76 d3 bd e9 7e 7a bd
       0.019485502 0.06562482 -0.103254035 -0.061156187
000240 a3 c3 29 be f0 b9 03 be 4d 43 89 3d 70 41 fe bd
       -0.16578536 -0.12863898 0.0670229 -0.12414825
000250 d2 92 d6 3d 5e b5 f4 bd ca 9e d3 bd 1a 54 3c bd
       0.104772225 -0.119486555 -0.10333021 -0.045978643
000260 67 b1 f5 bd 4c 74 31 be e9 b4 77 3a e3 18 26 3e
       -0.119967274 -0.1732952 0.000944926 0.16220431
000270 0b 00 78 bd 70 19 4c 3b b9 5d ed bd 37 57 2e 3e
       -0.060546916 0.0031143092 -0.11590142 0.17025457
000280 8c 7d 79 3d 9b de 91 bd e7 ff 85 bd b1 c6 bf 3d
       0.060910746 -0.07122537 -0.0654295 0.09364069
000290 96 07 aa bd 07 c2 99 3c de 3f 90 bd 77 5c da 3a
       -0.08302228 0.018769277 -0.07043432 0.0016659637
0002a0 0f 45 3b 3d cc 19 5c 3c 02 19 22 3e e7 43 5e be
       0.045720156 0.013433885 0.15829852 -0.2170559
0002b0 62 74 09 be 02 a1 98 3d 25 3d 12 be ea e5 c0 bc
       -0.13423303 0.07452585 -0.14281137 -0.023547132
0002c0 2d 39 8c bc c5 64 1c be 74 9a 0f be 77 86 93 bd
       -0.017117107 -0.15272816 -0.14023763 -0.072033815
0002d0 b6 66 af 3d 9d c8 49 bc f5 fe 5e 3c c6 12 c1 bd
       0.085645124 -0.012315896 0.013610591 -0.09427409
0002e0 20 95 d4 39 36 14 eb bd 57 2d 4a 3d fe bc 48 3d
       0.00040546898 -0.11478464 0.049359646 0.049008362
0002f0 fa 73 07 be 4d f2 7c bc 65 76 a0 bd 9f c4 7c 3d
       -0.13227835 -0.015438628 -0.07835082 0.06171095
000300 c0 d6 e5 bd 91 76 f2 bd d8 02 2e 3d f4 6c 50 be
       -0.11222601 -0.11839021 0.04248318 -0.20354062
000310 ef 77 c0 bc fa 5c 67 3d ba 03 f3 bd 4a 4d 15 3e
       -0.023494689 0.056485154 -0.11865945 0.14580265
000320 14 91 4c 3e 41 c9 8c 3d 71 93 9d bc 29 fd bf bd
       0.19977218 0.06874324 -0.019235345 -0.09374458
000330 e6 e5 1c 3e 60 5f 61 be f0 44 ab bd 95 e5 4d be
       0.15322074 -0.22009039 -0.08362758 -0.2010711
000340 d1 6a ac 3d 0f f8 00 be 62 7c 19 3e fe e0 af 3d
       0.08418811 -0.12594627 0.14988855 0.08587836
000350 0a e3 eb 3d 5c 4f 9d be 1a 57 94 bd 2a 6f b3 3d
       0.11517914 -0.3072461 -0.07243176 0.08761437
000360 df 8f 1e be ca f1 fa 3d a2 2d 35 3d c6 11 2f 3c
       -0.1548457 0.12253149 0.044232972 0.01068539
000370 11 41 c1 3b 31 41 42 bd b9 d0 18 3e 8c 23 7e 3e
       0.005897649 -0.047425453 0.14923371 0.24818248
000380 7e 5c 05 3c ff e2 43 bc 15 cd bf 3c 77 4d 44 3e
       0.008139728 -0.011955976 0.02341322 0.19170175
000390 c5 ff 64 be 19 07 d4 bd 73 7c c0 be 14 16 47 bd
       -0.22363193 -0.10352916 -0.37594947 -0.04860504
0003a0 c0 6f 12 bc 0a f0 1a 3d df 82 96 be 4c 3b 59 3d
       -0.008937776 0.037826575 -0.29396722 0.053035066
0003b0 53 46 11 be 2f b1 27 bd 4c 18 69 bc e1 6c 7c be
       -0.14186983 -0.04094046 -0.014226984 -0.24650909
0003c0 af 48 52 3e bf 64 95 3d 5f dc 28 bc dd f2 be bd
       0.20535539 0.072946064 -0.010306447 -0.09323666
0003d0 78 75 7b 3d 34 ae d0 bd ae 76 00 3e 30 c2 3f be
       0.061391324 -0.101894766 0.12545273 -0.1872642
0003e0 c6 42 1f bd 11 33 b0 3c 5e 0d a3 bd d5 11 b5 bd
       -0.03888204 0.021508725 -0.07961534 -0.08841292
0003f0 4c ba 71 be d7 e8 ba 39 1a 48 e1 3d ce 6c 8f 3d
       -0.23606223 0.00035650164 0.110000804 0.07003175

fc2.bias f4 [128]
000000 ef 3b 80 3d 0e 00 82 3d a2 03 18 be 8f 26 db 3d
       0.062614314 0.06347667 -0.14845136 0.10700714
000010 3b 70 75 be 21 f2 ae be 3a 59 1c be 6e 1b 62 be
       -0.23968594 -0.34169105 -0.15268412 -0.22080776
000020 c5 b4 12 3e 21 29 9b 3d 17 b0 05 3e e3 c8 32 be
       0.1432677 0.07576204 0.13055454 -0.17459445
000030 db 56 63 3d d5 7a 64 be 41 d3 ce 3d 09 6f a1 3c
       0.055502754 -0.22312482 0.10098887 0.019706266
000040 46 33 26 bd 4f b7 f7 bd 9d b3 38 be 76 a7 9a be
       -0.040576242 -0.1209551 -0.18037267 -0.30205888
000050 94 45 39 be 35 70 01 be 17 87 88 bc 64 88 e3 3b
       -0.18092948 -0.1264046 -0.016665978 0.0069437493
000060 d5 df c8 bd 9c 4e 17 bc 8f ca fb bc 93 4f 07 be
       -0.098083176 -0.0092350505 -0.030736236 -0.13213949
000070 78 54 0e 3e a3 74 b0 3d 13 29 04 be 1b 75 76 be
       0.1389941 0.08615997 -0.12906294 -0.2406811
000080 46 de 69 3e e7 a9 8c bc 5a 8e a3 3e 28 ad 07 be
       0.22838697 -0.01717086 0.31944543 -0.13249648
000090 c3 71 72 3c c4 b1 da bd 3a 08 4c be 39 a0 21 be
       0.014797631 -0.10678437 -0.19925013 -0.15783776
0000a0 c4 d5 e1 bd e8 08 9f be ad f1 00 be d0 0f 27 be
       -0.11027101 -0.31061482 -0.12592192 -0.16314626
0000b0 cc e0 1b be 2d 0d b5 3b a5 6f 18 be 54 52 2c be
       -0.15222472 0.0055252523 -0.14886339 -0.1682828
0000c0 e6 f9 6f be 27 09 74 be 05 7c a3 ba fc f7 47 be
       -0.23435172 -0.23831616 -0.0012472874 -0.19528192
0000d0 1e 3a 51 3e 92 6e 50 be e1 75 24 be 2a 27 c3 3d
       0.20432326 -0.20354679 -0.16060592 0.09528954
0000e0 c8 44 0f be 29 ab e7 3d b2 35 70 be e4 be 27 3d
       -0.13991082 0.11311943 -0.23457983 0.04095353
0000f0 8c 6d 32 be 85 0a ee 3d 3e c5 3b be 02 83 3e bd
       -0.17424601 0.116231 -0.1833696 -0.046511658
000100 c7 7f de bd e1 91 f7 bd ff 65 68 be bb 12 45 3d
       -0.10864215 -0.12088371 -0.22695158 0.048113566
000110 87 11 92 3e c7 9a 09 be 3b 05 43 bd 6c 26 0f be
       0.28528997 -0.13437949 -0.04761241 -0.139795
000120 24 6a 1f be 06 0b e8 3b 3d 73 86 be 7a 23 43 3e
       -0.15567833 0.007081392 -0.26259795 0.19056502
000130 fd ed 25 be eb 60 e1 bd 5f 00 68 3c 98 7b 71 be
       -0.16204067 -0.11004814 0.014160245 -0.23582304
000140 32 68 bc bd f9 c9 68 be c8 79 6c be 8b 25 58 be
       -0.09199561 -0.22733296 -0.23093331 -0.21108072
000150 bc 7f 9d 3d 6b eb 60 3d 21 d0 91 be e5 06 4c 3e
       0.07690379 0.054912012 -0.28479102 0.19924505
000160 ea 7b 81 be 21 1a 8d bd b0 d4 28 bd 48 93 c6 bd
       -0.2528985 -0.06889749 -0.04121846 -0.096960604
000170 84 7e e1 bd ac 4c af 3d b4 23 85 be 30 51 60 3d
       -0.11010459 0.08559546 -0.26003802 0.054764926
000180 12 2e 8d be 9d d6 02 be 9f 87 54 3d ee 08 1b 3d
       -0.2757421 -0.12777181 0.05188715 0.037850313
000190 26 b6 19 3e 4e 75 17 be 2f 9a c2 3d a4 c8 89 3e
       0.1501089 -0.14790842 0.095020644 0.2691089
0001a0 a3 a7 f5 bd 81 2c 0d be a5 ea a5 be 4b 2a 8e bd
       -0.11994865 -0.13786508 -0.32405582 -0.069416605
0001b0 ca 56 63 be 83 a1 44 be c6 e4 6a be 6e 97 21 be
       -0.22201076 -0.19202237 -0.22938833 -0.15780422
0001c0 d0 a8 78 be 67 0e 8f be 96 e0 7d 3e b9 8d e9 3c
       -0.24283147 -0.27940676 0.24792704 0.028509961
0001d0 60 52 00 be b7 8a 38 be 0c fb be 3c 10 b7 68 be
       -0.12531424 -0.18021666 0.023313068 -0.22726083
0001e0 3d 1f a7 3c be ff 97 3d b2 5e 2a be 8a 98 00 be
       0.020400638 0.07421826 -0.16637686 -0.12558189
0001f0 4b 44 ac be c9 8d 15 bc 2f 55 71 3d ba cf 8f be
       -0.33645853 -0.0091280425 0.058919128 -0.2808817

fc3.weight f4 [1, 128]
000000 9d 88 f2 3d 63 1e a1 3d 69 e6 9a 3d da 95 f3 3d
       0.11842463 0.07867124 0.075634785 0.11893816
000010 37 dd b1 bd 83 56 0c 3e 51 00 e5 bd 82 26 8f bd
       -0.086847715 0.13704877 -0.11181701 -0.06989767
000020 68 1f c4 3d d9 b5 bc 3d d0 ca 9f 3d 19 be c7 3d
       0.09576303 0.09214372 0.07802355 0.09753055
000030 b9 e7 b8 3d a4 60 ed bd 63 b9 cc 3d 56 41 ae 3d
       0.090285726 -0.11590698 0.09996297 0.085085556
000040 bc c4 af bd 2e 3b f7 bd 73 a1 db bd c3 0c e8 bd
       -0.08582446 -0.120718345 -0.10724153 -0.11330559
000050 43 1f e3 bd 50 71 d2 3d fe 6a c4 3d 13 70 c9 3d
       -0.11089947 0.10275519 0.0959072 0.098358296
000060 c2 82 8a bd 7a 9d f7 3d 45 2e 1b 3e 8e 21 00 3e
       -0.06763221 0.12090583 0.15154369 0.125128
000070 a0 2e 87 3d 5e 0b 98 3d a4 61 15 be 24 c0 c0 bd
       0.0660069 0.07424043 -0.14588028 -0.09411648
000080 38 ef b3 3d f7 10 f5 3d 2e a9 b7 3d a1 b3 53 bd
       0.08785862 0.119661264 0.08967815 -0.05168498
000090 3e 3a 1f 3e 37 e4 b9 3d 38 65 ce bd 76 34 d2 bd
       0.15549561 0.09076732 -0.100779 -0.102639124
0000a0 96 20 3c 3e d3 e4 fa bd 1c 32 02 be 92 06 11 be
       0.18371806 -0.12250676 -0.12714428 -0.14162663
0000b0 fa 61 dd bd 9f 6a ca 3d 95 76 f5 bd 20 10 a2 bd
       -0.10809703 0.098836176 -0.11985508 -0.07913232
0000c0 4e 18 e4 bd 0b 58 d6 bd 55 c8 e4 3d bc 1a f6 bd
       -0.11137448 -0.104660116 0.11171023 -0.12016818
0000d0 36 ee 8c 3d 22 dc 9b bd f6 20 03 be 2c 56 7d 3d
       0.06881373 -0.076103464 -0.12805542 0.061849758
0000e0 f4 ae b0 bd 6f 25 c6 3d a4 6b e6 bd ab 7c 9e 3d
       -0.0862712 0.09675109 -0.112509996 0.07738622
0000f0 86 79 cc bd 84 b7 94 3d 84 2b 03 be 8f 4a d4 3d
       -0.09984116 0.07261565 -0.12809569 0.103657834
000100 ee ab c8 bd be d3 dd bd 79 aa 2c be c9 54 cc 3d
       -0.09798418 -0.10831402 -0.16861905 0.09977109
000110 16 0a c0 3d 32 4c e3 3d a2 d5 8d 3d d7 07 f7 3d
       0.09376924 0.110985175 0.06925513 0.12062042
000120 25 64 11 be d8 fa 8e 3d 49 e7 bf bd 11 0b b2 3d
       -0.14198358 0.069814384 -0.09370286 0.08693517
000130 83 54 ea bd a4 a6 d8 3d 3b e0 aa 3d af d2 17 be
       -0.114419006 0.10578659 0.0834355 -0.14826463
000140 e8 db cc bd 63 d1 e6 3d 02 ee da bd 7b 87 fe bd
       -0.10002881 0.11270406 -0.10689928 -0.124281846
000150 80 c0 96 3d 8d 41 e1 3d dd a4 15 be 9e ca cb 3d
       0.07360935 0.10998831 -0.14613672 0.099507555
000160 d3 d8 b6 bd 94 13 a5 3d 75 3e e9 3d 60 5a bd bd
       -0.08928075 0.08060375 0.11388866 -0.09245753
000170 40 13 b9 3d c1 95 fa 3d e1 16 cf bd 60 03 aa 3d
       0.09036875 0.122355945 -0.10111786 0.08301425
000180 37 1f ef bd bf 99 ef 3d 03 43 9f 3d 79 e7 d8 3d
       -0.11675876 0.116992466 0.07776453 0.10591025
000190 6d 0d ac 3d bf 07 9f bd f3 97 ab 3d f9 1b e0 3d
       0.08400998 -0.07765149 0.083785914 0.10942835
0001a0 00 31 bf bd b1 53 d8 bd 0c a1 39 be 05 b7 b3 3d
       -0.09335518 -0.10562838 -0.18127841 0.087751426
0001b0 e4 89 0b 3e b7 aa e1 bd a6 d4 dc bd 8e 85 e0 bd
       0.1362682 -0.110188894 -0.10782747 -0.109629735
0001c0 16 1a ec bd 4a 3c 27 be 3c 42 a6 3d e2 e5 9a 3d
       -0.11528413 -0.16331592 0.08118102 0.07563378
0001d0 bc 94 de bd 26 c8 a5 bd 95 f2 0c 3e 03 4e ae bd
       -0.108682126 -0.08094816 0.13764413 -0.08510973
0001e0 48 26 b9 3d 0c 40 ba 3d 09 3f ec bd 93 ed 2e 3e
       0.09040505 0.09094247 -0.115354605 0.17082815
0001f0 de b4 68 3e 28 7b bf 3d 6d 8b a0 3d b7 92 06 be
       0.22725245 0.09349662 0.07839093 -0.13141905

bn1.weight f4 [128]
000000 ed c1 03 3f 5f 7a 8c 3e b9 58 0c 3f 09 5d 15 3f
       0.5146778 0.27437112 0.5482288 0.58345085
000010 8f 86 d8 3e b7 53 f7 3e 62 25 1a 3f dd 4e 39 3f
       0.4229016 0.48306057 0.6021329 0.7238596
000020 7f 9c 30 3f 06 60 27 3f b9 01 14 3f 79 2f ca 3e
       0.68988794 0.65380895 0.5781513 0.39489344
000030 6d fd 12 3f 01 6e e2 3e 8b 9c 53 3f 85 0e 0e 3f
       0.5741795 0.4422455 0.8266074 0.55490905
000040 7d 50 0e 3f e3 99 cd 3e f8 49 f6 3e e1 70 b4 3e
       0.55591565 0.4015647 0.4810331 0.3524237
000050 8a da b0 3e 45 c8 ca 3e 30 bc 74 3e 9b 97 9e 3e
       0.34541732 0.3960592 0.23899913 0.3097504
000060 72 9c 2f 3f bf 1b 47 3f 8a ad 1e 3f 88 67 0e 3f
       0.6859809 0.7777671 0.6198355 0.55626726
000070 80 4e de 3e bd 6d 94 3e c1 b0 07 3f 70 7f 78 3e
       0.43419266 0.28989974 0.5300408 0.24267364
000080 cc 6e d1 3e c5 01 f4 3e 8d f2 24 3f cf 0c db 3e
       0.40904844 0.476576 0.64432603 0.4278321
000090 46 22 b0 3e d1 81 97 3e 03 8b de 3e cb 40 94 3e
       0.3440115 0.2959123 0.43465433 0.28955683
0000a0 a2 63 1f 3f 8e 0f 0a 3f d4 2f 07 3f 9e 1c bc 3e
       0.622614 0.53929985 0.52807355 0.36740583
0000b0 72 b8 e6 3e d4 89 c7 3e 8b 25 d4 3e c5 f0 56 3f
       0.45062596 0.38972342 0.41434893 0.83961135
0000c0 69 f7 4a 3e 6b 3d 25 3f d9 93 c8 3e 3b 23 c8 3e
       0.19820942 0.6454684 0.391753 0.3908938
0000d0 41 86 ea 3e a8 96 91 3e 9b 75 0c 3f 0b d1 f0 3e
       0.45805553 0.28435254 0.5486695 0.47034487
0000e0 0d 89 ba 3e 5a 68 0c 3f a9 ba fa 3e 46 e9 e5 3e
       0.36432686 0.5484673 0.48970535 0.44904536
0000f0 ac ae 36 3f 17 9b 12 3f 85 0e b7 3e e1 b4 38 3f
       0.7136028 0.572679 0.35753265 0.72151
000100 a8 31 04 3f 12 5d 3b 3f 1c f5 a3 3e 00 9c d9 3e
       0.5163827 0.7318889 0.3202294 0.4250183
000110 ed bd d6 3e 3a 75 0e 3f 28 6e e7 3e 92 72 dc 3e
       0.41941777 0.55647624 0.4520123 0.4305616
000120 60 ad fb 3e 17 0d e9 3e 06 48 28 3f 53 8e da 3e
       0.49155712 0.455178 0.657349 0.4268671
000130 e5 b7 22 3f e1 a7 1a 3f 1d f1 5c 3e 29 83 00 3f
       0.6356185 0.6041241 0.21576352 0.50200135
000140 66 c8 35 3f bb 52 21 3f fa 85 75 3e 0d 1a b4 3e
       0.7100891 0.6301686 0.23976889 0.35176125
000150 3b aa 0c 3f 3c 87 b3 3e 7c f2 20 3f 2c b0 2e 3f
       0.5494725 0.35064113 0.6287 0.68237567
000160 61 b2 8a 3e 55 4b fb 3e 38 0e f9 3e 61 40 0e 3f
       0.27089217 0.4908091 0.4864366 0.55566984
000170 ac da fa 3e e5 a7 2e 3f 9a 2b b2 3e 3f dd b9 3e
       0.48994958 0.68224937 0.3479889 0.3630161
000180 69 00 eb 3e 43 0e 9f 3e e9 a3 f1 3e 47 d5 32 3f
       0.4589875 0.31065568 0.47195366 0.69856685
000190 5b 31 6b 3e f0 b5 d7 3e 20 c3 f3 3e 41 7a e7 3e
       0.22968046 0.42130995 0.47609806 0.4521046
0001a0 94 4f ae 3e 9c bd 1a 3f 1f 16 f3 3e 60 24 e9 3e
       0.34045088 0.6044557 0.47477815 0.45535564
0001b0 b4 7e 9f 3e 04 6c e6 3e c4 c2 e3 3e fa b9 d9 3e
       0.31151354 0.45004284 0.44484532 0.425247
0001c0 32 b2 d8 3e ca d4 08 3f 2b d3 22 3f d3 4a 10 3f
       0.42323452 0.5344969 0.63603467 0.5636417
0001d0 0d 53 cc 3e 0b 3d 10 3f 65 61 09 3f d1 fd da 3e
       0.39907113 0.56343144 0.5366424 0.42771772
0001e0 59 08 b3 3e 7a 75 a5 3e 0a 72 df 3e 11 e6 b8 3e
       0.34967306 0.3231619 0.43641692 0.36113027
0001f0 83 d7 54 3f d5 10 2a 3f 3c 95 9f 3e ca 97 eb 3e
       0.83141345 0.66431934 0.31168544 0.46014243

bn1.bias f4 [128]
000000 03 14 1d 3e a4 7d 02 3e 07 dc 03 3e 40 3d 3e 3d
       0.15339665 0.1274324 0.12876903 0.04644513
000010 de 80 6f bd 46 97 b2 bd ce 37 a4 3d d9 4b 0d 3e
       -0.058472507 -0.08720259 0.080184564 0.13798465
000020 b7 15 62 3d b1 84 2f bd 59 a3 2c 3e e4 71 8e 3d
       0.05519649 -0.042851154 0.16859187 0.06955317
000030 b4 66 31 3e 56 0d 5a 3d a8 8a 0f 3e 1c 68 21 3d
       0.17324334 0.053235374 0.14017737 0.039405927
000040 5a 33 83 3d 7b ec 0e bd ed fc 8a bd 35 64 0a 3c
       0.06406279 -0.034893494 -0.06786523 0.008446743
000050 49 d9 53 3a 7e f9 69 bc b7 6b 08 3e e0 fa c4 bd
       0.0008081389 -0.014280675 0.1332234 -0.09618163
000060 1a 2a 33 3d 6f d8 55 bd 00 06 9b bd d6 2c bf bc
       0.043741323 -0.05220836 -0.07569504 -0.02333681
000070 69 f3 df bd b6 9f d4 3d 16 29 3b 3e 59 04 f0 3d
       -0.10935099 0.10382025 0.18277392 0.11719579
000080 37 ea e1 bd dc 0a 09 3c 49 2d 57 3e 75 97 47 3c
       -0.11031001 0.0083644055 0.21013369 0.012182106
000090 d9 df 15 be f8 48 1e bd 3b c9 c2 bd 97 85 7f bd
       -0.14636172 -0.038643807 -0.09511038 -0.06238326
0000a0 c8 e1 0b 3e 50 96 bb bd 3c a9 2d 3e 0f b0 20 3e
       0.13660347 -0.09159529 0.16959089 0.15692161
0000b0 fa 24 cb 3c bb fc 1d 3e 77 e1 fd 3d 42 f5 e3 3d
       0.024797905 0.1542844 0.1239652 0.111307636
0000c0 d2 50 9c bb 79 bd 2a bd 8a dc 27 3c 02 5e 93 3d
       -0.0047703767 -0.0416846 0.010245452 0.07195665
0000d0 4f b4 a9 3b 69 3b 33 3d 9e cd fa bb c4 f8 ec 3d
       0.005178965 0.04375783 -0.007653906 0.11570886
0000e0 97 db 1c 3e 6b d2 b4 3d 6f 83 8a 3e c7 1f 1a 3e
       0.15318142 0.088291965 0.270534 0.15051185
0000f0 0b 81 f5 3d 56 00 3e 3e b9 fe 3a 3d e4 03 fd 3d
       0.119875036 0.18554816 0.04565308 0.12354258
000100 34 ab fc 3d 68 10 2f 3b 1f 55 8f bd c6 c5 ab 3d
       0.12337342 0.002671266 -0.069986574 0.08387332
000110 02 af 21 3d bc d7 d9 bd 5b 1f e6 bd 0d 3e f1 bd
       0.03947354 -0.10636851 -0.11236449 -0.11779413
000120 21 cf 48 bc 4d 7d 0e 3d 46 32 f0 3d 1c 5b 89 3d
       -0.012256415 0.034787465 0.11728339 0.06706831
000130 0e ab a4 3d ef dd 69 3c 56 0d 32 be cd 6b 03 3d
       0.080404386 0.0142741045 -0.173879 0.03208523
000140 fd 5e 48 3d a7 ab b1 3d 62 ab e2 3d f9 42 37 3d
       0.048918713 0.08675318 0.11067845 0.044741604
000150 db 4f 1d bc 85 77 29 bd d8 00 bc 3d b8 43 a3 bd
       -0.009601559 -0.04137375 0.091798484 -0.07971901
000160 1c cc 23 be 81 8d c7 3d 33 d9 b5 3d d2 77 3d 3e
       -0.1599583 0.097437866 0.08879318 0.18502739
000170 c6 09 bc 3d 65 22 c2 3d a5 ee f6 3d c8 70 27 3c
       0.09181552 0.094792165 0.120572366 0.01021976
000180 c8 a0 6d 3e 70 d9 02 3d 78 6b f2 3c ed 82 26 bd
       0.23205864 0.031945646 0.02959226 -0.040652204
000190 48 0c bd 3d 91 76 bb 3c e0 0a 75 bd 61 b4 87 bc
       0.09230858 0.022883685 -0.059824824 -0.016565504
0001a0 d7 80 6d be 66 d5 a6 bc 8d 57 ec 3d 0f 70 bf 3d
       -0.2319368 -0.020365428 0.115401365 0.09347545
0001b0 f5 40 be 3b 90 83 74 3e 3e 13 41 3b 08 35 90 3c
       0.0058060833 0.23878312 0.0029460932 0.017603412
0001c0 a8 5e fe 3c 11 d8 fb 3d 71 89 99 3d af 91 b0 3c
       0.031050995 0.12297071 0.07496918 0.021553842
0001d0 cd 3e 9e 3d 1e d6 68 ba ea 3e 7d 3e b2 77 2b 3e
       0.07726822 -0.00088820036 0.24731031 0.16744879
0001e0 bc 8e be 3d f8 1e b8 3d 3f a5 4b bd df d6 87 3d
       0.09304568 0.08990282 -0.049718138 0.0663278
0001f0 db a7 c8 3d 27 3b e6 3d 96 b0 78 3e af 3b ed 3d
       0.09797641 0.11241751 0.24286112 0.11583649

bn1.running_mean f4 [128]
000000 7a 40 4d 3e 01 b5 83 3e e4 37 56 3f 2c cf ae 3e
       0.20044127 0.25724033 0.8367903 0.34142435
000010 65 91 74 3e e6 00 88 3e c1 74 9e 3e e7 22 c0 3e
       0.23883589 0.26563185 0.3094845 0.37526628
000020 e2 26 3f 3e 59 8b 5d 3e 5f 1f 81 3e d0 5c a5 3e
       0.18667176 0.21635188 0.25219247 0.32297373
000030 43 cf 81 3e f9 4e 27 3e 96 35 a7 3e 4e c2 1f 3e
       0.2535344 0.1633872 0.3265807 0.15601465
000040 ba 47 0a 3f 61 7f 22 3e 6d 29 a8 3e b7 da 2c 3d
       0.54015696 0.15868904 0.32844105 0.04220077
000050 d0 90 b5 3e 6c 36 da 3e 33 58 5c 3d be 70 f9 3e
       0.35462046 0.42619646 0.05379505 0.48718828
000060 e4 2c 81 3e d9 90 7f 3e 40 d8 68 3e 83 eb ef 3d
       0.2522956 0.24957599 0.22738743 0.11714842
000070 76 30 d6 3e b2 d0 b8 3d c1 60 0f 3e 5b fe b4 3d
       0.41833848 0.090241805 0.14001752 0.08837577
000080 21 cc f1 3e d5 20 bb 3d b8 f5 09 3f 72 39 3e 3e
       0.4722605 0.091371216 0.5389056 0.18576601
000090 bf cb b7 3e c9 a4 28 3d 6f 3f 5a 3e 54 94 b0 3d
       0.35897633 0.041172776 0.2131326 0.08622041
0000a0 a3 7b 85 3e 0b d2 53 3e 4d 67 1e 3f 8f 0f 03 3e
       0.2607089 0.20685594 0.61876374 0.12798904
0000b0 5a c1 40 3e 44 bd 39 3e b6 d1 bc 3e 88 b5 98 3e
       0.18823758 0.18138605 0.36878747 0.29825997
0000c0 2e 56 18 3d 81 b3 e9 3e 56 da 4e 3e 92 59 ae 3e
       0.037191562 0.45644763 0.20200476 0.34052712
0000d0 e8 70 93 3d 83 79 69 3e 2f 14 a2 3e 9e 23 86 3d
       0.071992695 0.2280026 0.31656024 0.06549762
0000e0 31 32 b5 3e d9 f6 81 3d 7c 60 4f 3f 0d cc 0b 3e
       0.35389856 0.063459106 0.810066 0.13652058
0000f0 46 80 e9 3d 5b 21 2d 3e c6 c5 20 3d 4e 87 2c 3e
       0.11401419 0.16907255 0.03925111 0.1684849
000100 b2 11 29 3f 1e 15 e0 3d 0f 7d 42 3e 17 d1 0a 3e
       0.66042626 0.10941528 0.18993019 0.13556324
000110 57 d6 a2 3e 6f f4 7a 3e fc 1e 64 3e 73 2c 3f 3e
       0.31804153 0.24507307 0.22277445 0.186693
000120 79 fa eb 3d 77 d2 44 3d 9d fa 70 3e 13 c5 27 3e
       0.11522383 0.048052277 0.23533101 0.16383772
000130 5d 5c e2 3e 9a 92 ae 3c dc 77 55 3e 31 1e 1c 3e
       0.44211093 0.02131014 0.20846504 0.15245892
000140 fb fb 13 3e b4 1d 90 3e 21 d3 c4 3d ec 55 61 3e
       0.14451592 0.28147662 0.09610582 0.22005433
000150 35 a3 1b 3e 00 f2 b5 3d 35 c9 a8 3e 3e 0b 5c 3e
       0.15198977 0.088840485 0.3296601 0.21488664
000160 ea 43 0f 3e 06 68 1f 3e 5e 1d c9 3e 8d d9 11 3f
       0.13990751 0.15567026 0.39280218 0.5697258
000170 3a 9a 16 3e db 8a c2 3d 80 18 61 3e 9a 6c 8e 3e
       0.1470727 0.09499141 0.21982002 0.2781723
000180 62 ec ab 3e c7 23 d3 3e 0c 9a 9c 3e 01 26 42 3e
       0.33578783 0.41238233 0.30586278 0.1895981
000190 71 72 f9 3e b3 60 2d 3e 8c 31 41 3e 30 22 9f 3e
       0.48720124 0.16931419 0.18866557 0.3108077
0001a0 fa 9f 5f 3e 2e c9 bf 3d 0b c4 4e 3e a0 be 74 3d
       0.2183837 0.09364544 0.20191972 0.059752107
0001b0 af 1f 1b 3f d4 a6 69 3e 9c 34 d4 3e a1 b5 e4 3d
       0.6059522 0.22817546 0.41446388 0.111674555
0001c0 d4 50 e7 3d 44 8c 62 3e 50 8d 02 3e f2 07 79 3e
       0.112947136 0.2212382 0.12749219 0.24319437
0001d0 01 ce 96 3e 23 cb dc 3d 99 f1 91 3e 94 18 96 3e
       0.29454044 0.10780933 0.28504637 0.29315627
0001e0 9d e9 89 3d d4 55 87 3d e9 51 a7 3d 0c 10 4e 3e
       0.06734011 0.06608167 0.0816992 0.20123309
0001f0 ef 16 8c 3e a2 91 89 3e 64 25 58 3e 51 fa 1d 3f
       0.27361247 0.26868922 0.21108013 0.6171008

bn1.running_var f4 [128]
000000 1d 87 02 3e 7f 7b 98 3e 59 0a cd 3e 45 ad 93 3e
       0.12746854 0.2978172 0.40046957 0.28843132
000010 7f cc de 3d 6c 92 6d 3e da 33 80 3e 7a c7 8b 3e
       0.10878848 0.23200387 0.2503956 0.27300626
000020 9e f8 e8 3d 13 9b f9 3d 05 52 40 3e 06 c6 74 3e
       0.11375545 0.12187781 0.18781288 0.23903665
000030 b2 e8 cc 3d cc 30 1a 3e f6 d2 41 3e 63 8d d2 3d
       0.100053206 0.15057677 0.18928131 0.102808736
000040 ee c8 25 3f af 09 89 3d 19 6c 80 3e 36 a1 0c 3d
       0.6475972 0.066913 0.25082472 0.03433343
000050 56 cc a9 3e 62 f6 b4 3e 53 a1 f9 3c 5c 1a d1 3e
       0.33163708 0.35344225 0.030472433 0.40840423
000060 c7 ed 16 3e 53 a0 4b 3e 05 bc ff 3d 02 46 97 3d
       0.14739142 0.19885378 0.12487034 0.073864
000070 c3 69 5b 3e 68 19 4a 3d 0a ab a3 3d a2 c8 60 3d
       0.21427064 0.049340636 0.079916075 0.05487884
000080 20 47 f2 3e 17 fd 55 3d a2 d2 86 3e 91 c1 00 3e
       0.4731989 0.05224332 0.26332575 0.1257384
000090 a5 87 93 3e ee 34 bb 3c 89 d6 01 3e a5 b8 31 3d
       0.28814426 0.022852387 0.12679495 0.04338898
0000a0 93 bd 28 3e 95 b0 ee 3d c8 51 da 3e 2e 76 a1 3d
       0.16478567 0.11654774 0.4264052 0.07883869
0000b0 c6 83 f2 3d f5 6a f7 3d da d2 9f 3e 86 48 5f 3e
       0.1184154 0.12080947 0.31215554 0.21805009
0000c0 3b 15 c5 3c bb 55 4d 3e e5 c3 df 3d c3 5e 8c 3e
       0.024057975 0.20052235 0.10926036 0.27416047
0000d0 59 c4 36 3d 1f f3 6b 3e 76 ba 82 3e ce f5 14 3d
       0.044620845 0.23041962 0.25532883 0.03636723
0000e0 0a 05 6b 3e 8a ab 19 3d 4b 63 dd 3e fb f4 a7 3d
       0.22951141 0.037517108 0.43239817 0.08201023
0000f0 97 fd 91 3d 8c 3f 00 3e c8 da 7c 3c 98 68 d1 3d
       0.071284465 0.12524241 0.015433021 0.10225028
000100 06 c3 37 3f 28 ec 85 3d ea b0 39 3e d3 00 97 3d
       0.7178196 0.06539184 0.18133894 0.07373204
000110 7d a3 4f 3e 42 a1 08 3e bb 98 24 3e 4c ed e6 3d
       0.2027721 0.13342765 0.16073887 0.112757295
000120 c8 06 b0 3d 27 5a c7 3c 6c f8 26 3e 23 e0 d7 3d
       0.085950434 0.02433498 0.16305703 0.105407976
000130 92 32 ef 3e c7 d4 2f 3c 39 34 12 3e c6 5c 0f 3e
       0.4671827 0.010731882 0.14277734 0.14000234
000140 99 ca b0 3d 86 4c 36 3e bc c9 86 3d a9 8c 61 3e
       0.086323924 0.17802629 0.065814465 0.22026314
000150 6b 12 ad 3d c8 d3 6b 3d da d7 00 3e 8f b2 12 3e
       0.084507786 0.057575017 0.12582341 0.14325927
000160 9c f0 ca 3d c4 63 2a 3e 4c 58 7d 3e 99 9b 24 3f
       0.09909174 0.1663962 0.24740714 0.64299923
000170 ef e3 b2 3d 2b 5e 71 3d 96 f0 13 3e b4 49 11 3e
       0.08734881 0.058927696 0.14447245 0.14188272
000180 0f c2 21 3e ef 09 87 3e 70 90 4e 3e 8e 5a b4 3d
       0.15796684 0.26374766 0.20172286 0.088063344
000190 56 49 bd 3e fc ee da 3d 51 9a 9e 3d db 79 81 3e
       0.36970013 0.10690114 0.07744277 0.2528828
0001a0 df 29 3c 3e 98 af 63 3d 45 21 11 3e 13 fe c3 3c
       0.18375348 0.05558738 0.14172848 0.023924863
0001b0 86 84 91 3e 3d a2 1d 3e 22 30 de 3e 02 f8 d6 3d
       0.2842142 0.1539392 0.43396097 0.104965225
0001c0 d9 c5 58 3d 5d 23 1d 3e ab 23 aa 3d d1 ce 18 3e
       0.052923057 0.15345521 0.083075844 0.14922644
0001d0 16 e8 6f 3e c9 18 8a 3d 8e 26 13 3e 96 1d 45 3e
       0.23428378 0.06743009 0.14370176 0.19249567
0001e0 dd 9d 25 3d 37 a1 06 3d a2 49 98 3d eb 42 01 3e
       0.040433753 0.03286859 0.07435919 0.12623183
0001f0 a0 a3 3d 3e a1 ae 5d 3e 4c 71 20 3e d2 20 93 3e
       0.18519449 0.21648647 0.1566822 0.28735977
