p2-ContinuousControl/TD3_checkpoint_actor.pth (torch_old, 89028 bytes, 10 tensors)

fc1.weight f4 [128, 33]
000000 c7 c1 52 3d bb 66 19 3d 9c 8b 8d bd 36 68 b4 3e
       0.05145433 0.037451487 -0.06911394 0.35235757
000010 ee a9 12 3e 9d 8b f4 bd 7d 24 cc bc d8 57 6c bd
       0.14322636 -0.119406916 -0.024919743 -0.05770096
000020 ee cc 3f bd 0e a1 68 bc 43 c7 20 3d 0c 72 88 bc
       -0.046826296 -0.014198555 0.03925253 -0.016655944
000030 68 6f a5 bd 4d 02 43 bd d6 da 05 bd 16 bc e0 3d
       -0.0807789 -0.047609616 -0.0326794 0.109733745
000040 89 77 d7 3c 5a 1f 85 be 72 39 06 3e d3 12 2b be
       0.026302116 -0.26000482 0.13107851 -0.167064
000050 a6 62 10 bd 0b 42 35 3d 44 e5 23 3c 06 7f a4 bc
       -0.03525033 0.044252437 0.010003392 -0.0200801
000060 ef 90 35 bb 2a c4 0d bd 2a 98 82 3d 2e 88 18 3e
       -0.0027704795 -0.034610905 0.06376679 0.14895698
000070 47 99 37 be 97 b8 24 bd 1b 93 2c be 96 0b 4c 3d
       -0.17929564 -0.0402151 -0.16852991 0.049815737
000080 6f 7d cf be a9 11 ef 3c ae 4b c3 be e5 ba 7d bd
       -0.40525386 0.029183226 -0.38143677 -0.061945815
000090 61 f9 a9 3d a4 ba 2d 3d ba fc 26 3e aa 13 2a be
       0.082995184 0.042414322 0.16307345 -0.16609064
0000a0 7e d5 a3 bc 5e 09 a2 3d 62 12 db 3c b7 35 f0 3b
       -0.019999262 0.07911943 0.026742164 0.007330622
0000b0 b3 1b ba bd 67 0b 44 bd dc ca 7a 3d 1e 76 2e bc
       -0.090873145 -0.047862437 0.061228618 -0.0106482785
0000c0 53 37 1a 3d f6 51 68 3e 32 67 5a be e6 89 43 bd
       0.037650418 0.22687516 -0.21328428 -0.047738932
0000d0 79 3e a9 be 56 4a ac 3d 7c 68 f0 3d c9 22 f1 bd
       -0.33055475 0.08412616 0.11738679 -0.11774213
0000e0 2a 8e 5f 3d f0 1d f5 39 d7 4e 95 3b 98 43 8b 3d
       0.054578938 0.00046752347 0.0045565176 0.06800002
0000f0 ba e7 2d 3c ec b2 c3 bb 01 36 99 3d 60 94 f5 bc
       0.01061433 -0.005972257 0.074810036 -0.029977977
000100 00 2a bf 3b 9b 77 07 bf 94 8e 0f be 30 d0 b6 3d
       0.005833864 -0.5291688 -0.14019233 0.08926427
000110 1e 08 73 bd 12 83 e1 bd 0f 55 81 be 90 da 2d be
       -0.059333913 -0.11011328 -0.25260207 -0.16977906
000120 1d 8e 25 be 77 62 8d 3d 79 e0 03 3e 2b fb 28 bd
       -0.16167493 0.06903546 0.12878598 -0.041255157
000130 0e c2 ae bd 14 6b 9f 3d b8 0b 67 3d 7b 56 f3 bd
       -0.08533107 0.077840954 0.05640766 -0.11881729
000140 f9 fc 7a bd 87 e5 75 3d 91 bc 56 be af bc 17 3e
       -0.06127641 0.060033347 -0.2097037 0.14818071
000150 5b 30 24 be a3 92 60 3d 59 20 46 3d be d3 6a 3b
       -0.16034071 0.054827344 0.048370693 0.0035831775
000160 34 4b 0e 3d f1 03 8f bd 97 c6 ac bd 28 f5 61 bc
       0.034739688 -0.06983174 -0.084363155 -0.01379136
000170 a3 11 0a 3e 55 0e 22 3e 83 31 8d bd 90 ed 9b bc
       0.1348329 0.1582578 -0.06894209 -0.019034177
000180 49 a4 08 be 9c 09 9a bd c1 93 61 be ad c6 00 bd
       -0.1334392 -0.07521364 -0.2202902 -0.031439472
000190 c4 e8 eb bc d8 d4 78 3d ce 74 0d 3e 28 16 be bc
       -0.028797515 0.06074986 0.13814089 -0.023203924
0001a0 ce a6 6e 3d 54 df a0 bd c3 93 89 bc 6e da de 3c
       0.058264546 -0.078550965 -0.016794091 0.027203765
0001b0 c6 72 fd 3d 02 30 9e 3c 27 56 8d bc d7 94 b5 3b
       0.12375407 0.019310001 -0.017252995 0.0055414247
0001c0 cd 57 9d 3d 50 41 27 3c 37 9c a8 bd 97 64 ab bd
       0.07682762 0.010208443 -0.082329206 -0.08368795
0001d0 ce c4 17 3d 83 4d 00 3e 91 c3 b6 bc 7d 3c 80 3c
       0.037052922 0.12529568 -0.02231005 0.015653843
0001e0 10 63 64 bc 91 47 b3 bb 9f 64 88 3c e6 c8 03 3c
       -0.013939634 -0.005471178 0.016649542 0.008043503
0001f0 3c c2 41 bd 3c c8 91 3c 3f 2e 1c 3e 11 dd c0 3d
       -0.047304377 0.017795675 0.15252016 0.09417165
000200 d8 8f 76 3c 73 78 3d be 39 03 38 bd 8e 58 6c bf
       0.015048943 -0.18502979 -0.04492495 -0.92322624
000210 57 90 d8 bd 2a 9f 51 be 72 20 20 3d 84 d6 34 3e
       -0.10574406 -0.20470873 0.039093442 0.17659956
000220 4b 84 c7 3d 0c 94 1f be 10 77 02 be 70 10 a4 bd
       0.0974203 -0.15583819 -0.12740731 -0.08010948
000230 cd 19 b4 3e 89 cd dc 3c 3a e3 35 ba 89 13 9d bc
       0.35175934 0.026953476 -0.00069384614 -0.019174354
000240 48 7e 89 bd 95 5c 91 3d 18 5d 67 be 1e 90 3d 3d
       -0.06713539 0.07097737 -0.22594106 0.04628002
000250 e0 3a 7a 3e e8 65 30 be 54 80 2b 3d a7 58 2a be
       0.24436522 -0.17226374 0.04187043 -0.1663538
000260 db 44 8b bd d3 99 f1 3d 97 7b 32 bb 6f db dc bd
       -0.068002425 0.11796918 -0.002723431 -0.10784041
000270 76 79 81 bd 79 64 35 bd 43 54 b3 bd c4 2b 8d 3d
       -0.06321995 -0.04428527 -0.08756306 0.06893113
000280 5b 5a 6a bb 7b b3 aa 3d 12 cf a4 bd 5c 26 82 3c
       -0.0035759422 0.083350144 -0.08047308 0.015887432
000290 6d 56 67 be 3d e2 14 bd fb 13 06 3e 42 74 ce 3d
       -0.22591563 -0.03634857 0.1309356 0.10080768
0002a0 0d f1 36 bd b9 a5 94 be 9f 16 3c 3e 0a 0b d7 be
       -0.044663478 -0.29032686 0.18368004 -0.4200061
0002b0 90 84 c2 bd 0b 6c 2c be 86 26 70 bc cd 93 3c bd
       -0.094979405 -0.1683809 -0.014657622 -0.04603939
0002c0 94 6d eb 3c f0 97 c3 3d 05 66 30 bd dd 26 19 3e
       0.028738774 0.09550464 -0.043066043 0.14956231
0002d0 6d 4f 0d 3e 9f 2f d7 3e 3a b3 9b 3d 38 3b 8c 3e
       0.1379983 0.4202852 0.07602544 0.2738893
0002e0 c7 59 20 be c5 0e 2a 3c 7a 05 1c bd f0 06 28 3d
       -0.15659247 0.010379498 -0.03809116 0.04102224
0002f0 d7 ab 06 3c 40 35 eb 3c 4e 6c 06 3d b5 a4 9a bd
       0.008219681 0.028711915 0.03281813 -0.075509466
000300 e1 e1 47 3e f6 07 e8 3d d8 d3 92 bc b1 ee 37 be
       0.1951976 0.113296434 -0.01792328 -0.17962147
000310 1a e3 b4 bd d3 0c c3 bc 27 f1 a3 3d ef 2a 77 3d
       -0.08832379 -0.023809826 0.080049805 0.06034368
000320 b7 50 db 3c 43 5c 7b be b6 16 4d bd 5c 92 36 3e
       0.026771886 -0.24546914 -0.050070487 0.17829269
000330 a4 eb de 3c 03 ea 7a 3d c5 f7 1d be 43 7a 51 bc
       0.027211972 0.061258327 -0.15426548 -0.012785497
000340 5e 4d 5d 3c 71 25 a0 bc 25 84 a7 3d 38 27 25 3d
       0.013507215 -0.019549103 0.081795014 0.040320605
000350 8d 0a c6 bd 46 78 a6 bd 44 55 59 3d b5 57 a7 be
       -0.09669981 -0.08128409 0.05305983 -0.32684103
000360 11 71 0c 3e e0 4c f6 bd 87 78 1e 3d 68 8e d6 3c
       0.13715006 -0.120263815 0.038689163 0.026190951
000370 73 fd 86 3b 25 17 4c 3d 13 4b 34 bc 6e 2a d7 bc
       0.004119569 0.04982676 -0.011004227 -0.02626535
000380 7d 94 9c bd 65 04 cd 3e 7e 5d b4 3d 1a c6 92 bd
       -0.076455094 0.40042415 0.08806895 -0.07166691
000390 31 e5 9b be 74 6a 8d bc 41 4a dd be 76 3b 6b bd
       -0.30448297 -0.017262675 -0.43220714 -0.057429753
0003a0 ad 6d 0a bd 0e ba 04 bc 40 f7 a8 3e 83 64 ad 3d
       -0.033796 -0.0081009995 0.33001137 0.08466437
0003b0 07 bb 09 3e 23 08 93 be 2b 8c 8a 3d 1f 3e b2 3d
       0.13450252 -0.28717145 0.06765016 0.08703255
0003c0 b7 be a6 bd 12 f7 a9 bc 79 50 1a bd af 22 c4 3c
       -0.08141845 -0.020747695 -0.0376744 0.02394232
0003d0 6c 8c 58 bc 78 a8 04 be a6 88 22 3e fe 32 0e be
       -0.013217073 -0.1295489 0.1587244 -0.1388664
0003e0 72 19 f6 bc 4e d4 89 3e c0 1c 35 be 36 17 c0 3d
       -0.03004143 0.26919788 -0.17686749 0.09379427
0003f0 e3 cc 85 3d 86 99 22 bd 59 88 4d 3d 51 31 9a bc
       0.0653322 -0.039697193 0.05017886 -0.018822344

fc1.bias f4 [128]
000000 64 b3 96 bc b4 2f fc bd 0c 7a 1d be 01 66 11 be
       -0.018396087 -0.12313786 -0.15378588 -0.14199068
000010 44 ca 01 bd 3d 02 8d bd 2f 23 b1 be 46 f5 ad bd
       -0.031687036 -0.068851925 -0.34597155 -0.08494048
000020 1a b7 16 bc 26 29 8c 3c df 7a 9d be 7b 29 07 3e
       -0.009198928 0.017109465 -0.30757806 0.13199417
000030 69 14 56 be 09 12 db be 84 f8 67 be 77 ce 7c bc
       -0.20906223 -0.42787197 -0.22653395 -0.015430084
000040 99 f4 9c be a6 e1 55 be 09 ae 15 be c0 ac 21 be
       -0.30655363 -0.2088686 -0.1461717 -0.15788555
000050 57 dd f1 bd 93 42 b6 bc 65 ae e9 bd 1e 0f 2e 3e
       -0.11809795 -0.022248542 -0.11410216 0.16997954
000060 ae b9 9a bd b3 4e 41 be 02 75 5f be 63 c3 c2 3c
       -0.07554947 -0.18877678 -0.21821979 0.023774808
000070 32 9d 37 3d 41 12 2a 3e 59 25 b0 be ce bf 7b bd
       0.044827648 0.16608526 -0.34403494 -0.061462216
000080 ef e7 d8 bb f9 ec 8a bc 95 ee 09 be 76 b4 5c be
       -0.0066194455 -0.0169587 -0.13469918 -0.21553215
000090 c6 e5 fd 3c a5 cf 3c 3e 50 b5 33 be 91 96 1e be
       0.030993354 0.18438585 -0.17549634 -0.15487124
0000a0 5f 66 69 be c7 30 99 3d 86 9c 7f bd 4b 84 55 be
       -0.22792958 0.07480007 -0.06240513 -0.20851247
0000b0 9b b6 c6 bc e7 f7 fb bd b3 e7 b4 bd d0 69 0b be
       -0.024256995 -0.12303143 -0.088332556 -0.13614583
0000c0 cf d2 cf 3c f5 66 cd bd 30 44 2f be 37 f3 81 be
       0.025369076 -0.10029403 -0.17115855 -0.2538087
0000d0 a3 27 28 bd 66 79 fb bd d0 63 fd bd 6b 21 b6 be
       -0.041053426 -0.12279014 -0.12372553 -0.3557237
0000e0 a1 34 be bd 6a 82 50 be 41 49 05 3e 04 97 ab bd
       -0.09287382 -0.20362249 0.13016225 -0.08378413
0000f0 a3 08 a6 bd e7 cf 3d 3d 20 f9 a1 3c c7 27 3b 3e
       -0.08107116 0.04634085 0.019772112 0.18276893
000100 bf a2 91 be f4 72 92 be e9 f3 8c be 88 a0 e3 bd
       -0.28444478 -0.28603327 -0.2752984 -0.11114603
000110 24 e5 94 be 12 a0 18 3e a1 99 3a be e1 ce 0b be
       -0.2908107 0.14904812 -0.18222667 -0.13653137
000120 ab 71 ae bd cf 16 28 bd 3f 78 31 be 24 96 46 bd
       -0.08517774 -0.041037377 -0.17331026 -0.04848303
000130 64 ee 63 be a1 62 c4 bb 17 d0 8c bd 0e 1e 98 3d
       -0.22258908 -0.005993203 -0.068756275 0.074276075
000140 78 7e bb be df fc 51 be e2 09 32 be 42 43 b7 3d
       -0.36619925 -0.20506619 -0.17386582 0.08948375
000150 81 e2 78 3d 98 0e 12 3c 21 7d c7 bd eb c5 01 be
       0.060762886 0.008914612 -0.09740663 -0.12673156
000160 cf e9 64 3d 27 a2 f4 bd c3 98 59 3d 6b 56 56 be
       0.05588704 -0.119449906 0.0531242 -0.20931403
000170 f6 f8 93 be c3 19 86 be fe 23 9e 3d 95 43 4f be
       -0.2890088 -0.2619153 0.07721709 -0.20240624
000180 79 e8 a9 bd d7 d6 82 bd 44 e7 c3 bd 0a 8e 7f bd
       -0.08296294 -0.06388634 -0.09565595 -0.06239132
000190 40 3a 49 3b d7 40 c2 bd 98 e6 fb 3d ab 05 14 be
       0.0030704886 -0.094850235 0.12299842 -0.14455287
0001a0 e7 e4 e2 bd 0a 03 17 be 0e ac c5 bd 83 96 16 bd
       -0.11078816 -0.14747253 -0.096519575 -0.036764633
0001b0 0e 97 60 bd 5d c6 93 bd f4 03 a0 be f9 59 bd bd
       -0.054831557 -0.07215569 -0.31253016 -0.092456765
0001c0 5b 0b c7 bd de 01 b5 be a5 f7 af bc ee fb fe bd
       -0.09718963 -0.35352987 -0.02148039 -0.124503955
0001d0 ee 8b 2e bd 6d eb 26 3d 17 06 92 be ba 9c 57 bc
       -0.042613916 0.040751863 -0.2852027 -0.013159925
0001e0 ee bf a1 bd 54 11 72 3d df 5b eb bd 94 db 9c bd
       -0.07897936 0.059098557 -0.114921324 -0.07659069
0001f0 0d 0d bf bb b9 fa 20 be 02 41 69 bd d0 e6 ab 3e
       -0.005830413 -0.15720643 -0.056946762 0.33574533

fc2.weight f4 [128, 128]
000000 4f c9 e4 3d fe 00 8d bd f4 51 43 3d 18 b2 8e be
       0.11171209 -0.06884955 0.04768558 -0.2787025
000010 11 2d b5 3d c9 70 a3 3e 3f c1 8b 3e ff ed 69 3d
       0.08846486 0.31921986 0.27295873 0.057111736
000020 39 42 75 3e 9a 06 49 3e 85 c7 dd be 18 01 37 bd
       0.23951043 0.19631425 -0.43316284 -0.044678777
000030 72 c8 fb 3c 9c f7 86 3e 5c 96 4f be d1 44 2c 3e
       0.030735228 0.26360786 -0.20272201 0.16823126
000040 43 44 a3 3d 83 2b 1b bc 3e a7 40 be c9 71 06 be
       0.07972004 -0.009470823 -0.18813798 -0.13129343
000050 e5 13 34 be c0 fd b1 bb dd eb 7b be fa 6b 32 be
       -0.17585714 -0.0054318607 -0.24601693 -0.17424002
000060 5c 04 05 bd a8 84 62 3d fb f6 9a be f5 97 a8 3d
       -0.03247486 0.055302292 -0.30266556 0.082321085
000070 1c bf a4 be d7 34 97 bd da 69 0f 3d d3 87 54 3d
       -0.32177055 -0.07383125 0.035013057 0.051887345
000080 64 9f 01 3d d7 f9 12 3e d1 eb a5 be 96 b2 c8 be
       0.031646147 0.14353119 -0.32406476 -0.3919875
000090 31 35 bc bd c1 f1 b0 bd 8c 78 8e bd 58 8d e8 bd
       -0.09189833 -0.08639861 -0.06956586 -0.11355084
0000a0 21 48 a0 3d 67 b0 07 be 08 ba 0a be c0 6e c6 3c
       0.078262575 -0.13250886 -0.13547528 0.024222732
0000b0 6e bf 65 bb e3 28 27 3d 26 a3 e1 bd ee 5b 8b bd
       -0.0035056728 0.040810477 -0.11017446 -0.068046436
0000c0 f8 e6 5e bd 64 dd a2 3e 75 c3 93 be ee 7b 11 3e
       -0.054419488 0.31809533 -0.2886006 0.14207432
0000d0 3d 1b 35 be 5a 96 8e be 76 12 5d 3d 6a d0 ed 3d
       -0.17686172 -0.27849084 0.053972684 0.116120175
0000e0 81 82 1a be 04 de a1 bc 0f 19 22 3e bb 9a 90 be
       -0.15088846 -0.019759186 0.15829872 -0.2824305
0000f0 bd 49 42 be 26 54 e0 3c 45 8f c9 be d6 b0 82 3e
       -0.18973441 0.027383875 -0.39367118 0.2552554
000100 fb 97 77 be 1e 65 0c be c2 f9 b5 bd 58 b8 35 3a
       -0.2417907 -0.13710448 -0.08885528 0.00069320714
000110 b1 66 6a 3e ce 1b dc 3d 26 58 4f 3e 35 d0 8a bc
       0.22890736 0.10747491 0.2024847 -0.016944984
000120 55 48 4f 3c 67 19 81 3d 1f 49 fb bd 4e d5 a0 3e
       0.012651523 0.06303673 -0.12269806 0.3141274
000130 98 0c 1d be 3a 5d 75 be 81 c1 2a 3e 58 33 5e 3d
       -0.15336835 -0.23961344 0.16675378 0.054248184
000140 1e e1 09 bd c0 63 c9 bd 81 0a e8 bc 2b bf d5 bd
       -0.033661954 -0.09833479 -0.028325321 -0.10436853
000150 03 4e c9 bd d4 59 64 3e 4c 81 b1 3e c5 f1 83 3d
       -0.09829333 0.22299892 0.34668958 0.06442598
000160 ca 4a 8b ba 9c f9 ad 3d e0 d2 f3 bd bf 55 f6 3b
       -0.0010627147 0.08494875 -0.119054556 0.007517546
000170 b5 79 08 3e fc a1 40 be fd 77 8c bb 70 ea 16 bd
       0.13327678 -0.18811792 -0.0042867647 -0.03684467
000180 93 96 88 be 42 57 32 3d 70 85 ca be ee ad e1 bd
       -0.2667738 0.043540247 -0.3955493 -0.110195026
000190 60 f1 dc 3d 7b 36 f0 bd 4f 15 4c bd 39 ab 40 be
       0.10788226 -0.11729141 -0.04982501 -0.18815316
0001a0 5d 2b 30 3e 0c e0 d4 bd 00 39 0f be f7 69 1c be
       0.17204042 -0.10394296 -0.13986588 -0.15274797
0001b0 8c 67 8f be 68 f2 8c 3d cc 12 48 3b da f3 0a be
       -0.28008687 0.06882173 0.0030528782 -0.13569584
0001c0 93 66 17 bd 81 89 1d 3e 04 a3 8d be cf c5 89 be
       -0.036963057 0.15384485 -0.27663434 -0.26908728
0001d0 d2 2c 5f 3d bd 5b df bd ba a6 7b 3e 3f 0f 87 3e
       0.054486103 -0.109061696 0.2457532 0.2637882
0001e0 15 62 4c 3e 97 ac 3c 3e 69 0b d5 3d 22 80 d4 3a
       0.1995929 0.18425213 0.10402567 0.0016212503
0001f0 62 92 76 be 6f b7 42 3d 18 52 8f be c6 b7 10 3e
       -0.24079278 0.047538217 -0.2799232 0.14132604
000200 0e 06 ae 3e 17 a9 85 bc 74 35 a1 bd 5b 62 9f bc
       0.33988994 -0.01631598 -0.078715235 -0.01945608
000210 d7 ab 7f be db 66 4a 3b 6d f8 8b bd 16 95 8e 3e
       -0.24967895 0.003088406 -0.06834493 0.2784812
000220 2b 97 3a bc 98 8e 87 bd 5d 9b 33 3e e7 cc 52 3e
       -0.01138858 -0.066189945 0.17539735 0.20585977
000230 57 2d 90 bc 6a fc 81 bd 2d 79 24 be 37 74 35 3e
       -0.017599745 -0.06346972 -0.1606185 0.17720114
000240 92 42 47 be cc fc f0 3d 19 ea d1 bd e2 28 a1 be
       -0.19458988 0.11766967 -0.10249729 -0.31476504
000250 be e5 e1 3d aa 87 97 bd ac 95 2c bd 10 5b ca bc
       0.11030148 -0.07398923 -0.042134926 -0.024701625
000260 c4 85 a7 3c 10 0c 23 3e 9d e9 12 3e 7d 51 37 be
       0.020449527 0.1592257 0.14346929 -0.17902179
000270 96 4e cc 3d 4e 44 3a 3e 17 28 08 3e 5d 59 e4 ba
       0.099759266 0.18190119 0.13296543 -0.0017421652
000280 e0 20 01 be b1 1b 8c be 34 12 18 3d e3 eb 82 3d
       -0.12610197 -0.27364877 0.037126735 0.06392648
000290 34 c6 09 3d d9 4b 22 bc b8 48 eb 3d d1 1e 3a 3d
       0.033636287 -0.009905779 0.114884794 0.045439545
0002a0 52 4d a5 be 0d 7c 01 3d 6b 98 61 3e 84 fb 9e 3d
       -0.32285553 0.031612445 0.22030799 0.077628165
0002b0 94 55 a9 3d 86 20 3d bd d4 04 85 bd 70 ca db 3d
       0.08268276 -0.046173595 -0.064950615 0.10731971
0002c0 4e e0 63 be 78 46 eb 3d c6 39 52 be bb 07 03 3e
       -0.22253534 0.1148805 -0.20529851 0.12795918
0002d0 ca a5 2c 3d f7 f3 dc ba ac d2 3e 3e 48 5f 58 3d
       0.042150296 -0.0016857375 0.18635052 0.052825242
0002e0 8d 28 a7 be f4 f2 82 3e dc 60 05 be 95 a0 fc bd
       -0.32648125 0.25575984 -0.1302523 -0.12335316
0002f0 ec 8d cc 3d 7f 05 3d 3b 9d e1 e4 be 98 b4 57 ba
       0.09988007 0.0028842387 -0.4470338 -0.00082285097
000300 4b b0 e6 3c 5f 6c 83 be 74 15 7d be 65 cf 48 3d
       0.028160235 -0.25668618 -0.24715215 0.04902591
000310 ac 97 3e be 11 fb f7 3c a9 71 99 bd e3 26 7c 3d
       -0.18612546 0.030271085 -0.07492382 0.061560523
000320 c6 b9 64 bd 16 ee bb bd 69 5d 92 3d 34 b7 19 3e
       -0.05584123 -0.09176271 0.07146723 0.15011293
000330 ed f3 61 bd 0d 72 ae be 9b 93 49 bd 7d 7b 5b bd
       -0.055164266 -0.3407139 -0.049213033 -0.053584564
000340 c2 c6 f9 bc 5c b2 4b be 97 69 90 bd b6 51 a2 be
       -0.030490283 -0.19892257 -0.0705139 -0.31702965
000350 2c 75 4c be de 54 8b 3d 3a df a0 be 9e bb 07 be
       -0.19966573 0.068032965 -0.31420308 -0.13255164
000360 23 8e 38 be ee d6 77 bd 5c fe cf bd 08 76 85 3d
       -0.18022971 -0.060507707 -0.10155937 0.06516653
000370 ad 9d 51 3e 8e f1 bb bc f6 0b bd be fe c4 37 be
       0.20470305 -0.02294233 -0.36923188 -0.1794624
000380 f5 f3 26 bc 05 0d 29 bd f7 14 45 be 15 5c f8 bd
       -0.01019 -0.041272182 -0.19246279 -0.12126938
000390 a1 cb 75 3d b1 9f 87 3d 39 07 5e be 4e 0e 97 be
       0.06000865 0.066222556 -0.21682443 -0.295031
0003a0 ba 18 05 bf 43 7d 46 be 44 8d 96 bd a6 de 39 3e
       -0.51990855 -0.19383721 -0.07351163 0.1815134
0003b0 4e 6d 3f be 63 0d 99 bd 62 66 27 3d f2 3d 19 bd
       -0.1869404 -0.074732564 0.040869124 -0.03741259
0003c0 c2 7f 7a 3d 0f 82 ba bd 9e 78 85 be 17 4f c8 bc
       0.061156996 -0.09106838 -0.26068586 -0.024451775
0003d0 0d ba 2e 3e ab d3 a1 3d 92 d6 37 be 68 9d 80 bc
       0.1706316 0.079017006 -0.17952946 -0.015700057
0003e0 f8 cb ce 3d d0 6d f4 bd a6 89 74 be fb e2 54 3d
       0.10097498 -0.119350076 -0.23880634 0.051974278
0003f0 83 26 cf 3d 49 47 09 3e 52 1c e3 bd e1 94 94 bd
       0.101147674 0.134061 -0.11089386 -0.07254959

fc2.bias f4 [128]
000000 b4 49 88 bd 4d 5f d4 3d 66 63 47 3e 48 d7 27 bd
       -0.06654683 0.1036974 0.19471511 -0.040976793
000010 ba a1 8a bb 01 82 8d bd df f4 2f 3d 2e 1c 34 3c
       -0.004230705 -0.06909562 0.042958137 0.010993047
000020 c3 15 ad bd 2d 89 08 be de 0d 04 be e2 ae 6b 3d
       -0.08451416 -0.13333578 -0.12895915 0.057539828
000030 ae aa d3 3b 1f 60 e8 3c 61 94 aa 3d e9 35 aa bb
       0.0064595556 0.028366147 0.08329082 -0.005194415
000040 b3 e5 01 bd e8 3d 83 3d b9 cb a5 3d 76 1e 97 3c
       -0.0317132 0.06408292 0.08095498 0.018447142
000050 90 66 44 be 67 5f c2 bd 5b bf 0b 3d 55 17 3e bd
       -0.1917975 -0.09490853 0.034118038 -0.04640897
000060 2f 40 63 3d ef 76 f8 bd c8 3d 89 bd 43 8c 6f bd
       0.055481132 -0.1213206 -0.06701237 -0.058483373
000070 50 0a 5d 3d 85 35 ca 3d f2 b7 ab bb e1 0c 0c bb
       0.053964913 0.09873489 -0.005240434 -0.002136998
000080 7b 6c 41 bd 1c 9b 53 be eb 1a f1 bc 86 ba e6 3d
       -0.047222596 -0.20664638 -0.02943178 0.11266045
000090 71 65 6f be 6b a7 9d bd dd 6d ef bd 7e cd 9d 3d
       -0.2337854 -0.07697948 -0.11690877 0.0770521
0000a0 17 3d 09 3e 32 c8 bc 3d a0 cd 79 3c fa 34 57 bc
       0.1340221 0.09217872 0.015246779 -0.013135189
0000b0 49 c2 f9 3d d7 21 5f 3d 72 e0 ad be 80 cd 07 3e
       0.1219526 0.05447563 -0.339603 0.13261986
0000c0 11 93 c5 bc d9 55 aa be 1e 88 a0 bd 0b 13 89 3d
       -0.024117978 -0.33268622 -0.07838462 0.06693085
0000d0 0b 70 af bd 7b 64 90 3d ce f9 df bd 87 06 38 bd
       -0.085662924 0.07050415 -0.10936318 -0.0449281
0000e0 bb e6 dd bd c9 e9 36 3d 0f 24 a2 3d 84 3f 4d be
       -0.10835024 0.04465655 0.07917034 -0.2004376
0000f0 ae 8f 8b bd 89 53 4f 3e 17 ad 13 bd ce 3b d2 3c
       -0.06814514 0.2024671 -0.036053743 0.025663283
000100 93 02 fd 3d 78 b6 c9 bd fc 09 05 be a6 de d0 bc
       0.123540066 -0.09849256 -0.1299209 -0.025496792
000110 be 8d 42 bd 27 9a c7 3c b8 c9 85 bd e9 45 9e bb
       -0.047498457 0.024365498 -0.065326154 -0.0048301113
000120 a0 c4 7d 3d b3 5c bd bc fd 19 e7 bc ce 94 b4 bd
       0.061955094 -0.023115491 -0.028210634 -0.08817445
000130 ab b2 33 3d fb 87 ee 3c ed 83 35 be c8 00 9b ba
       0.043871563 0.029117575 -0.17726107 -0.0011825794
000140 4c 44 24 3d b9 1a f0 bd 1d 5d 00 be 14 de dc 3d
       0.040104195 -0.11723847 -0.1253552 0.107845455
000150 2b f9 ef 3d 6d 78 15 bd 3d 54 7c bd 12 7e 5f bd
       0.11717447 -0.0364918 -0.061603773 -0.05456359
000160 34 dd 94 3d bb 42 48 be 14 03 3a be 14 3d 14 be
       0.07268754 -0.19556706 -0.18165237 -0.14476424
000170 a6 31 10 3e fc e4 71 bb b1 85 49 be 87 60 35 3e
       0.1408144 -0.0036910167 -0.19679905 0.17712604
000180 e5 a6 af 3b 13 d0 be bd 89 82 79 be 30 10 47 3e
       0.0053604716 -0.09317031 -0.24366201 0.19439769
000190 00 ed 31 be d5 d2 87 3d ac 85 94 bc 3f ac 6c bd
       -0.17375565 0.0663201 -0.018130146 -0.057781454
0001a0 a1 47 93 3d 94 83 01 bf ad e4 c4 bd 3a 56 58 be
       0.071913965 -0.505914 -0.09613929 -0.21126643
0001b0 4c 6a 2f 3d b0 10 2a 3e 28 64 fb 3d 08 26 af bd
       0.042825982 0.16607928 0.12274963 -0.08552176
0001c0 c5 e3 1d 3e 7c f0 f2 bd fa 37 0c 3c 15 80 13 be
       0.15418918 -0.11862275 0.008558268 -0.14404328
0001d0 ac 10 1c be b4 33 a4 3d 78 f8 07 bc 07 ad 21 bc
       -0.15240735 0.08017674 -0.008298986 -0.009867913
0001e0 77 e1 a3 3d 69 c4 35 3b 7e e4 aa bd af 6a 99 be
       0.080019884 0.0027735478 -0.08344363 -0.29964206
0001f0 a3 c5 8c bb 7d 23 6b 3d 2e 3b 1a bc c5 19 50 3c
       -0.004296021 0.05740689 -0.009413524 0.012701456

fc3.weight f4 [4, 128]
000000 e4 fe 4d 3d 9e df 5b 3d 18 d4 40 3e 82 98 1a 3e
       0.05029191 0.053680055 0.18830907 0.1509724
000010 43 15 13 3e d2 16 95 3e 46 ec f5 3e 93 49 68 3e
       0.1436358 0.29118973 0.48031825 0.22684316
000020 0b fb 40 3e 05 e2 43 be e1 ec 04 bd b6 73 7b be
       0.18845765 -0.19129188 -0.032452468 -0.24555859
000030 16 ed f7 3d 28 70 e8 bc ec 80 ea be 9e 39 84 be
       0.121057674 -0.028373793 -0.45801485 -0.25825208
000040 7b 49 b9 ba 6c cb d3 be e8 93 4b be 4a 23 c9 3d
       -0.0014136279 -0.41366136 -0.1988064 0.09821184
000050 1b 21 12 3f 33 09 53 3d 87 ba e3 3e 3f ae a5 be
       0.57081765 0.051522445 0.44478247 -0.32359502
000060 8b 7f 1a be 71 2c 22 3f d6 b0 08 3f 80 c3 c4 be
       -0.15087716 0.6334906 0.5339483 -0.38430405
000070 a5 ac d0 3d 14 63 37 be 2e a8 d4 3e cb 6f c5 be
       0.10189179 -0.17908889 0.4153456 -0.38561854
000080 86 56 33 3f 6b 8b 90 3e ca 55 39 3e c5 1d 61 be
       0.700539 0.28231367 0.18099132 -0.21984012
000090 ea 70 b0 be cb d3 b7 be f7 a8 63 bd 7e c5 29 be
       -0.34461147 -0.35903773 -0.05558106 -0.16579244
0000a0 4e 08 00 bf 3a 43 57 bc 4d ff 89 bc f9 82 59 3e
       -0.5001267 -0.013138587 -0.01684537 0.21241368
0000b0 36 fc 50 be fc 2f 9d be da 54 dd be 00 1c 4d 3e
       -0.20408711 -0.30700672 -0.432288 0.20030212
0000c0 84 2f ae be 5b b9 64 3f cc d6 02 3e 10 85 06 be
       -0.34020627 0.8934533 0.12777251 -0.13136697
0000d0 9c 32 01 bd 6e b3 9a bc 32 64 74 bd fc cf 80 bd
       -0.031542405 -0.018884387 -0.059665866 -0.0628967
0000e0 b9 b8 8c be 75 c7 51 3e 36 1c 20 be 23 ad cc 3e
       -0.27484682 0.20486243 -0.15635762 0.39975843
0000f0 58 66 84 be 5e fa 7c 3d 5b b2 b8 3d 55 9d 50 be
       -0.25859332 0.061762206 0.090183936 -0.20372517
000100 0e 08 33 be 37 b8 5c be ce fc 9e be 98 b0 a4 3e
       -0.17483541 -0.21554647 -0.3105225 0.3216598
000110 ea 88 63 be 1b f8 eb bd 36 a9 a4 be e8 96 01 3f
       -0.22220197 -0.11521932 -0.32160348 0.5062089
000120 83 8a 87 be 47 9a 16 be 06 37 00 bf d8 03 41 be
       -0.26472864 -0.1470729 -0.5008396 -0.18849123
000130 8b 52 09 3e 0a 08 4c bd c8 e6 c9 3e 88 6a 06 3f
       0.13410394 -0.049812354 0.39433885 0.52506304
000140 5f aa b8 3e c5 05 f0 3d 44 cd 5d 3b 44 ea 54 bd
       0.36067483 0.117198505 0.0033844272 -0.051981226
000150 2b 16 70 bd 9a 9f de bd 87 70 1d 3e f8 0e c2 3d
       -0.05861489 -0.10870285 0.15374957 0.09475511
000160 0c 1a 9f be 0d 0c 3a 3f c8 d8 23 be 16 66 ad 3d
       -0.3107456 0.7267464 -0.16000664 0.08466737
000170 b7 a9 17 3e 8c 5f 7c 3e 6f 3d 4b 3d 74 63 2d be
       0.14810835 0.24645823 0.049619135 -0.1693247
000180 be b0 21 bd 61 36 46 be 39 4d dd bd 91 df a3 be
       -0.039475195 -0.19356681 -0.10805745 -0.32006505
000190 9a 88 54 be 34 1d 94 3e 81 8b 1f 3e 51 f7 68 be
       -0.20755234 0.2892853 0.1558056 -0.22750594
0001a0 ff a7 c9 bd b9 bf 04 3e 40 62 07 be 92 5b 1f 3e
       -0.09846496 0.12963761 -0.13221073 0.15562275
0001b0 4d 92 0b be 47 0e 9e 3c 4e 4b 83 bd 3c 82 a2 bc
       -0.13630028 0.019293917 -0.064108476 -0.019837491
0001c0 0f e3 4a 3f 41 8c 21 be 79 07 d3 3e 06 95 a0 be
       0.79252714 -0.15776159 0.4121664 -0.31363696
0001d0 62 67 2e 3f 82 b2 33 be 05 8d d6 3e 5d c5 5d bd
       0.681265 -0.17548564 0.41904464 -0.0541433
0001e0 4f be b9 3e 87 76 75 bd ee b5 e3 3e da 1b 22 be
       0.36278006 -0.05992749 0.4447474 -0.15830937
0001f0 42 4e b7 bc c3 c3 69 bd 6b c2 04 3e 09 fa 22 bd
       -0.022376183 -0.05707146 0.1296479 -0.039789233
000200 2b f1 3b 3d 02 a3 a9 3e 9d ab 8d 3e d2 69 41 3b
       0.045884293 0.33132178 0.27669993 0.0029512537
000210 a4 c4 aa 3e 01 ba ab 3e 33 67 29 3d 78 51 54 3e
       0.3335315 0.33540347 0.041358184 0.20734203
000220 a6 38 a2 3e 8d 41 2b bf 38 ee 3b bf 2c bc 08 3f
       0.31683844 -0.668969 -0.7341037 0.5341213
000230 2b 4b b8 bc 34 75 dc bd 87 5d 41 bd 48 64 9b 3e
       -0.02249678 -0.10764542 -0.047208335 0.30349946
000240 e0 47 5e 3c 90 8d b7 be a6 3f 90 be 38 a4 1a 3e
       0.013566941 -0.3585019 -0.2817356 0.15101707
000250 a7 91 e8 3e 26 d6 80 be bb b5 d6 bd 62 e3 7b be
       0.45423624 -0.25163382 -0.10483881 -0.24598458
000260 c5 dd 0c 3e 95 78 39 be a0 4a 14 bf 92 ee ce 3d
       0.13756473 -0.18112405 -0.5792637 0.101040974
000270 6e ca 4c be b5 3e ec 3e 59 9c ce 3d 96 5a 8b be
       -0.19999096 0.46141592 0.10088415 -0.2721755
000280 8d ce d7 bd 3e bb 15 bd 90 9c c4 bc f9 f0 94 3e
       -0.10537443 -0.03655552 -0.024000436 0.29090098
000290 d7 c0 19 3e 3e 78 7d be 73 ee 3c bf 88 5c 42 3e
       0.15014969 -0.247529 -0.73801345 0.1898061
0002a0 c0 7e 22 3b d4 c4 9f 3e 71 d6 00 3f 51 1e ad 3d
       0.0024794787 0.31204855 0.5032721 0.08453048
0002b0 ee 58 dc bd 1e f5 51 3e 9e ce 46 bd 15 31 f8 bc
       -0.107591495 0.20503661 -0.04853689 -0.030296842
0002c0 af fd 1d 3e a6 b8 41 3e c8 86 54 3d 81 63 0d 3c
       0.15428804 0.18918094 0.05188635 0.008629681
0002d0 bc 94 01 bf 37 0f 68 3e 65 59 3c bf ce 23 ad bc
       -0.50617576 0.22662054 -0.73573905 -0.021135237
0002e0 16 1e 2c 3e cd 53 6b bd 79 de b7 3e 82 72 81 be
       0.16808352 -0.057452966 0.3591192 -0.25282675
0002f0 cc fa 2e 3e 01 fd e0 3e 02 e0 fb be ee 76 0a bf
       0.17087859 0.43943027 -0.49194342 -0.5408772
000300 62 d7 8b 3d a2 b6 5e 3d 77 c5 3f 3e e9 77 cd 3d
       0.068281904 0.05437339 0.1872767 0.10032637
000310 97 0f 08 bf 6b 7c 8b be 0a ab ad 3e 1c 4a f2 bd
       -0.5314879 -0.2724336 0.33919555 -0.118305415
000320 3e 43 8e 3d 5a 19 53 3e 8a 4d a2 be 03 4e 25 be
       0.06946419 0.2061514 -0.31699783 -0.1614304
000330 bf 6f 19 bf 28 24 b0 bd 47 4a aa 3e 1f e6 96 3e
       -0.59936136 -0.08600646 0.33259794 0.29472443
000340 56 cf 0c bf 96 32 ae bc f8 b9 16 3e 69 b4 c4 bd
       -0.5500387 -0.021264356 0.14719379 -0.09604723
000350 58 e5 8c 3d 11 68 a9 be fb 7b 97 3e bb bc 21 3e
       0.06879681 -0.3308721 0.29586777 0.15794651
000360 98 3f fa be 43 41 dd 3d c3 da 4a be f4 a0 a5 be
       -0.48876643 0.10803463 -0.19810013 -0.3234936
000370 80 ec 19 bd dc df 3a 3e b8 35 04 3e 1e 57 6a 3e
       -0.03757906 0.18249458 0.12911117 0.22884795
000380 8a 43 c1 be 92 3f 6c 3e 9c 42 14 3d e5 b4 8d 3e
       -0.3774684 0.23071125 0.036196336 0.27677074
000390 78 18 a0 be fa a2 01 bf d6 b0 0a 3d d1 6c a4 3d
       -0.31268668 -0.5063931 0.03386005 0.080285676
0003a0 49 54 22 3e 01 6d da 3e 82 fa ed be a2 b4 7d 3d
       0.15852465 0.42661288 -0.46480185 0.061939843
0003b0 5a d0 a3 be 43 52 7d bc b2 4b 05 bf 1b 88 29 bd
       -0.31994897 -0.015461507 -0.52068627 -0.041389566
0003c0 b8 db 07 bd 00 dd cb be 13 81 de 3d dc fb 52 3e
       -0.033168525 -0.39817047 0.10864463 0.20603889
0003d0 3a da b3 3e 32 a4 22 3e 4c be 70 3e 57 4a 8d be
       0.3512743 0.15882948 0.23510092 -0.2759578
0003e0 cb 47 4a be 33 49 3d be 85 65 c1 bd 08 bf 97 be
       -0.1975395 -0.18484955 -0.094431914 -0.29637933
0003f0 fb 38 a3 3d 67 a7 ea bd 8f 1b 75 3d 26 ac 1a be
       0.079698525 -0.11457711 0.059840735 -0.15104732

fc3.bias f4 [4]
000000 0a 50 23 3d 23 1b 96 3d c2 7b 78 3d 01 39 13 3d
       0.039871253 0.07329395 0.0606649 0.035943035

bn1.weight f4 [128]
000000 cd 07 66 3f 2b 7a 0b 3f 7d 59 71 3f da f5 98 3f
       0.89855653 0.5448329 0.94277173 1.1950028
000010 68 ff 0f 3f dc 2a 2f 3f 77 c2 f7 be fe db 3f 3f
       0.56249094 0.68424773 -0.48390552 0.74945056
000020 e7 f9 7f 3f b5 00 41 3f 97 30 24 3f c3 25 0d 3f
       0.99990696 0.75391704 0.6413664 0.55135745
000030 7d fc 53 3f d5 a9 01 3f d7 56 3e 3f 5a ca 24 3f
       0.8280714 0.5064977 0.7435126 0.64371264
000040 fd f3 85 3f ed 7e 8b 3f fc 5a 24 3f ca 24 38 3f
       1.0465084 1.089811 0.6420133 0.71931136
000050 b3 47 18 3f 83 34 9c 3f ee c4 87 3f b6 ae 65 3f
       0.59484404 1.2203525 1.0606973 0.8971971
000060 79 4a 48 3f fd 61 5b 3f b4 24 11 3f bf c1 94 3f
       0.78238636 0.85696393 0.5669663 1.1621627
000070 7b f3 38 3f 0a 76 0d 3f 9e 84 13 3f 92 73 28 3f
       0.7224652 0.5525824 0.5762423 0.65801346
000080 da 46 2e 3f 28 6d 8e 3f 2f 40 6d 3f db 7c ac 3f
       0.6807686 1.1127062 0.9267606 1.3475603
000090 c3 e5 66 3f d2 10 a6 3f de 11 3c 3f c5 3f 35 3f
       0.9019434 1.2973883 0.73464763 0.7080043
0000a0 d1 e3 eb 3e 71 17 a2 3f f3 11 10 3f 43 54 5e 3f
       0.46072248 1.2663404 0.5627739 0.86847323
0000b0 0c 3e 8c 3f f5 c0 54 3f c3 41 86 3f 0e 9d 80 3f
       1.0956435 0.8310693 1.0488819 1.0047929
0000c0 a3 c1 2c 3f 2f 48 12 3f 37 31 4c 3f b2 32 1b 3f
       0.67482966 0.57141393 0.79762596 0.6062423
0000d0 fe f1 3e 3f 74 4e 84 3f 7e e3 19 3f 6f 5b 3c 3f
       0.74588 1.0336442 0.6011275 0.73577017
0000e0 a3 3a 35 3f 2c cb 6c 3f bf 97 8a 3f 52 bb 38 3f
       0.707926 0.92497516 1.0827559 0.7216083
0000f0 16 7b 27 3f 7e b5 7b 3f 25 6f 37 3f a6 d8 25 3f
       0.6542219 0.9832381 0.7165397 0.64783704
000100 d0 d5 92 3f 2e 72 20 3f a5 d4 f1 3e d9 59 7a 3f
       1.14715 0.62674224 0.47232547 0.97793347
000110 9b bc 58 3f c6 e4 8b 3f 94 b3 77 3f e5 33 32 3f
       0.8466279 1.0929191 0.9675839 0.69610435
000120 42 cc 63 3f d8 09 85 3f 70 93 6a 3f 15 a1 9c 3f
       0.8898355 1.0393629 0.9163122 1.2236658
000130 69 fc 30 3f d0 7a 24 3f 55 b4 72 3f e3 bf 23 3f
       0.6913515 0.64249897 0.94806415 0.6396467
000140 cc 95 fd 3e 47 70 ef 3e 77 f6 98 3f 9f 6c 52 3f
       0.49528348 0.46765348 1.1950215 0.8219699
000150 03 59 3f 3f f2 cd b7 3f 04 59 36 3f 1e 42 73 3f
       0.74745196 1.4359725 0.7122958 0.9502276
000160 ae 5e 84 3f c7 a7 60 3f 49 8a 51 3f 3c 4c 45 3f
       1.0341394 0.8775601 0.8185163 0.7706945
000170 3e 83 23 3f 82 47 05 3f 6f 62 81 3f d1 0d 26 3f
       0.63872135 0.5206224 1.0108165 0.6486483
000180 fc 4c 0b 3f 46 f7 5b 3f 8c b9 41 3f d3 8a 82 3f
       0.54414344 0.85924184 0.7567375 1.0198616
000190 8c eb 33 3f 79 62 6d 3f c5 d7 87 3f 4d b9 a7 3f
       0.7028129 0.9272838 1.0612723 1.3103424
0001a0 18 b5 2d 3f aa 02 93 3f 3b c2 1f 3f 26 66 7c 3f
       0.6785445 1.1485188 0.6240575 0.98593366
0001b0 06 51 95 3f 56 00 6e 3f 97 e4 98 3f ce cd 82 3f
       1.1665351 0.9296926 1.194476 1.0219057
0001c0 97 36 21 3f 80 2b 10 3f bf f2 05 3f 21 e8 26 3f
       0.6297392 0.56316376 0.52323526 0.6519795
0001d0 f1 3f 41 3f 15 c0 1d 3f 24 f2 5b 3f cd eb 15 3f
       0.7548819 0.6162122 0.8591635 0.5856293
0001e0 ea 20 68 3f a7 08 10 3f b6 8f 9c 3f f5 47 a0 3f
       0.9067522 0.562632 1.2231357 1.252196
0001f0 68 16 13 3f 1a 57 56 3f 2c 7d 0d 3f eb 5e 8b 3f
       0.57456064 0.83726656 0.5526912 1.0888342

bn1.bias f4 [128]
000000 d9 e0 d0 3d 37 96 f0 3d 52 33 a5 3d 1c df b6 3b
       0.10199136 0.11747401 0.08066429 0.005580796
000010 b8 cb dc bd a2 2d 9d bd 57 d6 dc bd 6f 53 60 3d
       -0.10781044 -0.076747194 -0.107830696 0.05476707
000020 18 ee a3 3d 76 3a 8f 3c d4 93 1f 3e 17 62 ee bc
       0.08004397 0.017483931 0.15583736 -0.029099507
000030 77 98 50 3c fb 85 1e be b4 59 0a 3e 6d 69 b8 bd
       0.012731663 -0.15480797 0.13510782 -0.09004483
000040 35 97 55 3d 2e 03 75 be 56 f9 18 3e 1c cc da bd
       0.052146155 -0.23926994 0.14938864 -0.10683462
000050 b3 94 53 be 0b f2 ff 3d dc 56 c3 bd 1e 5f da ba
       -0.20662193 0.12497338 -0.095380515 -0.0016660427
000060 be 67 45 3c e6 2d a5 3d 01 7d 43 3e e8 62 bd bd
       0.01204866 0.08065395 0.19090654 -0.092473805
000070 fa 96 e9 bd 62 84 cd 3d a1 3f 6a be 82 41 a3 bd
       -0.114057496 0.10035016 -0.22875835 -0.07971479
000080 63 9f 6a bc cc 25 5f 3d be b3 bd 3d 95 6a 44 3e
       -0.014320227 0.054479405 0.09262799 0.19181283
000090 d1 db c1 3d bc ab 23 bc cf 89 dd 3d 3e 58 af bd
       0.09465755 -0.009989675 0.108173005 -0.08561753
0000a0 e3 82 49 3d 48 40 6d 3d 11 2f 1c be 0b 42 55 3d
       0.04919709 0.05792263 -0.1525233 0.052064937
0000b0 ac f0 e4 bc 25 c8 17 be 38 dc 3e 3c e8 41 28 be
       -0.027946793 -0.14822443 0.011649184 -0.16431391
0000c0 4c 63 a9 3d c3 e5 d6 bc 89 c7 97 3d 38 6c 64 bd
       0.082708925 -0.026232606 0.07411105 -0.055767268
0000d0 40 32 d9 3d f4 54 44 be 4a 7b af bc fc 86 3d bd
       0.106052876 -0.19173032 -0.021421093 -0.04627131
0000e0 d3 c3 47 3d 43 cd 0d bd 60 e5 32 be c4 13 c4 bd
       0.048770737 -0.03461958 -0.17470312 -0.095740825
0000f0 ec 0a 28 3d 7d c1 93 bc 92 19 24 3d 64 6e 37 bd
       0.04102604 -0.018036598 0.04006345 -0.04478301
000100 5d 77 58 3e 34 ac cc bd 5d a7 3d be b2 f0 f7 bc
       0.21139283 -0.09993783 -0.18520875 -0.03026614
000110 4a 28 36 be 87 04 70 bd b1 2d 24 3e 2f e5 81 bd
       -0.17788807 -0.058598068 0.16033055 -0.063425414
000120 10 a2 99 bc a2 e5 83 bd c5 cb 32 be 80 28 ca bd
       -0.018754035 -0.06440283 -0.17460544 -0.09871006
000130 9f 68 2c 3d ff bf ff bc eb f4 45 bd 14 52 f1 bd
       0.042091962 -0.03121948 -0.048329275 -0.11783233
000140 fe 91 bf 3d ab 79 e0 bd 8d b3 7e be b3 16 7f 3c
       0.09354018 -0.10960706 -0.2487318 0.015569377
000150 e3 41 45 be c9 4f 2f be a1 b6 8d bd fa 1e 98 bd
       -0.19263415 -0.1712028 -0.06919599 -0.07427783
000160 9c b4 0c be ae 6c 2e be c1 28 40 3e fe b9 ce bc
       -0.13740772 -0.17033646 0.18765546 -0.025235172
000170 75 59 ee bd 93 d0 a3 3d 83 46 51 3d 36 4c 11 bc
       -0.11638156 0.07998767 0.051092636 -0.008868268
000180 1c fb c1 bc f0 d7 85 bd 5b a8 10 3e 3e 3b 45 3a
       -0.023679309 -0.065353274 0.14126723 0.00075237814
000190 92 4b db bd 9d e8 34 be b3 a7 2b 3e 6d e6 12 3e
       -0.10707773 -0.1766686 0.16763191 0.14345713
0001a0 79 c7 1d 3e 14 e1 51 bd 38 c9 ef 3d da ee e6 3d
       0.15408124 -0.05124004 0.11708301 0.11276026
0001b0 30 a0 fc 3d be 56 79 bd f5 72 d3 3d 2d 7c 7b bc
       0.12335241 -0.06087374 0.10324661 -0.01534943
0001c0 3c 75 44 3d c7 73 53 be ae 94 e9 bc d9 7e c5 3d
       0.047963366 -0.20649634 -0.028513279 0.09643335
0001d0 a9 47 94 be ac cf 87 3c cf 78 f6 bc 92 d2 2b be
       -0.28960922 0.016578518 -0.030086903 -0.16779545
0001e0 58 e0 44 bd 59 55 5f 3d ea f1 f5 3d 5d ce a6 3e
       -0.048065513 0.054524753 0.12009032 0.32579318
0001f0 e2 b7 e3 3d e0 e9 1d bd b0 fd 3f bd 03 57 a0 3d
       0.11119057 -0.03855312 -0.046872795 0.07829096

bn1.running_mean f4 [128]
000000 25 db 9f 3e ac dd 6b 3f 8f dd 19 3d c8 3b 2d 3e
       0.31221882 0.9213512 0.03756481 0.16917336
000010 9a 02 8e 3f d2 e1 70 3e a1 16 fb 3b 22 c0 13 3f
       1.1094544 0.23523644 0.0076626097 0.57715046
000020 d2 16 7b 3e e5 0c 01 3d 9f 8a e8 3d bc fd e4 3e
       0.24520424 0.031506438 0.11354565 0.44724834
000030 12 9d 1a 3e 85 c6 1d 3b 1b 21 df 3e 0b 9d f6 3d
       0.1509898 0.0024074626 0.43579945 0.12041672
000040 62 22 2c 3d 73 ed 87 3e 4a b1 a5 3e 5f 15 16 3d
       0.042024978 0.26548347 0.32361823 0.036641475
000050 78 f0 fd 3e df f8 05 3f 2b 6a ef 3e cf f1 3d 3f
       0.49597526 0.5233287 0.46760687 0.74197096
000060 3b 6d 2f 3f 82 f2 e4 3e 90 d4 3d 3d 8f b8 8d 3e
       0.6852605 0.4471627 0.046345294 0.2767987
000070 aa 04 02 3f 54 6d e8 3e c7 53 f9 3d bd 23 fc 3e
       0.50788367 0.4539591 0.121741824 0.49246016
000080 99 b5 8d 3d 1f 37 5a 3f f1 80 35 3e 33 eb f8 3d
       0.06919403 0.8524036 0.17724968 0.12154236
000090 a1 82 60 3e 92 1c 19 3f ee 93 0b 3f 09 b0 18 3d
       0.21924831 0.5980922 0.545226 0.037277255
0000a0 b0 98 06 3b 3d 4b 66 3e 17 06 8e 3d 01 e8 80 3e
       0.0020537786 0.22489639 0.06934755 0.25177005
0000b0 17 06 8e 3d 18 71 d5 3e e7 ee bc 3e 5d 28 e8 3d
       0.06934755 0.41687846 0.36901018 0.11335824
0000c0 8b 47 f8 3e ac 23 ab 3e 8b 81 03 3e c9 31 6b 3b
       0.48492083 0.33425653 0.12842385 0.0035887829
0000d0 4b 83 ac 3e c8 bd 18 3e 46 b2 16 3f a5 5a 89 3e
       0.3369392 0.14916146 0.58865774 0.2682697
0000e0 21 cb 2b 3f 8a 2e 89 3e 9c d6 40 3e 37 32 9a 3e
       0.67106825 0.2679332 0.18831867 0.30116436
0000f0 68 58 8d 3e 3f 13 df 3e 49 16 bc 3e be d1 a2 3e
       0.2760651 0.4356937 0.36735752 0.31800646
000100 46 7a 1e 3e 5e 5f 08 3e a4 2c fb 3c b0 2e 77 3e
       0.15476331 0.1331763 0.030660935 0.24138904
000110 ab 4f 55 3e c6 2c 10 3f 27 91 ca 3e d7 87 7f 3d
       0.20831172 0.5631832 0.39563867 0.062385406
000120 f2 1e ea 3d dc 4d 39 3e 1e 22 12 3d 53 35 3b 3e
       0.114316836 0.18096107 0.035677068 0.1828206
000130 99 7f c3 3d 27 3f cc 3e 67 a0 4e 3e af fe e6 3e
       0.09545822 0.3989193 0.20178376 0.45116183
000140 1e f0 2a 3b 73 e6 eb 3d d7 e0 7d 3d 97 6b 47 3e
       0.0026083062 0.11518564 0.061982002 0.19474636
000150 b1 22 4d 3e 88 86 e1 3d c7 bc 27 3d 97 1f 32 3b
       0.20032765 0.11011988 0.040951516 0.0027179474
000160 17 72 06 3e 37 34 47 3e 9f 55 c1 3e 32 be 5e 3e
       0.1312946 0.19453512 0.37760636 0.21752241
000170 f5 e3 d1 3c f7 dd fc 3c 7c 48 6a 3f ef ba 8a 3c
       0.025621394 0.03086756 0.9151685 0.01693484
000180 71 ea 93 3d ee 23 81 3e db ca 60 3c 42 9a 6e 3e
       0.072224505 0.25222725 0.0137202395 0.23301032
000190 c3 83 64 3d 8a 51 14 3e ec c2 15 3f 92 00 48 3e
       0.05578972 0.1448423 0.5850055 0.19531468
0001a0 f6 97 00 3e 5a 2c 8a 3e e6 41 c4 3e 35 4c 07 3e
       0.12557968 0.26986963 0.38331527 0.13212664
0001b0 dd f9 ea 3e 53 06 16 3d d8 cc 21 3e eb de e4 3e
       0.45893756 0.036627125 0.15800798 0.44701323
0001c0 1f 4b 21 3e c5 77 6c 3d 48 d0 0a 3f b2 59 98 3f
       0.15751313 0.05773141 0.5422406 1.1902373
0001d0 8d 4c 53 3e 02 0f 3f 3f 73 fd 16 3d 10 08 e7 3d
       0.2063467 0.74632275 0.0368628 0.11280835
0001e0 2d b0 46 3f e2 13 87 3e 98 c3 d2 3c 76 b5 3a 3e
       0.7761257 0.26382357 0.025728032 0.18233284
0001f0 30 54 22 3f 41 5c 7a 3d ef 5e eb 3d e0 52 63 3f
       0.6340971 0.061123136 0.114927165 0.8879833

bn1.running_var f4 [128]
000000 a7 6b 44 3e be 14 13 3f 9c 3e fe 3c 8f 15 aa 3d
       0.19181691 0.57453525 0.031035714 0.08304893
000010 ee 22 1c 3f 6f 47 30 3e 8f 2f 80 3b 1c 5a 9c 3e
       0.609908 0.1721475 0.0039119194 0.30537498
000020 96 b0 e4 3d 49 3f da 3c 41 f9 85 3d ad 4d 2e 3e
       0.111664936 0.026641505 0.06541682 0.17021818
000030 4c c8 06 3e 11 27 7f 3a a4 af fd 3e 75 84 8e 3d
       0.13162345 0.00097332994 0.49548066 0.06958858
000040 22 f0 a4 3c f0 c1 4d 3e 78 32 81 3e 1e 35 af 3c
       0.020134035 0.20093513 0.25233817 0.021387633
000050 ec f1 94 3e a3 b1 53 3e 48 92 68 3e 1f 7c a2 3e
       0.29090822 0.20673232 0.22712052 0.31735322
000060 86 10 34 3f a2 28 de 3e c0 48 f2 3c 85 77 0a 3e
       0.7033771 0.43390375 0.029575706 0.13522156
000070 0e 9c 46 3e 70 19 b3 3e 2e 0d ba 3d 23 8b dc 3e
       0.19395468 0.34980345 0.09084545 0.43074903
000080 03 90 34 3d a5 b0 f0 3e 56 36 02 3e 90 8e 86 3d
       0.044082653 0.4700977 0.1271604 0.065701604
000090 9f 99 ed 3d cd 55 64 3e 6d db a9 3e dd 68 0c 3d
       0.116015665 0.22298355 0.3317522 0.034279693
0000a0 f4 70 d5 3a 5a ae f4 3d 68 96 25 3d 50 d8 58 3e
       0.0016284273 0.119473174 0.04042664 0.21176267
0000b0 12 5c 0b 3d d3 a5 73 3e 90 36 8f 3e 03 fa 52 3d
       0.034023352 0.23793726 0.27971315 0.05150796
0000c0 be bf 11 3f e8 ce 9b 3e 80 8f 53 3d bd 2a 4d 3b
       0.569332 0.30431294 0.051650524 0.0031305992
0000d0 70 ee 35 3e d9 1d d2 3d 90 43 0c 3f 66 9a 20 3e
       0.17766738 0.10259599 0.5479059 0.15683898
0000e0 83 be 1c 3f c8 f0 32 3e 78 8c e3 3d a0 c1 46 3e
       0.612282 0.17474663 0.11110777 0.194098
0000f0 60 74 8c 3e ff d8 4f 3e 4e 5c 3f 3e 48 31 26 3e
       0.27432537 0.20297621 0.18687555 0.16229737
000100 24 e9 d7 3d a8 45 93 3d ae 4f 69 3c 72 dd 41 3e
       0.10542515 0.0719102 0.0142401885 0.18932131
000110 95 3e 15 3e 9c f4 f9 3e f2 6b 8f 3e 30 2e 14 3d
       0.14574654 0.48819435 0.28012043 0.03617686
000120 ae ae 98 3d e2 ca bb 3d b0 6c 0a 3d 26 8e ab 3d
       0.074551925 0.09169556 0.03379506 0.08376722
000130 b0 99 4a 3d 10 f6 9b 3e eb 8d 0f 3e 93 a9 f0 3e
       0.049462974 0.30461168 0.14018981 0.47004375
000140 09 82 14 3b 97 92 7b 3d 6a 07 45 3d bc c3 1e 3e
       0.0022660515 0.061419096 0.048102774 0.15504354
000150 bd 41 f4 3d 85 b7 29 3d bb 1a 95 3c ae 01 93 3a
       0.11926601 0.041434783 0.018201223 0.001121571
000160 b4 05 77 3d eb 33 bc 3d 52 35 a8 3e 25 04 0a 3e
       0.060308173 0.0918959 0.3285318 0.13478144
000170 20 93 45 3c 46 b8 96 3c d4 e7 93 3f 71 d6 14 3c
       0.012059003 0.018398415 1.1555123 0.00908433
000180 5d f1 0d 3d 8d bf 01 3e 67 50 be 3b fc 70 12 3e
       0.03465401 0.12670727 0.0058079246 0.14300913
000190 74 91 cd 3c be 7a b5 3d 8b 0d 90 3e 09 aa 12 3e
       0.025093772 0.08861302 0.28135332 0.14322676
0001a0 70 0f a2 3d 45 4f 4d 3e f0 86 9a 3e 46 42 8d 3d
       0.07913101 0.2004977 0.30181074 0.06897406
0001b0 79 4b 81 3e 52 4e cf 3c 6a 43 b2 3d de 34 eb 3d
       0.25252894 0.0253059 0.087042645 0.11484693
0001c0 8f d6 e4 3d 23 28 d3 3c 59 37 8c 3e 33 bf a2 3e
       0.11173736 0.025775975 0.27385977 0.31786498
0001d0 33 49 e6 3d 6c 9e 50 3f 60 52 92 3c 4b cb a0 3d
       0.112444304 0.8149173 0.017861545 0.07851275
0001e0 73 9b 7a 3f 64 b4 35 3e f4 23 5d 3c 6c 45 85 3d
       0.97893447 0.17744595 0.013497341 0.06507382
0001f0 d0 50 9f 3e 24 1e 0c 3d f6 d0 83 3d bd 41 ba 3d
       0.31116343 0.03420843 0.064363405 0.0909457
