p3-CollaborationCompetition/MADDPG_actor_0.pth (torch_old, 24542 bytes, 6 tensors)

fc1.weight f4 [64, 24]
00000000: 320a ad3d 2e09 24be 0d25 81bb fb6c 7b3d
00000010: dd8d 59be f6e9 e23a 4075 bebc 6fd2 7c3e
00000020: b02e 3c3e 80fb 15be 8d4c a13c ab5b 5e3d
00000030: 3d38 d1be a1a9 dfbd fea1 593e 7717 123d
00000040: 3aba 883e 651f 59be c2d9 e43d 2ae5 283e
00000050: e764 ddbe b4b5 27bd db74 d63d ef9c 4a3d
00000060: 2fe7 bcbe ff8e d9be b357 b3bc 6c36 f63c
00000070: c62d a53c 06d3 103e 7f1a 473d 205f 0e3c
00000080: 27a0 89be 0bf3 63bd 95fc 703c 0cd8 c63b
00000090: 6774 113e ed07 1abe 5d46 be3d 0929 d93d
000000a0: 1d8a 55be 0c75 bfbd 118f 373d b15a a83a
000000b0: de39 033f b584 18be 116b 5cbd d9b2 fe3d
000000c0: fb1e 5b3d e6e2 033e 82b9 ff3d 28a9 1fbd
000000d0: 03de 16bd 0749 9cbe f35b 9cbd 3327 253e
000000e0: 6362 3cbd 5847 513e 4ea5 c0bb 4a08 903d
000000f0: e2cd afbe 7b6c 98be fdbb 61bb 3fcd 723e
00000100: 937d 703c f744 923e 9297 f93d f61f 0abd
00000110: 7f3c 42bf 5127 2dbf 80cb d73d e4d8 9fbb
00000120: 7182 023d c1d3 ffbe f1e3 23be 7e9d 07bf
00000130: 8121 a9bd 90d8 783b 323a 04bd ae0b bfbe
00000140: 10f4 3bbd 1997 2dbf 35ef 4fbd 8327 54bd
00000150: 8477 643e 4e8f 72be a2a6 38be 4adb 83bd
00000160: 0d2f 69be d910 43bf 4df9 20bc 3bbf f03e
00000170: a662 0a3d 0a23 b73c 0d67 d7bd 2617 043f
00000180: abac de3c be40 06bf 6a87 083e c694 0abe
00000190: 0c23 e23e c4a4 1c3e b653 8fbd 2720 5cbe
000001a0: e66d c6bd 7ca2 a0be 12bf 493c 9166 21bd
000001b0: 27cb 643e b59c 0e3f 9f5c 193e 1a71 b9bc
000001c0: 5ec0 e4bc 8b30 e0be 641f ab3d b510 9cbe
000001d0: 45ee cabd ec2f cd3e 9bb2 923d 41b2 6bbe
000001e0: fe04 9f3c 14dd 0fbe cca3 19be d45d ca3d
000001f0: 1338 74be 345e ffbe 5205 09be d950 57bd
00000200: 1c14 ffbc e325 87bb f701 e0bd c6bf d9bc
00000210: 21dc 81be 7daa 74be 1de7 97bd 602d 89bd
00000220: b90b 863d 2e2e 1d3d 5ba7 dabd 98a6 93be
00000230: ac26 a03d 7448 563e cb6c 58be 66d4 5abe
00000240: 4ca8 11be 50c6 80bf dd13 8dbd 9a6c 7d3e
00000250: b8ce e13e 936a e4be 779c 383e b7d5 d83d
00000260: b374 babd 634b 57bf cdd5 b7bd b44a 0d3f
00000270: c851 a93d 0091 d6be ec41 91bd 19b8 ed3e
00000280: 5b9a 1f3d 10b0 43bf 051e 9ebb 0265 a03e
00000290: 6e88 92be d85b 7bbe 6cbc 96bd d40a a03e
000002a0: 2e8f b9bd 84a5 adbe f65e e33d 45af 963e
000002b0: 8591 cb3e 789a c7be eeca 6f3d 1332 993e
000002c0: 00b3 15be d818 a7be 9685 19be 9d15 02bd
000002d0: 2d56 29ba 5bd2 35be 3f0e 32be f0be 0abd
000002e0: 42d0 193d 797e eabe 78c4 f1bd e7ca 98bd
000002f0: 35f9 eeb9 1b68 46be 455d fbbd ad6e c83c
00000300: 4e80 933e 5990 1fbe 5331 d1bd 4673 de3e
00000310: 34cd c03d 89b5 09be 769d ebbd b40c 133f
00000320: 21db c73e 812d 42be 9fe4 d438 512b e83e
00000330: 7ccd d83d 5b90 893d 6576 ccbd 0e77 e73e
00000340: 365c b33e 2175 a7be 53be b5bd ec45 363e
00000350: ea6b 873e 26c6 1d3e 112f 1fbe 846e 8f3d
00000360: 6737 453d aac5 febd 91f0 80bd bfd6 d4bb
00000370: 791b a4bd 107e ab3e 6e50 9dbd 790d 053d
00000380: 32f6 82bc 89a7 72be 7a71 0ebe 8969 963c
00000390: 0d7c 273e 754e c33b 8424 56be fffa e03d
000003a0: 2cd2 61be 9a29 aabe 740c a03c f6c3 cdbd
000003b0: acda cd3e 2bd5 45bd 1e6b 0abd cc95 fdbd
000003c0: 9f17 08be 3920 fdbd c1ac e73d d791 15bf
000003d0: d123 fdbe 67e8 12bd 2996 973c e1d4 ccbe
000003e0: d429 2fbd ec46 78bb 0f63 cabd 32bd 463b
000003f0: 4ab4 9cbe 90ec ff3d 692f e7bd 342f 3dbd
0.0844921 -0.16019127 -0.0039411844 0.06138323 -0.21245523 0.0017312157 -0.023249269 0.24689649
0.18377185 -0.14646721 0.019689823 0.05428664 -0.4086322 -0.10921026 0.21253201 0.03566691
0.2670458 -0.21203382 0.111743465 0.16493669 -0.43241045 -0.04094477 0.10471507 0.04946607
-0.3689513 -0.4249191 -0.021892404 0.030055247 0.020163428 0.14142999 0.048609253 0.008689672
-0.2688 -0.055651706 0.014708658 0.0060682353 0.1420456 -0.15042086 0.092907645 0.1060353
-0.20853467 -0.09348497 0.044814173 0.0012844411 0.51260173 -0.14894374 -0.053813044 0.12436456
0.053496342 0.12879524 0.12486555 -0.03897968 -0.03683282 -0.30524465 -0.076347254 0.16128235
-0.045992266 0.20437372 -0.005879081 0.07032831 -0.34336764 -0.29770264 -0.0034444325 0.23711108
0.014678377 0.2856824 0.12187113 -0.033721887 -0.7587356 -0.6763812 0.105368614 -0.0048781503
0.03186268 -0.49966243 -0.16004921 -0.5297469 -0.082583435 0.0037970878 -0.032282062 -0.37313598
-0.045887053 -0.6780868 -0.050765235 -0.051795494 0.22311217 -0.23687479 -0.18032315 -0.064383104
-0.22771855 -0.7619758 -0.009825063 0.47020897 0.033785485 0.022355575 -0.10517702 0.5159782
0.027181944 -0.5244254 0.13332906 -0.13533315 0.44167364 0.15297228 -0.069983885 -0.2149664
-0.0968893 -0.31373966 0.012313621 -0.039404456 0.22343121 0.55707866 0.14976738 -0.022636939
-0.02792376 -0.43787035 0.08355597 -0.30481496 -0.099087276 0.40075624 0.071629725 -0.23017217
0.01941156 -0.14049178 -0.1500389 0.098811775 -0.23849516 -0.4987656 -0.13380936 -0.052567337
-0.031137519 -0.0041243895 -0.10937875 -0.026580703 -0.25363258 -0.23893161 -0.07417128 -0.06698108
0.06545205 0.03837412 -0.10676452 -0.28838038 0.07819876 0.20926076 -0.21135251 -0.21370086
-0.14224356 -1.006052 -0.06888554 0.2474846 0.44103026 -0.4461256 0.18028437 0.10587638
-0.0910429 -0.84099406 -0.08976326 0.5519211 0.08267552 -0.419075 -0.07092652 0.46429518
0.038965564 -0.76440525 -0.004825356 0.31327063 -0.28619713 -0.24546754 -0.07360157 0.3125826
-0.090605125 -0.3391534 0.11102097 0.29430595 0.3975946 -0.38985038 0.05854314 0.29921016
-0.14619064 -0.32636142 -0.14992365 -0.031758893 -0.00064596796 -0.17756025 -0.17388247 -0.0338735
0.037552126 -0.45799616 -0.118050516 -0.074605756 -0.0004558057 -0.1937565 -0.12273649 0.024466837
0.28808826 -0.15582408 -0.10214486 0.43447322 0.094141394 -0.13448156 -0.11504643 0.5744126
0.3903437 -0.18962671 0.00010151532 0.45345548 0.10586068 0.06716987 -0.099835195 0.4520802
0.3503129 -0.3270655 -0.08874192 0.1780011 0.2644952 0.15407619 -0.15545298 0.07003501
0.04814854 -0.12440045 -0.062958844 -0.0064953263 -0.080130525 0.33494616 -0.07681356 0.03248355
-0.015986536 -0.23696722 -0.13910475 0.01836087 0.16355915 0.0059602805 -0.20912367 0.10985374
-0.2205283 -0.33234864 0.019537188 -0.10047142 0.40205896 -0.048298996 -0.03379356 -0.12382087
-0.1329026 -0.123596616 0.11312247 -0.5842566 -0.49441388 -0.035866167 0.01850422 -0.40006164
-0.0427645 -0.003788407 -0.09882175 0.0030325172 -0.306063 0.124962926 -0.1128834 -0.046187595

fc1.bias f4 [64]
00000000: c08a 8fbe e388 fa3d b9e4 c33d 3d1b b23c
00000010: 3988 353e 355e bcbe e119 513d 8bf0 1d3e
00000020: fbc4 1ebe 7bf4 83be a6e5 473e 1f53 2d3c
00000030: bb81 73be c8b2 f7bd 34cc 493e c70b 31bd
00000040: 1ff0 61bd d14f ba3d 34e4 8f3e 2f3f b73e
00000050: 4aa2 b93e 8462 1abe 51f5 bb3e 93b3 3c3e
00000060: 220e 373e 7222 0abe 8cbe 85bd 0da1 d83d
00000070: df07 5ebe a004 13be eb1b 0fbf 7cc4 81bc
00000080: 9ae0 c73d 199b 6e3e 41e3 653d a48d ffbc
00000090: 71ec ad3d 82d1 043e 2d5b dfbe d618 2dbe
000000a0: b450 823e 8067 7e3e 0d53 32be c693 b0bd
000000b0: 89b5 81bd f0eb 3c3e 42da 46bc c4fb 073f
000000c0: 990b 053f 3a92 723b c4ca 96be bcc2 5abe
000000d0: bcb2 5dbe 81ca a23c 121d dcbd 99a9 9f3d
000000e0: 75a5 35bd 101a 39be bb98 90be 8967 88bd
000000f0: 0354 f4be 494b 88be 19dc cc3d 1599 e13e
-0.28035545 0.1223314 0.0956511 0.021741504 0.17727746 -0.36790624 0.05105007 0.15423791
-0.1550483 -0.2577246 0.19521198 0.0105789 -0.23779957 -0.12094647 0.19706804 -0.043224122
-0.055160638 0.09097255 0.28103793 0.35790393 0.3625663 -0.15076643 0.367106 0.18427877
0.17876485 -0.13489702 -0.065304846 0.10577593 -0.2168269 -0.14357233 -0.55901974 -0.015840761
0.09759636 0.23301353 0.05612493 -0.03119547 0.08492363 0.12970546 -0.4362425 -0.16904005
0.25452197 0.2484417 -0.17414494 -0.086219355 -0.06333453 0.18449378 -0.012136998 0.5311854
0.5197082 0.0037013427 -0.29451573 -0.21363348 -0.21650213 0.019871952 -0.10747732 0.0779602
-0.044347245 -0.18076348 -0.28241524 -0.06660373 -0.47720346 -0.26619938 0.10002918 0.44062105

fc2.weight f4 [64, 64]
00000000: 5ef7 2dbf 0d37 153e a55c 9fbe 11e1 a53e
00000010: 27ae 51be d309 d0bc de53 30be 5b97 babd
00000020: e2b5 323d e962 323e 3957 63bb 26bd ed3d
00000030: 5a46 b43e 985a a93d 378b 2cbf b763 703e
00000040: 8712 dd3e a928 973e 09b9 16be cce6 9c3d
00000050: 63a4 ecbd cbc2 943d 5b73 6f3e 572b 9d3d
00000060: 1506 d93d c040 223e 5ed2 52be ad66 38bd
00000070: 42ef a23d aec3 26be cd16 5ebe 7d80 6f3e
00000080: bfee 8dbe 6f24 18be fe84 213e 9904 c13d
00000090: 5617 1f3c db5c a5bd 6953 f23d 7927 26be
000000a0: 8dd7 fd3d ca0a 06be 50e3 6cbe 1a91 883e
000000b0: 9233 913e f6ba 97be c87a bcbe 0c02 543e
000000c0: be83 a7be 1fa3 253e eba6 173d a76a 29be
000000d0: 6ca9 6fbc 7321 25bd 4734 9d3d 610f 3e3d
000000e0: 0ca8 1a3e 5633 023e 4b83 e03e 47a3 82be
000000f0: 15ad e43d 2a03 acbd ff25 c93d 31a1 0a3f
00000100: e8af c1be a695 8c3d a739 3dbf a90e e03e
00000110: 0c66 c8be 1f70 cebd dcc1 c3be def6 a2bb
00000120: e234 163e f696 f73d 3cdb 90be d70f 303e
00000130: be15 9c3e 3e90 ffbd 8649 a3be 118a 82bc
00000140: adcf f9bd acfa b13e 25cb cabd 0387 5f3e
00000150: 2b35 4ebf 2a67 473e 31ba 25bd b852 703e
00000160: 60d9 763c cf11 d13d aab8 27bf 9975 713e
00000170: 9996 e43d 4ed1 d9bd 8a3c febe 991e a13d
00000180: 5673 7cbe a795 b9bd 2ff7 a9be 5d2f 07be
00000190: 567d 4dbc 46dc 35be 255b e1be 3075 1d3d
000001a0: 4f72 803e d4d2 40bd 36ed fbbd f891 5a3e
000001b0: c3eb 233e c0da 0fbe 4303 93be a491 20be
000001c0: 4bb9 90be 5fca 98be d71b 30bc b997 823e
000001d0: fec5 19bf 8c71 3e3e 5998 7dbe c1ea 4bbe
000001e0: 9dc2 703e 0720 e9bc 2b7b 383e d914 18bd
000001f0: c4fa ba3c 96ea 2ebe 7f43 60bd 3002 d3be
00000200: e7f7 c9bc d616 3abd 9b92 6dbe 0465 e2be
00000210: d51e 5a3d 1621 6d3e bf5f 11bf c78f 93be
00000220: 7831 26bf a237 fdbd 311c b23d df90 e1ba
00000230: 50ed 153d 8192 09be 8ad9 48bd db5d c93e
00000240: f172 21bd 82ff ffbd b987 d3bd 0649 9e3d
00000250: 7132 9b3e 2a24 153e e509 9e3e b76c 5abe
00000260: 72c7 db3d c0c6 ca3e 79e3 8c3d 14f9 a9be
00000270: 2276 88be 31e9 7c3e bb98 273e 4c8f b93e
00000280: 0ab5 013e eadf 623e 7793 c63d 479b 5e3e
00000290: f79f 83be 39be babd 5861 443e 0244 ee3c
000002a0: 2ad5 b33e 3439 6b3e 4647 253e 27dd 8a3d
000002b0: c3ae 173e b14d a3be 8545 22be 9be5 833e
000002c0: f5c7 8dbc c559 11bf 5850 0b3e 50de 10be
000002d0: fa1e 85be e32e a33d ab9c 59be bedd 983d
000002e0: ab3e 68bd cfca 18be 964d b93c 935a 9c3e
000002f0: 2334 e0be 9e98 8cbe 0644 f23d 4936 a3be
00000300: 5367 2a3e e948 273e 336e 323d a991 f4bd
00000310: 7500 bd3d 5444 5dbe 4730 eabc a740 7b3e
00000320: 742f 95be e446 e03d dc29 c6bd 079c 43bc
00000330: d620 35be 9c1a 233d 05f5 c7be 947c b7bc
00000340: 8fd1 2b3e 99f8 013e 3aaf 313e a5bc 833d
00000350: 5cd8 383b 234f 1bbd 8771 bc3c d60e 21be
00000360: fa1a a0bc 5b58 25bd 42cb 6bbb 58a5 813d
00000370: 5798 763e 9698 26be 36b8 74be 79e1 3fbe
00000380: c130 9e3d 7233 8a3e 61ff 173e bf72 2b3d
00000390: ca27 813d 2ec5 a93e 1655 a3bd db53 c4bd
000003a0: a3ba 8ebe c085 9f3d b1e7 363e 62a6 00be
000003b0: 960c eb3d 6c35 c63e d439 613e 08f1 da3e
000003c0: 1764 91be 2670 4d3d fbe6 4e3e faa1 9a3d
000003d0: 8d90 aa3b c3ba 9cbd 1cdf 373e c408 b13d
000003e0: 89e9 65be 772b adbd e22c 8dbc 20ed 47be
000003f0: 7564 7d3e c8cc 5e3e 0568 ea3d a07b 573d
-0.6795558 0.14571781 -0.3112537 0.32398275 -0.2047659 -0.02539531 -0.17219493 -0.091109
0.04363049 0.17420544 -0.003468944 0.11608343 0.35209924 0.082692325 -0.67399925 0.23475538
0.43178198 0.2952321 -0.14719023 0.076612085 -0.11554792 0.07263716 0.23383848 0.07674282
0.10596863 0.15845013 -0.20588061 -0.045019794 0.07955791 -0.16285583 -0.21688385 0.23388858
-0.2772121 -0.14857648 0.15773389 0.09424705 0.009710154 -0.080743514 0.118323155 -0.16225995
0.12394629 -0.13090053 -0.23133588 0.26673204 0.28359658 -0.29634827 -0.36812425 0.20703906
-0.327177 0.16175507 0.03702442 -0.16544591 -0.014627796 -0.040315103 0.07675987 0.046401385
0.15103167 0.12714896 0.4385017 -0.25515196 0.11165825 -0.08399041 0.098217 0.5415221
-0.37829518 0.06864481 -0.73916095 0.43761185 -0.39140356 -0.10079979 -0.3823384 -0.0049732765
0.1466861 0.120893404 -0.28292263 0.17193542 0.30485338 -0.12478684 -0.3189203 -0.015934976
-0.12197814 0.3476156 -0.09902028 0.21828847 -0.8054988 0.19472948 -0.04046077 0.23469055
0.015066475 0.10208475 -0.6551615 0.23580016 0.11161537 -0.10635625 -0.49655563 0.07867164
-0.24653372 -0.09061747 -0.331964 -0.13201661 -0.012542089 -0.17759809 -0.4401485 0.038441837
0.2508721 -0.04707606 -0.12301104 0.21344745 0.16007905 -0.1404829 -0.28713426 -0.15680557
-0.28266367 -0.29841897 -0.010748825 0.2550638 -0.6006774 0.18598002 -0.24765147 -0.1991377
0.23511739 -0.028457655 0.18015735 -0.037129257 0.022824652 -0.17081675 -0.05475187 -0.41212606
-0.024654342 -0.045431934 -0.23200457 -0.44217694 0.05325206 0.23157153 -0.5678672 -0.2882063
-0.64919233 -0.12364127 0.08696783 -0.0017209313 0.036603272 -0.13434793 -0.049035586 0.3932942
-0.039416257 -0.12499906 -0.103286214 0.07728772 0.3031192 0.14564577 0.30866924 -0.21330534
0.107314005 0.3960476 0.068793245 -0.33197844 -0.26652628 0.2469833 0.16366856 0.3624214
0.12666717 0.22155729 0.096960954 0.21738921 -0.2570798 -0.09118313 0.19177759 0.029085163
0.3512357 0.2297104 0.1614047 0.06780463 0.1481276 -0.3189521 -0.15846832 0.25761113
-0.017307261 -0.567776 0.13604867 -0.14147305 -0.26000196 0.07967927 -0.2125117 0.07464169
-0.05670039 -0.14921115 0.022620004 0.30537853 -0.43789777 -0.27460188 0.11829381 -0.31877354
0.16640978 0.16336407 0.043562125 -0.11941845 0.09228603 -0.21608096 -0.028587474 0.24536382
-0.29137766 0.10951021 -0.09675953 -0.011939055 -0.17688307 0.0398203 -0.39054123 -0.02239827
0.16779159 0.12692489 0.17352 0.064324655 0.0028205132 -0.037917268 0.023003353 -0.15728316
-0.019544113 -0.040367465 -0.0035979305 0.06330365 0.2408155 -0.16269144 -0.23898396 -0.18738355
0.07724143 0.26992375 0.14843513 0.041857477 0.06306417 0.3315825 -0.07975213 -0.09586307
-0.27876768 0.07789183 0.17861821 -0.1256347 0.1147701 0.38712633 0.21994716 0.42762017
-0.28396675 0.05015578 0.202053 0.07550426 0.00520522 -0.076528095 0.17956203 0.0864425
-0.22452368 -0.08455556 -0.017233316 -0.1952405 0.24745353 0.21757805 0.114456214 0.052608132

fc2.bias f4 [64]
00000000: 2f96 82be db64 ebbd dedb 833c d993 a93d
00000010: c5fc 2dbe b932 81bd 8e07 c33c 9020 d83e
00000020: 38f6 663c 72d5 25bd cc2c 343c ec90 a83d
00000030: 80f1 7abd 9fb9 18be 9c40 193d 1ade 5d3e
00000040: 91c2 4abe 02d4 d8bd f562 9e3e 903e 39be
00000050: 5672 28bb d057 68be dbc4 24be e822 5d3e
00000060: f7c3 cd3e 0561 063d 33e2 a0bc d951 33be
00000070: 4c48 c1bd 201d c13c db86 d5bd fcd7 0a3e
00000080: 152e 8cbd efe5 81be 2039 523d ce2e d8bd
00000090: 7ba0 273e b8b9 02be 5a8f aa3d 8365 f13d
000000a0: fdb4 c2be 93a9 53bd d696 013d fcaa 6cbd
000000b0: d5a3 cd3d 809f 98bd 1830 04be d376 483e
000000c0: ad1f 18bd 784f 6b3e c385 593e 2f6e 143e
000000d0: dffb 943e f1ca 60be d064 4d3d eddf 813c
000000e0: 5bdb 123e 317e a23e cdab 2c3e 702e 073e
000000f0: 193d 97bc 47f1 7dbd cca4 183e bb5a e53d
-0.25505206 -0.11493846 0.016096052 0.08280153 -0.16990955 -0.06308503 0.023807313 0.42212343
0.014096789 -0.04048676 0.0109970085 0.08230767 -0.06126547 -0.14914559 0.037415132 0.21666756
-0.19800784 -0.10587312 0.30934873 -0.18090272 -0.0025702915 -0.22689748 -0.1609072 0.21595347
0.40188572 0.03280737 -0.01963911 -0.17511691 -0.09437618 0.023573458 -0.10426112 0.13558954
-0.06844727 -0.25370738 0.05132401 -0.10555802 0.16369812 -0.12766159 0.083281234 0.1178694
-0.38028708 -0.05167539 0.03163799 -0.05778025 0.10041014 -0.07452297 -0.12908971 0.19576578
-0.037139583 0.22979534 0.21242432 0.14495157 0.29098412 -0.21952416 0.05014497 0.015853846
0.1434149 0.317369 0.16862412 0.13201308 -0.01846175 -0.061997678 0.14906615 0.11198946

fc3.weight f4 [2, 64]
00000000: eb32 e93e 7df3 ea3e dde8 cf3e 468a 4fbb
00000010: b1ea 22bf d4b4 ce3e 1449 5dbe 6fcc 63be
00000020: 963b 39be c147 5c3e 47f4 8ebd 37c7 89bd
00000030: 6262 c9be 7002 aebd 9e97 4ebe c511 51be
00000040: 413f 063e 5582 4f3e 0471 cabe b0b6 a03e
00000050: 8316 b4be a576 a73e 2785 423f 5f7b 33be
00000060: d611 09bf ae36 b5be f2b9 323e bc24 c13c
00000070: 73ff b0be a97c 8c3d 18ce bc3d 579b 35be
00000080: f366 833e c36f 723f 19b6 11bf 8ecb 853e
00000090: 2aab 0c3d acea 8c3e 41e8 7bbe ee48 d8be
000000a0: 9634 a63d acbf fc3d 70ee d0be f732 d63d
000000b0: 0831 c2be 22d7 323e c04d bf3e 3a54 96be
000000c0: 18e5 cbbd 1326 b1be 8c44 1f3e 9a28 8fbd
000000d0: db46 76be 495d 1ebe c637 993e bd64 f63e
000000e0: 6f89 cdbe 590e 89be a34d afbe 5a0d 12bd
000000f0: 0ac4 1a3e 6864 4d3f 7555 d2bd 7422 c8be
00000100: 62b3 c5bd a8b9 24bd 1942 873e 7e69 f8bd
00000110: 29ca 803e 1288 6fbe 1d8f 35bf 9b74 933d
00000120: f5ce 5e3e 5919 5c3e 7d61 3f3e ab35 5bbf
00000130: 3701 d4bc 3548 043f c2f4 8b3d acde 49bd
00000140: 2ed6 0fbe 8d0e 093f 1651 bdbb 8f41 64be
00000150: b3e7 aebe 1796 123e 54d8 903e bf05 1abf
00000160: 40e1 f93e f7a1 a4bb 070b acbe 275e e0be
00000170: d6bc 783e 5fea 963d bc79 a43c 31cb 21bd
00000180: 1134 af3e 188a 0bbf 03a0 aabe adc2 52bd
00000190: 054a adbe 7932 d73d 95ae e1bd 28c6 633e
000001a0: 7ff0 61bf ede1 913e 2d06 b13d 0cfd 703e
000001b0: b2fb 413e 015b 17bd 1ae5 65be f967 54be
000001c0: 62d4 b53e 843d 23bd d826 06bf ee69 123e
000001d0: a85f 87be 6a50 4fbf 31e9 8cbc d98f fa3d
000001e0: 6e16 4b3e 77f2 a1bc 74a6 ce3d f710 533e
000001f0: 2cc2 c6be 6ff4 033d f851 c53d 5698 9c3e
0.4554666 0.45888892 0.40607348 -0.003166811 -0.6363936 0.40372336 -0.21609908 -0.22245954
-0.18089136 0.21511747 -0.06980186 -0.0672745 -0.39332873 -0.08496559 -0.20175025 -0.20416935
0.13110067 0.20264561 -0.3953935 0.3138938 -0.35173425 0.32707706 0.75984424 -0.17527531
-0.5354284 -0.3539328 0.17453745 0.023577087 -0.34569892 0.068597145 0.09218997 -0.17735039
0.25664482 0.94701785 -0.56918484 0.26131862 0.034342922 0.2752279 -0.24600317 -0.4224314
0.08115499 0.12341246 -0.40806913 0.104589395 -0.37928033 0.17464879 0.37364006 -0.29361135
-0.099558055 -0.3459936 0.15553492 -0.06990166 -0.24050467 -0.15465273 0.29925364 0.48123732
-0.40143916 -0.2676876 -0.3423892 -0.035657264 0.15113845 0.8023133 -0.10270206 -0.39088786
-0.09653355 -0.040216118 0.26417616 -0.12129496 0.25154236 -0.2339175 -0.709215 0.07199975
0.21758635 0.21494044 0.18689533 -0.85628766 -0.025879486 0.5167268 0.06833793 -0.049284622
-0.14046547 0.5353783 -0.0057774885 -0.22290634 -0.34161147 0.14315067 0.28290045 -0.6016502
0.48804665 -0.0050241905 -0.33602163 -0.43821833 0.24290785 0.073689215 0.020077579 -0.03950042
0.3421941 -0.5450759 -0.33325204 -0.05145519 -0.33845535 0.10507674 -0.11019627 0.2224356
-0.8825759 0.2849268 0.08643756 0.2353403 0.1894367 -0.036952022 -0.22450677 -0.20742787
0.35513598 -0.039853588 -0.5240302 0.14298221 -0.26440167 -0.8098208 -0.017201038 0.12234468
0.19832775 -0.019768937 0.10090342 0.2061194 -0.38820016 0.032215532 0.09634775 0.30584973

fc3.bias f4 [2]
00000000: cf08 8dbd 07cc c33b
-0.06886446 0.0059752497
