p3-CollaborationCompetition/MADDPG_critic_1.pth (torch_old, 31469 bytes, 5 tensors)

fcs1.weight f4 [64, 48]
000000 3e 75 fd 3c 45 bf 8f 3e 2d d0 9d 3d 70 a7 27 bc
       0.030939694 0.28075615 0.07705722 -0.010232791
000010 71 7f 5f 3e b6 55 97 bd 7f 2e a7 bd 9b 44 e1 bc
       0.21825959 -0.07389395 -0.08163165 -0.027498534
000020 15 83 3b bc 27 e2 b3 bb 70 99 ce bd be f7 10 be
       -0.011444827 -0.005489606 -0.1008786 -0.14157006
000030 e0 d6 19 3e dc 3f aa bd 52 c0 cb 3d 25 6d 42 3d
       0.15023375 -0.083129615 0.099487916 0.04746737
000040 6c b8 57 3d 28 b2 34 3e d6 29 a6 3c 28 93 68 3d
       0.052666113 0.17646086 0.02028362 0.056780964
000050 f4 ae b6 be 18 92 dd 3e 02 05 ad bc 41 7d e4 bd
       -0.35680354 0.43275523 -0.021120552 -0.11156703
000060 32 d3 6d 3d d0 4c c5 3d ea 28 95 3c 0f 40 4a 3d
       0.05806274 0.096337914 0.018207986 0.049377497
000070 b9 ed b9 be b5 cc 4c bd 03 a9 bb bc 07 24 a2 bd
       -0.3631418 -0.04999991 -0.02290774 -0.07917028
000080 dd 73 91 bd ba ca ce 3d ef 22 a5 bb c9 64 d5 3c
       -0.07102177 0.10097261 -0.005039565 0.026049035
000090 a9 f4 d4 bb 2d a3 5a bd 48 45 d0 3b c2 f3 44 bd
       -0.0064988923 -0.053378273 0.006355915 -0.048084028
0000a0 3e e9 3e 3c fd ec dc 3e 18 5f 09 3c 1f 2a 8f 3d
       0.011652289 0.43149558 0.0083844885 0.06990456
0000b0 6c 4c c0 3e 71 6f ec 3e 0c 1d 81 bc 92 07 83 bd
       0.37558305 0.46178773 -0.015760921 -0.06397928
0000c0 91 e5 7f 3e 0d 8d 3b be 27 c5 96 3c 1e e9 46 bd
       0.24989916 -0.18315525 0.018404556 -0.04856216
0000d0 57 7a 92 3d 65 8a e2 be a6 b8 46 bd ac 0d 51 3a
       0.07152241 -0.44246212 -0.04851594 0.00079747546
0000e0 ee 64 ba bd f7 ef 1c be 76 95 07 bb a3 6f 02 bc
       -0.09101282 -0.15325914 -0.002068845 -0.007961187
0000f0 6b 44 7e 3e cd 3b 2b be 69 dd 03 3b fc 58 89 3d
       0.24830787 -0.16722031 0.0020120984 0.067064255
000100 5e aa d0 3c 04 84 a5 be 55 1b 6b bc 0a 60 4b 3c
       0.025471862 -0.32327282 -0.014349778 0.012413034
000110 5b 09 66 be 8c 89 dd 3d 62 28 8f 3c 61 4c 19 3d
       -0.22464506 0.108172506 0.01747531 0.037426356
000120 c3 88 b6 bd 22 e6 8d 3e e6 0e 3b bc c5 f8 1d bd
       -0.08912804 0.2771464 -0.011417126 -0.038567323
000130 44 3d 20 bd 9d 0c 63 be 14 66 81 3c d3 53 0f 3e
       -0.039120927 -0.2217278 0.015795745 0.1399682
000140 c8 da aa bd dd a9 49 3e cf ed c5 bd b7 b1 20 bd
       -0.083425105 0.19693704 -0.09664499 -0.039231982
000150 bf 9f 2e be b7 fb 3e be d1 9a 4e 3d f0 02 99 3d
       -0.17053126 -0.18650709 0.050440613 0.074712634
000160 83 ce 51 be 99 f0 de bd cd 5f 00 bd 34 a8 01 3e
       -0.20488934 -0.10885734 -0.031341363 0.1266182
000170 3b 5c 0d 3e c8 56 ee 3d 20 4a 59 bc be 6f 15 3e
       0.13804714 0.11637646 -0.013262302 0.14593408
000180 12 74 29 bd d1 6e a7 3c 81 4c 34 3c e7 f2 26 bc
       -0.04137046 0.020438584 0.011004568 -0.010189748
000190 cc 29 a7 3e 8b 0a ed bd f0 4d 8a bc 42 6d 48 bd
       0.32649076 -0.115742765 -0.016882867 -0.04893232
0001a0 ed 55 f1 3c f5 46 c0 3e ca cb 72 bd 9c 61 d4 3d
       0.029459918 0.37554136 -0.05927638 0.1037018
0001b0 eb b9 0e 3e d0 6a cc 3a 4a 79 59 3d f4 15 8c 3d
       0.1393811 0.0015595797 0.053094186 0.06840125
0001c0 6d eb 0e bd be d9 09 3f d8 f7 dc 39 0a 05 dc 3c
       -0.03489249 0.53847873 0.00042146328 0.026857872
0001d0 83 c4 00 bf 72 30 d9 3e 26 19 e0 bb 25 b7 ef bd
       -0.50299853 0.42419773 -0.0068389354 -0.11704854
0001e0 10 1c 71 bd ba fb 39 be 8f 6e 5b 3d fb 80 d1 bd
       -0.058864653 -0.18162432 0.053572234 -0.10229679
0001f0 99 bf 05 bf 41 0a c3 bd 0e 82 6e bd 47 2c ff 3d
       -0.5224548 -0.0952344 -0.0582295 0.12459617
000200 7a 8d b2 3c 97 af ec bd a5 e2 2d 3d 3c a4 89 bc
       0.021795977 -0.115569286 0.042452473 -0.016801946
000210 7f 89 cf bb 95 12 60 bd 02 30 4f bd e1 cb 1c 3d
       -0.0063335295 -0.05470522 -0.050582893 0.03828037
000220 89 4d 05 3e bf 0a d2 bd fc 62 38 3d a1 90 39 be
       0.13017859 -0.10255956 0.045016274 -0.18121578
000230 fa 1b 0b 3f 72 f3 52 3e 47 4a 4c bd bb d4 a7 bb
       0.54339564 0.2060068 -0.049875524 -0.005121795
000240 11 d3 7b bd 21 2c ca 3e 31 d0 71 3d c7 a8 ff bd
       -0.061480585 0.39486793 0.059036437 -0.124833636
000250 48 0e de bc b2 88 22 be 93 07 af bd 3e ac 61 be
       -0.02710642 -0.15872458 -0.085463665 -0.22038361
000260 e7 02 84 3d a6 49 d5 3d ee 69 1b bd 25 03 ca bd
       0.06445866 0.10414438 -0.03794282 -0.09863881
000270 15 9a 82 bc 90 a3 c1 bd df f2 87 3c 86 98 78 bd
       -0.015942613 -0.09455025 0.016595302 -0.060692333
000280 87 1d 6b 3e 26 52 44 3e 46 b3 1f 3e b2 46 2f bd
       0.22960483 0.19171962 0.15595731 -0.04279203
000290 8c ca 67 3e fc e0 ba be 2c 9d 69 bd 34 20 3c 3d
       0.22635859 -0.36499774 -0.057034656 0.04592915
0002a0 00 7d 89 3d 69 e5 9e 3e 5c 30 18 be ec 15 d3 bb
       0.06713295 0.310344 -0.14862198 -0.0064418223
0002b0 be 65 ca 3c 03 d4 24 be 70 e8 15 3d d1 72 5a bc
       0.024706718 -0.16096501 0.036598623 -0.013333038
0002c0 96 00 f2 bc 58 0e bb 3d 62 76 ac bd 76 b7 33 3e
       -0.029541295 0.09133595 -0.08421017 0.17550454
0002d0 cc eb 41 3d 83 68 4b bc 44 02 d4 3d aa 37 60 3c
       0.047344014 -0.012415054 0.10351995 0.013685146
0002e0 a8 4c 86 3d 7a 18 78 3e c6 76 f6 bd 49 c7 00 3e
       0.0655759 0.24228087 -0.12034373 0.12576021
0002f0 04 57 12 be a0 89 be be c5 4a 42 bd 52 60 59 bd
       -0.14291006 -0.37214375 -0.047434587 -0.053070374
000300 fa 28 9b 3c a0 c0 9d be 55 1c c1 bd 33 9c 97 3d
       0.018940438 -0.30811024 -0.09429232 0.074028395
000310 7b ad 2f bd 0f 53 06 3e 0d 0b c1 3d 0f 05 bf 3d
       -0.042890053 0.13117622 0.09425936 0.09327137
000320 77 20 21 bd 99 74 88 be b1 58 35 3d 26 a2 f0 bd
       -0.0393376 -0.26651457 0.044274036 -0.11749677
000330 7b 38 a8 bd 49 39 79 3e 3f 8d f3 bc ec 4f 23 3d
       -0.08213898 0.24338259 -0.029730437 0.03987114
000340 ca 35 73 be 80 85 89 be 8a 77 9a 3c 04 f6 94 3d
       -0.23750988 -0.26859665 0.018855829 0.07273486
000350 6b f5 14 3e 19 45 c4 be e8 e7 28 3c e6 7b 48 bd
       0.14546745 -0.38333967 0.010309197 -0.048946284
000360 2a 2d e8 3b 43 74 20 be f5 83 77 3b 91 85 16 3d
       0.007085462 -0.1566935 0.0037767862 0.036748473
000370 c0 e5 58 3e 6e ea 18 3e 27 e5 81 bc 5d 3b bc 3c
       0.21181393 0.14933178 -0.015856339 0.022977525
000380 37 d2 1a 3d 83 f8 12 bd b3 d3 4b bc 22 c4 99 3b
       0.037798133 -0.03588153 -0.01244061 0.0046925703
000390 5b a2 cd bc a2 55 89 3e 96 9d a9 bb 7f 6e 5b 3e
       -0.025101831 0.26823145 -0.0051762564 0.2142887
0003a0 0f af c8 3e 2b c5 66 be a8 d3 a0 3a 93 b6 82 bc
       0.3919606 -0.22536151 0.001227011 -0.015956199
0003b0 62 04 87 be 5f fb de be 8e 0a 55 bc 9b 39 1c bd
       -0.2637053 -0.43551156 -0.013003005 -0.038140874
0003c0 e5 8a 37 bd c8 32 af 3c d5 01 50 bd 29 5f f2 3d
       -0.044810195 0.02138652 -0.050782997 0.118345566
0003d0 3b 65 c4 ba 84 b6 5d 3e d9 a6 df 3c 8a f7 c9 3d
       -0.0014983782 0.21651655 0.027301239 0.098616675
0003e0 54 ab c5 bd 7b 12 b2 bc 59 f0 05 3d fe 06 e3 3d
       -0.09651819 -0.021737328 0.032699917 0.11085318
0003f0 8d df 18 be 14 98 07 3d ff 5f a9 bc f1 a0 99 bd
       -0.14929028 0.033104017 -0.020675657 -0.075014

fcs1.bias f4 [64]
000000 bb f2 f9 bd ca 5e 50 be 32 d0 4e be 3f 2b 1c be
       -0.122045 -0.20348659 -0.20196608 -0.15250872
000010 37 6c 8e 3d 0a e7 84 3e 88 f8 04 bd 24 79 ff be
       0.06954234 0.2595752 -0.03246358 -0.4989711
000020 d7 d1 08 3f e9 c1 6a be 20 f3 c5 bd b6 cc c5 be
       0.5344519 -0.22925533 -0.09665513 -0.38632745
000030 73 a9 48 b8 46 f6 56 3d ec 05 26 3d e5 00 ea bd
       -4.7841528e-05 0.05248096 0.04053299 -0.11425952
000040 0a 8f d1 be b8 e9 6b 3e cb 0d 0c bf db 48 c2 be
       -0.40929443 0.23038375 -0.54708546 -0.3794621
000050 92 0e 7b be 78 80 68 bd 3c ab 29 bf cc c1 2c 3e
       -0.24517277 -0.056763142 -0.6627691 0.16870803
000060 37 01 15 bf ca ef da be 7e 6c 3f be 66 6c 25 3e
       -0.5820498 -0.4276107 -0.1869373 0.16154632
000070 3e 55 5c bc 8a a0 6d be b9 9b 81 3e 7f 77 25 3f
       -0.013448058 -0.23205772 0.2531412 0.6463546
000080 4b 51 48 be 35 56 0f 3e 4d f3 15 bf df b4 61 bd
       -0.19562261 0.13997729 -0.5857437 -0.055104133
000090 89 cb 4d 3e 43 3f 78 bc 03 db 77 3d 4b bd a2 3d
       0.20097174 -0.0151518015 0.0605116 0.07946261
0000a0 99 a1 20 be 6a 11 2e bf 81 5c bc be 03 2f e1 bd
       -0.15686645 -0.6799532 -0.36789325 -0.10995295
0000b0 8b ab fa 3e 52 c2 af 3d 81 92 8d bd 08 91 12 bd
       0.48959002 0.085819855 -0.06912709 -0.035782844
0000c0 34 b3 d2 3e d7 b2 de bd 6c aa e9 3d d3 16 48 3e
       0.41152346 -0.10873955 0.114094585 0.19539957
0000d0 f2 80 21 3f 2c 6a 2f 3e 46 b0 06 bf d0 aa 9a bd
       0.6308738 0.17130345 -0.5261272 -0.07552111
0000e0 4e b2 fd 3e 32 a8 31 3f 7f c2 26 3e 86 2e 87 be
       0.49550098 0.6939727 0.16285132 -0.26402682
0000f0 c5 42 87 3e c1 ef 01 3e b1 b3 a4 be bb 52 c6 bd
       0.2641813 0.12689115 -0.32168344 -0.09683748

fc2.weight f4 [64, 68]
000000 9a c9 55 bd 50 93 16 bd be 93 b0 bd 1b 9b 74 3c
       -0.052194215 -0.036761582 -0.086219296 0.014929558
000010 63 cd a5 3d 62 73 19 3e c8 21 da bc 90 0c db 3d
       0.08095815 0.14985421 -0.026627436 0.106957555
000020 eb 42 62 3c 96 9f 8b bd 60 a4 1d 3d 1a 53 b4 3c
       0.0138099 -0.06817548 0.03848684 0.022012282
000030 47 0d b5 3b a1 cb 05 bd dc d9 51 3d 50 a3 39 3d
       0.0055252644 -0.0326649 0.051233158 0.045321763
000040 0e c9 30 be 27 8f 1f 3e 00 11 62 bd 16 c7 5a 3b
       -0.17264196 0.15581952 -0.055191994 0.0033382825
000050 75 98 1f bd 6a 89 ba bc 60 fe 9d 3d b4 f9 67 bd
       -0.038963754 -0.022770602 0.07714534 -0.05663462
000060 32 77 d2 3d 99 15 b8 38 53 7f 5c be 99 e0 19 3d
       0.10276641 8.7778266e-05 -0.21532945 0.03756771
000070 d9 d5 44 3b b9 84 1e bd ef 76 11 be b0 58 d3 3d
       0.003003469 -0.038700793 -0.14205526 0.1031965
000080 c1 38 e9 3d 00 a2 8b bd 41 65 62 3d 83 54 d0 3c
       0.11387778 -0.068180084 0.055272344 0.025430923
000090 0a b8 d3 3d 6f e7 cd 3d d8 90 85 3c 05 b3 fa bc
       0.10337837 0.10053908 0.016304418 -0.030602941
0000a0 78 c7 d7 3d ec 1d 35 bd 1e e7 f6 3d 77 9a 60 bd
       0.105360925 -0.04421799 0.12055801 -0.05483481
0000b0 4f 37 8c 3d 72 f0 7b bd 71 7f 14 be c6 68 e4 bd
       0.06846487 -0.061508603 -0.1450174 -0.111527964
0000c0 dd dc e0 3d 2f ca 72 be bb dd 0e 3e 41 b0 9a bc
       0.10979626 -0.2370994 0.13951771 -0.018882873
0000d0 1c b8 e8 3d dd bc b9 bd c7 be 4f bd fc ad 1a 3e
       0.11363241 -0.09069226 -0.05071905 0.15105432
0000e0 80 f7 22 bc ad ba 16 be fd 8c 93 3d 05 cc a4 ba
       -0.009946704 -0.14719649 0.07204626 -0.001257301
0000f0 12 5b fd 3d 50 1f 84 3d 87 d4 e2 ba 3b 58 7e 3d
       0.12370886 0.06451285 -0.001730577 0.062095862
000100 f0 cc 8b 3e a8 2f 5c bd fe 9e 46 be de 63 c2 3d
       0.27304792 -0.053756386 -0.19396588 0.094917044
000110 62 0d c2 bd 72 cb 87 3d bb 45 c0 be 4f d9 16 3d
       -0.09475209 0.06630601 -0.375532 0.036828335
000120 7b e5 f1 bd d2 d9 8c bd f6 41 b0 ba fb d4 25 3c
       -0.11811348 -0.068774834 -0.0013447392 0.010121579
000130 a1 85 45 bd 88 16 a9 bd f2 d4 9d bd 89 4b 8f bc
       -0.04822314 -0.082562506 -0.07706632 -0.017492073
000140 72 da 84 be d0 c3 9b 3d e1 94 b5 be 75 8c 93 bd
       -0.2594791 0.07605708 -0.35465148 -0.072045244
000150 64 f5 1d 3e 5d 7e b9 3c e3 20 29 3e 70 7d 03 3e
       0.1542564 0.022643263 0.16516452 0.1284082
000160 0c 29 81 3c 36 27 91 3d 15 07 67 3d 90 69 4c 3b
       0.015766643 0.07087557 0.05640324 0.003119085
000170 af c4 a3 3c 63 23 5a bd fa 6e f0 bb 9e eb 95 bd
       0.019991247 -0.053256404 -0.007337448 -0.07320331
000180 a5 85 b5 bd 4f d8 5b bd 92 90 00 bf 78 88 39 be
       -0.08863381 -0.053673085 -0.50220597 -0.18118465
000190 03 9e 8c 3d c3 9d 11 be ff 7a 90 3d c2 c7 5c bd
       0.06866076 -0.14220338 0.0705471 -0.05390144
0001a0 db f5 ad 3d 91 f2 28 bd 15 9b 02 bd 3f 0e 0b be
       0.08494159 -0.041246954 -0.03188618 -0.13579653
0001b0 2d 87 a4 bd be 9c 01 3e 16 67 1b be 84 2c 66 be
       -0.08033595 0.12657449 -0.15176043 -0.22477919
0001c0 8b 1d 0b 3e 33 ad 8b bd b6 fa 56 be 65 01 bd 3c
       0.13585488 -0.068201445 -0.20994076 0.023071954
0001d0 3b 96 25 be 02 56 28 bd 50 4e 4a be b7 61 59 bd
       -0.1617059 -0.04109765 -0.19756436 -0.053071704
0001e0 63 e1 1a 3c 9b fa 0e 3e 59 0d b3 bb 5c 92 07 bd
       0.00945315 0.13962786 -0.0054642376 -0.033098564
0001f0 34 a3 9c 3d b6 37 e1 be 89 2e 32 3e 24 ac 2d 3e
       0.07648316 -0.43987817 0.17400564 0.16960198
000200 00 91 fc 3c b5 4e 22 bb 93 0d 54 3d d2 1d fc bd
       0.03083086 -0.0024766151 0.051770758 -0.12310375
000210 53 83 2b bb 58 33 38 bc a9 56 5d be 31 d3 19 bd
       -0.0026170805 -0.01124271 -0.2161509 -0.037554923
000220 1c 8d 42 be 38 d8 98 bc cc 95 6c be b3 48 ba bb
       -0.18999141 -0.018657789 -0.23104018 -0.005684936
000230 97 49 a4 3d 3d 0f 0b 3d 46 e9 14 be 0b 58 71 3d
       0.08021849 0.03395008 -0.14542112 0.058921855
000240 42 fc 0e 3d b4 b8 ce 3d 83 46 a0 bd ed 2e b8 be
       0.03490854 0.10093823 -0.07825949 -0.35973302
000250 ac 09 7c bd 01 1d 81 bd 28 58 88 3d 8f bb 8e 3a
       -0.06153266 -0.0630436 0.066574395 0.0010889637
000260 9b c4 77 be ad fe 11 3e 0c b2 12 be 9a 49 36 be
       -0.24196093 0.14257307 -0.14325732 -0.17801514
000270 b9 23 74 bd 5b 87 20 bc c6 79 4d be a4 5e 6b 3d
       -0.05960438 -0.009797896 -0.20065984 0.057463303
000280 fa b3 6c bd d7 dc a4 bd 26 d6 47 be 70 63 c2 3d
       -0.057788827 -0.08049934 -0.19515285 0.094916224
000290 40 6e 38 be b3 6d 7b be 66 d1 27 bd 79 21 3b 3d
       -0.18010807 -0.24553566 -0.040971182 0.04568622
0002a0 a6 a5 5c 3d a1 88 04 3c de 68 63 bd 01 94 9e bd
       0.053868912 0.0080892155 -0.05551993 -0.07743073
0002b0 8e b1 f4 3d 84 6c 49 3e 5f 7c 94 3d af d0 6d bc
       0.11947928 0.19670302 0.072502844 -0.014515086
0002c0 53 1b 25 3b 4d 7c 90 bd 04 07 80 3d 40 40 9a be
       0.0025193288 -0.070549585 0.06251338 -0.30127144
0002d0 22 79 ef bd 64 6c 60 3e 73 c8 a0 be 3c 5b c4 3c
       -0.11693026 0.21916348 -0.3140293 0.023969285
0002e0 ab b4 d1 be 62 1f 25 bf e7 de 30 3e 3a d1 e0 3d
       -0.4095815 -0.6450101 0.1727253 0.10977407
0002f0 ce be fd bd 0b 53 e2 3b f4 81 91 3a 97 0a ee be
       -0.12389909 0.006906872 0.0011101351 -0.46492454
000300 02 22 b3 3d c7 14 fb 3c 25 ac 97 3c 55 cb 0c 3d
       0.08746721 0.030649556 0.018514702 0.0343736
000310 a0 c7 14 be 7a 02 67 bc d1 84 75 bc 19 08 e2 3d
       -0.14529276 -0.014099712 -0.014985279 0.11036701
000320 ca a4 88 3e 90 ed 8f 3d 7a 8a 03 bf 31 9b 2c be
       0.26688224 0.07027733 -0.51383173 -0.16856076
000330 cf b3 2c 3c 29 1e 18 3e ed 31 9f 3d 21 eb ab 3d
       0.010540917 0.14855255 0.077731945 0.08394457
000340 d7 f7 54 3d 16 90 3a 3e 7c 66 3f bd 26 9a db 3c
       0.05199417 0.18219027 -0.046728596 0.026806902
000350 3b 30 5f be 89 b9 0c 3e 14 af b6 bd 81 d8 0b bd
       -0.21795742 0.13742651 -0.08920112 -0.03414202
000360 4e 40 bb 3d c9 9e b1 bc f6 67 68 bd 32 e8 36 3d
       0.091431245 -0.02168216 -0.05673977 0.044655032
000370 6d 32 10 be 16 14 b7 3d 1d 19 d0 be 95 a6 4d 3d
       -0.14081736 0.08939378 -0.4064416 0.050207693
000380 b1 63 3a bd 83 c6 83 bd c7 9a 41 be 4d f9 2f bd
       -0.04550523 -0.064343475 -0.18906699 -0.04296236
000390 dc 68 81 3e 6b 7f 92 be 05 1f f7 bd 2c 11 5b 3c
       0.25275314 -0.28612837 -0.120664634 0.013370793
0003a0 65 ed 2d be f1 0f 85 3e e6 5a 81 bc 31 3d 80 be
       -0.1698509 0.25988725 -0.015790414 -0.25046685
0003b0 e7 db 23 bd fb 39 90 bd 10 9b 12 bd b6 09 c7 bd
       -0.040004637 -0.07042309 -0.03579241 -0.09718649
0003c0 20 61 da bd 47 52 00 3e 24 20 26 3c 9a f9 e1 3d
       -0.106630564 0.12531386 0.010139499 0.11033936
0003d0 72 62 1c be f6 d3 b5 be f5 6a 6f 3d 97 db f1 bd
       -0.15271929 -0.35513276 0.05845161 -0.118094616
0003e0 ff 35 0a bd 07 f8 00 bd 7f 1e fa 3d 22 63 8a bd
       -0.0337429 -0.031486537 0.12212848 -0.06757189
0003f0 db 1c 58 3d 9a 2a 4d 3e 31 d6 54 bc c1 b9 42 3d
       0.052761894 0.20035782 -0.01299052 0.04754043

fc2.bias f4 [64]
000000 c3 6b 98 bc 7d 65 0d be c5 e3 69 3e 3d e1 1a be
       -0.018606072 -0.13808246 0.22840793 -0.15124984
000010 27 2f 75 3e b7 62 8c bd b1 23 fb 3c 7a ec 1e 3c
       0.23943768 -0.06854766 0.030656667 0.009699935
000020 d5 70 65 bd 8a b7 d5 bd 3b 35 23 3e 5a 66 b7 3d
       -0.056015808 -0.10435398 0.15938275 0.08955069
000030 29 dd 85 bd d1 47 4b bd ea 81 23 3d 1b f1 35 3e
       -0.065363236 -0.049629036 0.039918818 0.17767756
000040 69 c9 a1 3c b1 23 12 bd 97 5c ac bd c9 1c cc 3d
       0.01974936 -0.03567857 -0.084160976 0.09966428
000050 78 c8 32 3d 75 ea 8f 3e 17 a3 03 be 2b 45 3b 3e
       0.043648213 0.28108564 -0.12855183 0.18288104
000060 e2 0b 3a bd 52 0a 29 3e 30 1b cf 3d ed ee e0 be
       -0.04542149 0.16507843 0.101126075 -0.43932286
000070 85 fd 2f 3e 4b fc 1c 3d 6d 1b 6a be 13 ba 23 3e
       0.17186554 0.038326543 -0.22862025 0.1598895
000080 56 8b da bd 11 2f 63 3d ce f5 d3 39 82 59 a0 3e
       -0.106711075 0.055464808 0.00040428195 0.3131829
000090 51 41 5b 3e bb 0b 83 be 95 ee b2 bd 3c 18 0a 3e
       0.21411635 -0.25594887 -0.08736912 0.13485807
0000a0 4c 8c 6b 3d 48 39 e7 3d 31 7c f0 bd dd df ec 3d
       0.057506844 0.112902224 -0.11742438 0.11566136
0000b0 d7 b4 9a 3d 84 c0 80 3d 79 0e 2b 3e 1d 81 aa 3d
       0.07554024 0.062867194 0.1670474 0.08325408
0000c0 9c 17 c3 3d 1a 8c a9 bc 2c 7d 4e be a6 a1 5b be
       0.095259875 -0.020696688 -0.20164937 -0.21448383
0000d0 e8 03 c1 3c 49 f7 3e 3d 6d 0d d7 bc 6c de aa 3b
       0.023561433 0.04662255 -0.02625152 0.005214503
0000e0 13 f1 26 3e 37 48 ea bd d9 0a a8 3e b3 70 b3 be
       0.163029 -0.11439555 0.32820776 -0.3504692
0000f0 e2 6a a1 bd 4c ce 9e bd 9f bc 2d be b8 e0 9d be
       -0.078817144 -0.07754192 -0.16966484 -0.3083551

fc3.weight f4 [1, 64]
000000 09 12 98 3c 99 c2 77 bd 63 be 11 bd 8c ce 0f 3d
       0.018563287 -0.060488317 -0.035581958 0.035109088
000010 78 01 af bc d4 c4 02 3d 2b eb be 3c bf 02 9c 3c
       -0.021363005 0.03192599 0.023305496 0.019044278
000020 b6 7f c6 bc de ef e2 3c a5 07 e1 bc 9b 26 b7 bc
       -0.02423082 0.027702268 -0.027469466 -0.022357276
000030 74 7d c1 3c 81 6c ec 3d 4c 9a fe bc 1a 3b 94 bc
       0.023619391 0.11544133 -0.031079434 -0.018094588
000040 4f e9 82 bb 2b 58 16 3d a4 00 99 3c e2 f9 1f 3e
       -0.0039950977 0.036705177 0.018677063 0.15622666
000050 28 64 32 bc 8a f0 7e bd b9 52 9c bc 3c e6 f6 3c
       -0.010888137 -0.062241115 -0.019082414 0.030139081
000060 5c 2b 10 bd 42 59 d1 bc ef 34 43 3d 53 6b ad bd
       -0.0351976 -0.025555257 0.047657903 -0.08467736
000070 66 f4 a4 bc fa 9b 0c bd 79 b6 82 bc 00 94 f2 bc
       -0.02013607 -0.03432844 -0.01595615 -0.029611588
000080 77 dc d4 3c 08 38 0a 3d 5f 86 8b 3c 29 62 07 bd
       0.025984032 0.03374484 0.017031847 -0.033052597
000090 67 21 b4 bc a2 32 c9 bd ab 7e 01 be 26 9b 55 bc
       -0.021988584 -0.098241106 -0.12645976 -0.013037479
0000a0 89 1d 00 bd d5 d5 8d 3c cb 5c 36 bd 63 19 30 3d
       -0.031278167 0.017313877 -0.044522088 0.04299296
0000b0 09 1c 8d 3c 9e 14 a2 bc ca c0 00 3d a7 24 0a bd
       0.017225282 -0.019785222 0.031433858 -0.03372636
0000c0 61 2e 9e bc 1e 7d 55 3c 57 1e 01 bd 9e 14 c0 bc
       -0.019309225 0.013030319 -0.031523075 -0.023447331
0000d0 58 48 f9 3d 18 2e 96 3d f7 f1 10 3d 65 42 ef 3c
       0.121720016 0.073330104 0.035387006 0.029206464
0000e0 69 38 05 3d 17 14 bd 3c 1f 32 c7 bc 26 74 fb bc
       0.0325245 0.023080869 -0.024315892 -0.030695032
0000f0 1a 76 55 3d 49 2f 3f bc c7 1c 5c bc 4b ad b2 bd
       0.052114584 -0.0116689885 -0.013434595 -0.08724459
