p3-CollaborationCompetition/MADDPG_actor_1.pth (torch_old, 24562 bytes, 6 tensors)

fc1.weight f4 [64, 24]
00000000: 5632 6c3d 6fc4 f93d 72e3 96bd 93c2 94be
00000010: 8466 f4be 25e3 c83c 6d6e bebd d51c d7bd
00000020: ced9 0a3e dc22 213e ffe3 0fbe c71d 72bd
00000030: cfc1 e4bb eb57 36be 8052 563d 1531 9fbd
00000040: c8cc d2bd 0875 b2be 2843 563d 7870 8b3e
00000050: 14f9 893f 1d2b 9f3e 7c79 393d 21a3 203e
00000060: 1c5e 0b3f c1ef 20bf 7d11 63bd eceb 20bd
00000070: c093 c8be 0468 813e e6d0 763c 756c 78bd
00000080: c336 9b3e c1b8 42bf 3913 c53c 59b2 193e
00000090: 17b0 013d de46 123f 656a d13d 5708 803e
000000a0: 60cc cf3d 1cad 77bf c961 f83d 0e34 79be
000000b0: 9878 243f 5a0c 323f 6595 b93c f956 f6bd
000000c0: c0e0 d7bd 5f93 c4bd f32a b23d 7e84 babd
000000d0: a19f 143f cc50 a8be b2e9 e9bd e09e df3d
000000e0: b5e0 eebd 80ce acbc 2da3 353d 5a33 d0bd
000000f0: 8123 7c3e 6221 0b3d 2b9c 3f3d dc5d 853d
00000100: 4a92 38bd 53fb aa3d 2010 603c babf 9ebd
00000110: a147 e3be 3375 db3e 653f 39bb 2b5a 47bd
00000120: 6125 7f3d e86d d43e 010f 63be fbbb f8bd
00000130: 604f e33c 6aa8 eb3c 8a73 c0bd 5afe 0f3d
00000140: 458f 303d ec8e c13e da30 2b3e 51f5 5d3e
00000150: 41fd 203e a46e d93c cb17 1a3d 8911 513e
00000160: 812c 3d3e 7529 1f3f b83a 873d caf3 703e
00000170: b7a1 013e 3524 a33e ae34 f0bc e1e8 8f3e
00000180: fb38 e93e 69e6 013e 1d99 2d3d 611f 8e3e
00000190: a430 28bd 47c0 f2bd 74ca 24be 90b2 4a3e
000001a0: 0398 ddbc 7983 003e 7771 9dbd ceb2 5cbd
000001b0: 47eb a6bc 189f cd3e 4320 783d cf03 18bd
000001c0: c1d7 423e a8d6 c03e 1912 053e 588d 54bd
000001d0: c4b3 88be 8b62 0c3f 0bb7 f13d 8d56 ba3c
000001e0: 1d5c 883d f770 633f 189f 23bd 05db cc3e
000001f0: 9cb5 76be 20c0 edbe cb48 c2bc c8b2 7e3e
00000200: c0cb 8d3d 3c81 833f 0b7a aebd 0f8e 1b3e
00000210: 922f 20be d9a8 96be 0dbf 4cbd 9d5e e43d
00000220: 485f 1e3e 150a 4f3f ab4d 503d 0f7c 0cbf
00000230: f4c1 213c 02bf ef3d a416 5cbd f0bb f2be
00000240: 5ee2 93be eb38 80bc 857b 03be 27c2 2fbd
00000250: c320 ab3d c4e3 f23d 8f55 f73d b9f1 3cbe
00000260: 11ed 88be b694 173e 036b b1bc b9ec 203e
00000270: 589f 873c b08a f5be d8d1 38bb ef65 8e3d
00000280: 7a99 e5bd 4552 8a3e 8362 be3c caa6 c1bd
00000290: d2fa 1dbc 079e 62bf b283 3abd 990f c3bd
000002a0: b0ab 44be da8a 853d eacc 983c 5090 91bd
000002b0: b751 523f 13eb a63d cf8b 0abd 9e85 87bd
000002c0: 5e4d 60be c368 2a3d b70c 113c fb4c c63d
000002d0: dcf0 3d3e 74df 033e ef7b 77bc 5ef8 c13d
000002e0: 0b0e 76bc d17f 4cbc f38d 53bc 0bdb 53bd
000002f0: 0b42 c7be e12e 6fbd 982a 90bc 36f2 413d
00000300: 5f86 93be e17e a0bd ede3 b6bb 775a a1be
00000310: 6fb3 103d 4dfe 39bf f968 97bc a067 33be
00000320: bb96 31be 4aae 503d 88df 6d3d a399 de3d
00000330: 6952 acbd f451 62bf 8377 2bbd 90c8 db3d
00000340: 2df8 b7be 3c52 c3bd 286a 483d 6cab 1f3e
00000350: 6fb9 423e 716b 5abf 3faa 91bc 4372 443d
00000360: d7a8 143e 1c8a 613e d134 13bd 1570 dd3b
00000370: 9ecd 853f 115a 2b3f f3f3 4bbd 0b56 3b3d
00000380: 7567 5c3c 34ab a73d bf12 0d3d 6ee5 16be
00000390: b0ef 903e 68d3 483e 9fb8 11bd 52d6 64bd
000003a0: 838b eb3c bd38 9f3e aaea 183d 9846 7b3e
000003b0: 819f cfbe ce07 acbe 390d 83bc 005e 633e
000003c0: 24e8 403e 40d4 30bd 3953 473d b170 a839
000003d0: b57f 183d f870 afbe d73a 3cbd 7df1 3c3e
000003e0: d559 363e f796 11be 33e2 ecbc 9fda 1abc
000003f0: c343 fe3c 6be9 be3e d408 30bd 2450 70bd
0.05766519 0.1219567 -0.073676005 -0.29054698 -0.47734463 0.024522373 -0.09298406 -0.10503546
0.13559648 0.15735954 -0.14051817 -0.05911043 -0.0069811116 -0.17806976 0.052324772 -0.077730335
-0.10292965 -0.34854913 0.05231014 0.27234244 1.0779138 0.3108758 0.045281872 0.15687229
0.54440475 -0.62865835 -0.0554366 -0.039287493 -0.39175224 0.2527467 0.015064454 -0.060650308
0.30315217 -0.7606316 0.024057018 0.1500944 0.031662073 0.57139385 0.10225371 0.25006363
0.10146403 -0.9674852 0.12128026 -0.24336264 0.6424651 0.69550097 0.022654245 -0.120283075
-0.105409145 -0.09598421 0.08699598 -0.09107302 0.58056074 -0.32874143 -0.11421527 0.10918975
-0.11663953 -0.02109456 0.04434507 -0.101660445 0.24622919 0.033967383 0.046779793 0.06512043
-0.045061387 0.083487175 0.0136757195 -0.07751413 -0.44390586 0.42862853 -0.0028266546 -0.048669975
0.062291507 0.41490102 -0.22173692 -0.121452294 0.02774781 0.02876683 -0.09397037 0.035154678
0.043105382 0.37804353 0.16717854 0.21675612 0.15721609 0.026542015 0.037620347 0.20416845
0.18474008 0.62172633 0.066029966 0.23530498 0.12659346 0.3186356 -0.029321995 0.2810736
0.45551285 0.12685551 0.04238235 0.27758315 -0.041062012 -0.1185308 -0.16092855 0.19794679
-0.027050024 0.12550153 -0.07687657 -0.05388146 -0.02037586 0.4016044 0.060577642 -0.037113007
0.19027616 0.3766377 0.12995185 -0.05189261 -0.2669965 0.54837865 0.11802491 0.022746349
0.06658194 0.88844246 -0.039946645 0.4001085 -0.24092716 -0.46435642 -0.023716351 0.24872887
0.06923628 1.0273814 -0.085193716 0.1519091 -0.15643147 -0.29425696 -0.049986888 0.111508586
0.15466034 0.8087476 0.05085532 -0.548768 0.009872902 0.11706354 -0.05373253 -0.4740901
-0.28883642 -0.01565214 -0.12840088 -0.042909767 0.08355858 0.11859849 0.12076866 -0.18451585
-0.26743367 0.14802822 -0.021657472 0.15715303 0.016555473 -0.47957373 -0.0028201248 0.06953036
-0.11210914 0.27015892 0.023240333 -0.094556406 -0.00964232 -0.8852238 -0.04553575 -0.095244594
-0.19206119 0.065206245 0.018652398 -0.071076035 0.82155937 0.081503056 -0.033824738 -0.06617282
-0.21904513 0.041603815 0.008853129 0.096826516 0.18548912 0.1287821 -0.015105232 0.094712004
-0.015017997 -0.012481646 -0.012912261 -0.051722568 -0.38917574 -0.058394317 -0.017598435 0.04735013
-0.28813455 -0.078367 -0.00558137 -0.31514332 0.03532737 -0.7265366 -0.018482672 -0.17519999
-0.17342655 0.050947465 0.058074504 0.10869148 -0.08414156 -0.884063 -0.041862022 0.10731614
-0.3593153 -0.09537169 0.048929363 0.15592736 0.1901605 -0.8532019 -0.017781375 0.04796053
0.14517532 0.22025341 -0.03593904 0.006757746 1.0453374 0.66934305 -0.049793195 0.045736354
0.0134524 0.08186951 0.034441706 -0.14735958 0.28307867 0.19611895 -0.03557646 -0.055868454
0.028753048 0.31097975 0.037333168 0.24538648 -0.4055138 -0.33599705 -0.015997516 0.22203827
0.18838555 -0.043171167 0.04866335 0.0003212742 0.037231166 -0.34265876 -0.04595455 0.18451495
0.17807706 -0.14217745 -0.028916454 -0.009451537 0.03103817 0.3728746 -0.04297717 -0.058670178

fc1.bias f4 [64]
00000000: 2d49 6b3d a93e ab3e 4d95 093d edc3 a6be
00000010: 6cab 0c3e b17a 1bbe f267 6b3e 9e52 6fbd
00000020: 75f4 0b3f c32e 0abe f63c 873e 3cbd f93e
00000030: ff20 25be b046 5fbd a744 2a3e dc2e b83d
00000040: 3c8d 67be f936 713e a5d1 f83d 24b6 e9bd
00000050: 400b 1b3d 3fe2 56be 5551 aabc 3463 8b3d
00000060: 44db 2e3d 586b ca3d e015 c1bd 3b91 a8bd
00000070: c2a7 c0bd 5651 e3be e813 c4be 7822 6fbe
00000080: a560 043e d403 b4bd 13c6 22bc c937 883e
00000090: 5739 3ebd e021 70be c9df cfbd 7e41 283e
000000a0: b825 733e 9a46 dd3c 3103 b1be 841f 2e3e
000000b0: 2015 28bd 9df6 053d 17ca d7bb 258d 84bd
000000c0: 97de 04be d542 94be 5a90 babd 9fd1 883c
000000d0: 56a2 35be 09ed 263e 8a90 83be 242a 23be
000000e0: 77f8 a33e 5d73 0fbe 7d34 d9bd a0b6 edbd
000000f0: ac1a 97bd 714b c0be 9879 16be 778e b83d
0.057442833 0.33446243 0.03358965 -0.32571355 0.13737267 -0.15183522 0.2298887 -0.0584284
0.54669887 -0.134944 0.26413697 0.48777187 -0.16125868 -0.054510772 0.16627751 0.08993313
-0.2261247 0.23556127 0.121493615 -0.11411694 0.037852526 -0.20984744 -0.020790735 0.06806031
0.042689577 0.098837554 -0.094280005 -0.082308255 -0.09406997 -0.44397992 -0.38296437 -0.23352993
0.12927492 -0.08789793 -0.00993492 0.2660506 -0.046441402 -0.23450422 -0.101501055 0.16431233
0.23744857 0.027011205 -0.34572747 0.1700421 -0.04103577 0.032705892 -0.0065853703 -0.06472234
-0.12975536 -0.2895724 -0.09109564 0.016701518 -0.17737707 0.16301359 -0.25696212 -0.15934044
0.320255 -0.14008851 -0.106057145 -0.116070986 -0.07378134 -0.37557557 -0.14694822 0.09011548

fc2.weight f4 [64, 64]
00000000: 4a4c 91be 6871 1cbd e676 733c 3eb4 b8bd
00000010: 6eb3 b7bd 82fd a7be 6981 353e 5305 083e
00000020: 44ea 92be 47c0 6d3e 9c90 4dbe c587 953c
00000030: 8e69 933e 1ad0 b8be 7295 26bd 712b 58be
00000040: 43e5 a03e d7dc 933c dca3 c93e f528 023e
00000050: a291 27be 869b f5be 89d1 f73d 13de 8ebe
00000060: 3d9c ffbe 5c97 34bd 8e53 9c3e 0947 32be
00000070: dcaf af3e 7127 f33d 03a4 77bd 83fa 6fbe
00000080: 2185 58bf 4baa 993d 1644 013e e3e3 763e
00000090: b4db 5fbe 7956 89be d924 563d 6ea3 89be
000000a0: c4f1 33bc d69f 06bf 2ea3 f9bd 4984 2a3e
000000b0: 5bd7 afbe 5b18 a93c d878 49bf bbdd 923e
000000c0: e3fb 533e 1e6b 3b3e 775c dc3d 3799 cb3d
000000d0: a26b c93d dc14 f8bd 5534 083e 19fe 64bd
000000e0: 6c04 9ebe 3f26 17be b58c f2be 58f4 9abc
000000f0: fe4d 29be 2347 be3e 547b 6d3e 8603 b73b
00000100: 939c 933c 1e97 363d 447a 963e ff18 1a3e
00000110: 9399 413c 04fb 393e 2c94 e73d 6c7e 3ebe
00000120: e737 ba3e 04a4 e9be d1cc 663e c28f 69be
00000130: 9bf2 64be 03e6 9abe 6df0 40be 25dd 633e
00000140: c2a5 b43b f979 f13c c920 c9be 6b6c 943d
00000150: fe11 9dbd f95c afba c21d 113e 440d 95bc
00000160: f918 6d3d c089 e4bc e8e1 973d 35c4 dcbc
00000170: f760 67be 0b12 b13a 6ace 4fbf c364 313d
00000180: b64c 143e 7654 3f3e 4442 22be 6dea 96be
00000190: 1ec8 9cbe 6e30 073e b872 0ebd 5a3e 073d
000001a0: 6ca4 24bf 390d 94bd 1408 8e3d 57b3 0fbe
000001b0: 0e95 dc3d 4fac 233e b959 863e a937 873d
000001c0: bb7a d83c 13c8 e83c df48 873e 850c 28bb
000001d0: 6d7f 943e b384 243f 733e 92be 3cfe 653d
000001e0: 4b1c 343e 9071 4c3c 9fd1 853d 4483 66be
000001f0: 81dd 273e 8cdf 7abe 1b76 f8be 41db 6dbd
00000200: e967 9fbd 791a 4abe 4d5c a3be 1a6a 44be
00000210: 14f9 e23d 9df0 57bc 2fdb 993d c4bc 6d3d
00000220: 339b c53e 8368 03bf 60ef 223e c09b 9abe
00000230: 592e 39bf 80f3 0d3e 5639 ae3d 0ea2 ae3d
00000240: 1fff 1cbf 5e43 a33c 6eb8 49bf aaf2 9f3e
00000250: 6783 3bbe 99dd d8be 06b5 bfbc b9ef 06bd
00000260: efa3 a63d a53a 013e a660 0abb e845 3fbe
00000270: d18c f1bd faae ac3e 96e3 aabe 95c4 933d
00000280: b947 3d3e 694d 0cbe dfd4 913d af9d b13e
00000290: 70f1 8fbd 6d00 16bf 2b8b 963e 3bf2 9c3e
000002a0: 9fcc b4bd 94f4 883e 8295 553d c9ef f03d
000002b0: 9579 0f3e 05d5 a2be 0f10 da3d ad67 72bc
000002c0: 1977 a2bd 66d0 193e a6fd febd 7c11 ebbe
000002d0: d250 95be 70b4 37be ad50 a7bd 991b 49be
000002e0: b295 7dbe a6ed 403e cd05 3a3e 3633 29be
000002f0: 1720 673e 611b 1cbd bdcf da3d 3ba2 35be
00000300: fc6a 7ebe 90a0 7f3e 9347 c1bd 5ce0 5cbe
00000310: cc80 ffbe 844a f0be 253c d23d ca0b cb3d
00000320: d18e 36bf c234 ca3b c5e4 acbe 01a6 3ebc
00000330: 51fd 273d 0953 aa3e 266e abbd 2c7a 6d3b
00000340: 1ff8 8c3e 9dec f1bc 0958 063e e404 c73d
00000350: fc01 43bc 26e1 b5bd fa56 6b3d d3c4 393d
00000360: 1b6e d6be bc5c 29bd ba70 093f 2296 cbbe
00000370: 7829 abbe 2cb3 28be 85cd 1dbe 0b7f 5bbe
00000380: 686e 20bf 5e52 ed3a 56f6 173d adf4 303e
00000390: 1249 10be 58c3 fb3a 8150 b63d 9ca0 f63d
000003a0: fc57 13be e446 db3d 44c4 963e d5ef 0f3e
000003b0: 73d7 c73d f617 0b3e 5aad 40bf ef89 443e
000003c0: 627f eabe ae8d 1fbc 2dad 0bbf 9aa9 b4bc
000003d0: d991 443d 181f 7d3d 58dd 223e 0e70 a5bd
000003e0: 40e1 cdbe 7d50 eabe 399a 593e 4d9a dd3d
000003f0: 4748 06bf 818d 833d fd01 843e 8634 353c
-0.28378516 -0.03819409 0.014859891 -0.090187535 -0.0896977 -0.328106 0.17725147 0.13283281
-0.28694355 0.23217879 -0.20074695 0.018253217 0.2879147 -0.3609627 -0.040669866 -0.21110322
0.31424913 0.01804964 0.39382827 0.12710936 -0.16364148 -0.47970217 0.121005125 -0.27903804
-0.49923888 -0.04408966 0.30532497 -0.1740991 0.34313858 0.11872757 -0.06045915 -0.23435406
-0.8457814 0.07503184 0.12623629 0.2411037 -0.21861154 -0.26823786 0.052281234 -0.268825
-0.010982934 -0.5258764 -0.12189327 0.16652025 -0.3434399 0.020641496 -0.7870002 0.28684792
0.20701556 0.1830258 0.10759824 0.09941333 0.098349825 -0.121133536 0.13301213 -0.05590639
-0.3086275 -0.14760683 -0.47372976 -0.01891534 -0.16533658 0.37163648 0.23191577 0.005585137
0.018018996 0.04457771 0.29390156 0.15048598 0.0118164 0.18162161 0.113075584 -0.18602914
0.36370775 -0.45632946 0.22539069 -0.22808746 -0.22358172 -0.3025361 -0.18841715 0.22252329
0.005512924 0.029477106 -0.39282826 0.072472416 -0.07669447 -0.0013379148 0.14171508 -0.018194802
0.057885144 -0.027897716 0.07416135 -0.026949028 -0.22595583 0.0013509406 -0.8117434 0.043308984
0.14482388 0.18684563 -0.15845591 -0.29475728 -0.30621427 0.13202068 -0.034777373 0.033018447
-0.6431339 -0.072290845 0.069351345 -0.14033256 0.107706174 0.159837 0.26240328 0.06602413
0.02642571 0.028415715 0.26422784 -0.0025642228 0.29003468 0.6426498 -0.2856327 0.05615066
0.17588918 0.012478247 0.06534123 -0.22511011 0.16393091 -0.24499339 -0.48527607 -0.058070425
-0.07783491 -0.19736661 -0.31906357 -0.191811 0.11082664 -0.013179925 0.07512509 0.05804135
0.3859497 -0.5133135 0.15911627 -0.30196953 -0.72336346 0.13862419 0.0850703 0.08527003
-0.61326784 0.019929584 -0.7879704 0.31239825 -0.18311845 -0.42356566 -0.023401748 -0.03294346
0.081367366 0.12620027 -0.0021114736 -0.18679011 -0.11794437 0.33727247 -0.3337676 0.072152294
0.18484391 -0.13701405 0.0712068 0.34690616 -0.070284724 -0.585944 0.29403052 0.30653557
-0.08828091 0.26749098 0.052144535 0.117644854 0.14011224 -0.31803146 0.10647594 -0.014795226
-0.07932872 0.15020904 -0.12450723 -0.45911777 -0.29163224 -0.17939925 -0.081696846 -0.19639434
-0.24764135 0.18840656 0.18166275 -0.16523442 0.22570835 -0.038112048 0.10684154 -0.17737667
-0.24845499 0.24963593 -0.0943748 -0.21569961 -0.49902952 -0.4693185 0.10265378 0.09914358
-0.7131167 0.00617084 -0.33768287 -0.011636258 0.041013066 0.33266476 -0.083706185 0.003623615
0.2753305 -0.029531771 0.1311952 0.0971773 -0.011902329 -0.08880834 0.057455994 0.04535372
-0.4188088 -0.041348204 0.5368763 -0.3976298 -0.33430076 -0.16474599 -0.1541043 -0.21435182
-0.62668467 0.0018106212 0.03710016 0.17280836 -0.14090374 0.0019207997 0.08902074 0.120423526
-0.14389032 0.10706881 0.29446614 0.14056332 0.097578906 0.13583359 -0.75264513 0.19193242
-0.4580031 -0.009738369 -0.5456112 -0.022053529 0.047990654 0.06179723 0.15904748 -0.08078013
-0.40210915 -0.45764533 0.21250238 0.10820446 -0.52454036 0.06423474 0.25782767 0.011059886

fc2.bias f4 [64]
00000000: 53d7 59be e420 aa3e 8dbf 5f3e 7d84 09bf
00000010: 16e4 babe 6aa3 57be c521 a63c 05d3 ad3d
00000020: ebe0 b9be 0a51 80be c6c3 d5bd 0dcb 803d
00000030: 1ee7 54be 4a6c 313e 2146 403e cf55 76be
00000040: 5820 0a3e 4d7f 2dbd 8e22 61bd 987c cabe
00000050: b174 cabe 8e5b c4bd 52e5 b63e 0f11 99be
00000060: 0c27 c0bd 05ed fcbe 4829 41be 19e1 e6bd
00000070: 68e8 26be e4a6 5a3d adea 7abe 5024 d9bd
00000080: d0f5 7b3e 00af 973e 01a2 b3bd c62b 373e
00000090: 293a 00be db91 9d3e a3c3 8abe bcc7 b13c
000000a0: e135 43be 7e58 4abe 40a3 93be a496 c3bd
000000b0: 78ba 633d e867 6abe 1816 a53e ab1c 7e3e
000000c0: e92e 3c3e e1a0 cf3c 8435 573e 5395 7a3e
000000d0: 1659 8d3c 2d87 3e3e 024f 12be 993f c73e
000000e0: 8cd6 72be 61eb 953e 7ab4 30bc 6073 9c3e
000000f0: f7e9 61be c3be 1fbe 0e5d 953e 9e7b b83e
-0.21273546 0.3322822 0.21850415 -0.53717786 -0.3650214 -0.21058431 0.020279774 0.084875144
-0.3630441 -0.25061828 -0.104377314 0.06288729 -0.20791289 0.17326465 0.18776752 -0.24056171
0.134889 -0.04235773 -0.054964595 -0.39548182 -0.39542153 -0.09587775 0.35721833 -0.29895827
-0.093824476 -0.49399582 -0.18863404 -0.11273403 -0.16299593 0.053381816 -0.24503584 -0.10602629
0.24605489 0.29625702 -0.08771134 0.17887792 -0.12522186 0.3077534 -0.27102384 0.021701686
-0.19063522 -0.1976032 -0.28835487 -0.09550217 0.055597752 -0.228912 0.3224342 0.24815623
0.1837727 0.025345268 0.21016508 0.24471025 0.017254394 0.18606253 -0.14287952 0.3891571
-0.23714656 0.29281142 -0.010785216 0.30556774 -0.22061907 -0.15600114 0.29172558 0.36031812

fc3.weight f4 [2, 64]
00000000: a4c7 8abd 9f40 c63c c95b 4fbd 8ffb 86be
00000010: 5afe 18bd 2f1b 0ebe 2894 783c 13ee 863e
00000020: 59b5 49be 4309 253e ee1f 25be c054 453d
00000030: 45b5 8dbe 07b6 123e 69cc f33d 2bc5 09bf
00000040: 09bd 273e 8007 953e 3d39 21bf 6d62 74be
00000050: c3f6 85be c074 70bf cde5 093e df22 44bd
00000060: e355 58be b272 64be aef4 86be 8a9f 16bf
00000070: 11c1 55be f0ed 4dbf e2e6 c93d b0da cdbe
00000080: 29e5 b33d 5d58 de3e 99c2 53bd 9948 933b
00000090: 08d8 fa3d e690 e53e 14c9 3c3e e09d 8d3d
000000a0: 6db4 b6bd 52cb 6abe c90b d9bd f7e3 e5bd
000000b0: f26d 493e 46a7 21be 12f8 943d e572 37bd
000000c0: a41a d13e e8a9 91be 464c d1bc 340a 943d
000000d0: 9eba b4bc d50b b63e 2ba8 2e3e 5083 f03d
000000e0: e057 8cbe 4271 86bd f4b5 37be a005 4a3d
000000f0: 4419 05bf f32c 033f 2a3d 2cbb a9ce 853d
00000100: d1bb 403f 7bb4 24bf 5c30 2dbf 852f b73c
00000110: f65a b3be 250e 3f3f 63f7 683f b45a cebe
00000120: 1cdb 553f cefd 873f 9f96 db3e a959 083f
00000130: 5ab3 67bd 00d9 95be af2f 33be aa28 d7bd
00000140: f5e2 63be 165d 4fbf 0712 163f 7342 4e3f
00000150: 8240 3dbd b8e9 4a3e 70dc 243d 8d60 403f
00000160: 3a14 a7be d2fa fc3e f8d4 0c3f a0f1 273f
00000170: c02f a5bd 68f0 823c 55bd ddbe bd3f 11be
00000180: 6435 7fbe adad 48bf 6d15 893f 57eb 123f
00000190: 0d94 373e db3b 4ebf 6ec6 9a3e 7d22 513e
000001a0: 6d02 97be 2bad f13e 19dc 6c3f 19ef e43e
000001b0: 6574 13bf d401 adbe 037d 4bbe 23ef 1cbe
000001c0: 1724 65bf c8de 04bf 722e a33f a9a6 89be
000001d0: 30c5 383f d76d 03bf 022b d93e 5599 b6bd
000001e0: f7d8 913e 0716 16bf 079b 73bd 1302 60be
000001f0: bd10 a03e 0a17 60bf deee 45bf fdb2 66be
-0.0677636 0.024200736 -0.050624643 -0.263638 -0.037351944 -0.13877557 0.015172042 0.2635351
-0.19698085 0.16116814 -0.16125461 0.048176527 -0.2767736 0.1432725 0.119042225 -0.5381648
0.16380705 0.29107285 -0.62977964 -0.23865671 -0.26164827 -0.93928146 0.13466568 -0.04788482
-0.21126513 -0.22309378 -0.2635855 -0.5883719 -0.2087443 -0.8044119 0.098584905 -0.40205908
0.08783943 0.4342679 -0.051699255 0.0044947383 0.12248236 0.4483711 0.1843608 0.06914878
-0.08921132 -0.22929123 -0.10597951 -0.112251215 0.19670847 -0.15786466 0.07273878 -0.044787306
0.40840638 -0.2844994 -0.025549065 0.072285086 -0.022061642 0.35555902 0.17056338 0.11743796
-0.27410793 -0.06564571 -0.17940503 0.04932177 -0.5199168 0.5124046 -0.0026281574 0.06533558
0.75286585 -0.6433789 -0.67651916 0.022361526 -0.35030335 0.7463096 0.9100248 -0.40303576
0.8353746 1.062433 0.42888352 0.5326181 -0.056567527 -0.2926712 -0.17498659 -0.10505803
-0.22254546 -0.8100141 0.5862126 0.80570143 -0.046204098 0.19815719 0.040249288 0.75147325
-0.3263262 0.4941011 0.55012465 0.65603065 -0.08065748 0.015983775 -0.4330851 -0.1418447
-0.2492271 -0.7839001 1.0709664 0.5739035 0.1792757 -0.8056008 0.30229515 0.20423312
-0.29494038 0.4720243 0.9252334 0.44713667 -0.5759948 -0.33790457 -0.19871907 -0.15325598
-0.89508194 -0.5190244 1.2748549 -0.26884964 0.72175884 -0.5133948 0.42415625 -0.089159645
0.28485844 -0.5862736 -0.059474017 -0.21875791 0.3126277 -0.87535155 -0.7731761 -0.22529216

fc3.bias f4 [2]
00000000: f910 aa3e a0ab babb
0.33216074 -0.005696729
