p3-CollaborationCompetition/MADDPG_critic_0.pth (torch_old, 31473 bytes, 5 tensors)

fcs1.weight f4 [64, 48]
-0.046623763 0.31015542 0.08470199 -0.09462416 -0.13957271 -0.2240933 -0.07398684 -0.111890204
0.012992812 0.14824398 -0.09937936 -0.084781334 0.0036853538 -0.19008262 0.1009863 0.1042561
0.12207358 0.38593724 0.02535358 0.26374242 0.11956075 0.34724998 -0.016050247 0.0953942
-0.038643833 -0.09455249 0.030763341 0.11243647 -0.0053067706 -0.20019905 -0.010352686 -0.01610874
-0.1928988 -0.19425778 0.011796403 -0.07010844 0.1400494 -0.16033159 0.023192395 -0.14424182
0.02308749 0.05847848 0.018266397 0.06648348 -0.10078053 0.37628144 -0.0058794483 -0.0674006
0.13906412 0.6054969 0.024281811 -0.09212462 0.13634439 -0.48838902 -0.04263853 -0.042765036
-0.1282638 0.47621068 -0.007536359 0.20559113 0.1296497 -0.07362798 -0.0034554917 0.28061485
-0.015682878 0.35473987 -0.03563473 -0.024885653 -0.050162174 0.17219277 -0.00381021 0.00012689258
-0.009147678 -0.5741977 -0.032687284 -0.15361099 -0.103942364 -0.26765627 -0.0054742037 0.024924599
-0.047383472 -0.48611447 -0.08078314 -0.14807796 -0.05187163 -0.09291526 0.06630245 -0.03413308
-0.12858514 -0.6731865 -0.06442315 -0.0035501858 -0.036434777 0.1803972 -0.046344016 0.015765296
-0.16203696 -0.19778378 0.012987593 0.007764485 0.067701474 0.02414475 -0.01490032 -0.030978708
0.016473014 0.25717568 -0.070186846 0.00450732 0.03794827 0.011872098 0.04218375 -0.030793618
0.16239439 0.38737655 -0.016035656 0.10730207 -0.434811 0.18198082 -0.023296412 -0.036605224
-0.12715486 0.1646232 0.054096065 -0.12199319 -0.26366407 0.044653248 -0.05770503 0.10489992
0.065144345 0.15018272 0.03414123 0.022370888 0.0950993 -0.044394296 -0.058893654 0.07745338
0.07812586 0.34036714 0.04218896 -0.07713726 0.47520754 -0.03620859 -0.052703112 0.09895643
0.018144289 0.6211208 0.06969302 0.07044455 0.10903455 0.21706642 -0.07480668 -0.025106184
0.060080323 0.4954027 -0.03688477 -0.13617241 -0.02808279 -0.23736805 0.017652942 -0.098228194
0.025418913 0.46928042 0.09134832 0.01764963 0.074331984 -1.9720674 -0.121644735 0.10636954
0.0035148521 0.32982892 -0.076096006 0.09261902 -0.11143468 0.21482632 0.10912558 0.08572807
-0.12787758 0.16129422 -0.0682809 -0.00019513852 0.059484173 -0.15523165 0.119448304 -0.16201659
-0.12291394 0.11274327 -0.050466955 0.0801736 0.009117431 -1.9792135 0.022441395 -0.09865594
-0.044813234 0.2578024 -0.108533405 -0.003040257 -0.073753126 0.19075538 0.08001781 0.01620308
0.003417266 0.47948143 0.019684698 0.17899719 -0.1161683 0.051260684 -0.054319676 0.3363616
0.1418396 0.49334082 0.0002548152 -0.08600884 0.13380149 -0.5754707 -0.0082916925 -0.20768744
-0.20137826 -0.30091113 0.015016501 -0.009529357 0.24267443 0.20891167 -0.004616813 -0.023300268
-0.08939075 -0.11879199 -0.0016959403 -0.044314586 0.008927544 0.076108955 0.0055685034 0.16527824
0.22584257 -0.27813438 0.012230507 0.080762886 -0.25203663 -0.62764555 -0.0019994238 0.058577992
0.035852112 0.7249435 -0.03982348 -0.015899017 0.12786527 0.24825262 0.038261823 -0.03562712
0.0028157264 0.72249544 0.026836658 0.041788977 0.07738266 0.2689583 -0.026539164 -0.14407803
00000000: 8ff8 3ebd b1cc 9e3e 3d78 ad3d 50ca c1bd
00000010: 26ec 0ebe b778 65be 6a86 97bd b126 e5bd
00000020: cedf 543c 45cd 173e 6887 cbbd d6a1 adbd
00000030: fa85 713b 05a5 42be e8d1 ce3d 3984 d53d
00000040: b701 fa3d 9199 c53e 50b2 cf3c 3f09 873e
00000050: 44dc f43d c0ca b13e cf7b 83bc 095e c33d
00000060: ff48 1ebd bca4 c1bd 6703 fc3c 1845 e63d
00000070: 6be4 adbb fb00 4dbe 509e 29bc 7af6 83bc
00000080: 4387 45be 83eb 46be b345 413c 0495 8fbd
00000090: 1c69 0f3e f72d 24be fafd bd3c 21b4 13be
000000a0: fa21 bd3c 2187 6f3d 69a3 953c 7e28 883d
000000b0: 0666 cebd f6a7 c03e 63a8 c0bb 5309 8abd
000000c0: d366 0e3e d801 1b3f a6ea c63c d5ab bcbd
000000d0: dd9d 0b3e 200e fabe bda5 2ebd 642a 2fbd
000000e0: 9657 03be e3d1 f33e 90f3 f6bb 7b86 523e
000000f0: e4c2 043e 44ca 96bd 8875 62bb c0ac 8f3e
00000100: 6179 80bc 77a0 b53e b9f5 11bd ffdc cbbc
00000110: da76 4dbd 4d53 303e b7b4 79bb 780e 0539
00000120: 24e0 15bc 9ffe 12bf 1ae3 05bd 334c 1dbe
00000130: bcdf d4bd 3e0a 89be f360 b3bb ac2e cc3c
00000140: 2c15 42bd ffe3 f8be a271 a5bd c0a1 17be
00000150: 5977 54bd 5b4a bebd 94c9 873d 21cf 0bbd
00000160: d3ab 03be f355 2cbf 49f0 83bd 3caa 68bb
00000170: a23c 15bd 0bba 383e 39d3 3dbd 3926 813c
00000180: 04ed 25be d587 4abe eac9 543c 396d fe3b
00000190: 12a7 8a3d 36cb c53c 7920 74bc 0fc7 fdbc
000001a0: 6af2 863c 88ac 833e 1fbe 8fbd 24b2 933b
000001b0: a56f 1b3d 3083 423c dec8 2c3d e642 fcbc
000001c0: b74a 263e 3856 c63e 355d 83bc 30c1 db3d
000001d0: 8c9f debe 2e59 3a3e 1ed8 bebc 5cef 15bd
000001e0: e234 02be fc92 283e d693 5d3d 91d7 f9bd
000001f0: fafe 86be 53e6 363d 1c5c 6cbd c5d5 d63d
00000200: 666a 853d 80c9 193e add7 0b3d 2743 b73c
00000210: 6cc3 c23d cbd6 35bd 793a 71bd e19f 9e3d
00000220: 7300 a03d 9a44 ae3e 55ce 2c3d 24fa 9dbd
00000230: 674e f33e 754f 14bd 38df 57bd aba9 ca3d
00000240: 55a3 943c c601 1f3f 37bb 8e3d 3b45 903d
00000250: 824d df3d a946 5e3e 3f34 99bd 7cab cdbc
00000260: c916 763d 6ca5 fd3e 7c14 17bd c870 0bbe
00000270: e10d e6bc 9c10 73be e79c 903c dd2b c9bd
00000280: 533b d03c 8645 f03e d414 bb3d f595 903c
00000290: 5e3b 983d b46c fcbf e020 f9bd 46d8 d93d
000002a0: 6f59 663b 56df a83e 39d8 9bbd 0aaf bd3d
000002b0: de37 e4bd 6efb 5b3e 3b7d df3d 3392 af3d
000002c0: 57f2 02be 502a 253e dbd6 8bbd 199e 4cb9
000002d0: ada5 733d 0cf5 1ebe 50a1 f43d ade7 25be
000002e0: 4eba fbbd f2e5 e63d 70b6 4ebd 0e32 a43d
000002f0: 4761 153c de56 fdbf 04d7 b73c 200c cabd
00000300: 158e 37bd adfe 833e c346 debd 0c3f 47bb
00000310: e10b 97bd 6155 433e 61e0 a33d 52bc 843c
00000320: 36f4 5f3b 977e f53e ce41 a13c 0a4b 373e
00000330: a5e9 edbd b9f6 513d 4f7e 5ebd 9637 ac3e
00000340: 663e 113e 2b97 fc3e b898 8539 6725 b0bd
00000350: 4203 093e 0c52 13bf e1d9 07bc 04ac 54be
00000360: 1a36 4ebe 0611 9abe c507 763c 0521 1cbc
00000370: a57f 783e f1ec 553e a248 97bb 34e0 bebc
00000380: 7f12 b7bd 3749 f3bd 504a deba 3683 35bd
00000390: d544 123c 03df 9b3d fe77 b63b b33e 293e
000003a0: 4643 673e a167 8ebe 7762 483c 0367 a53d
000003b0: f20a 81be 61ad 20bf c408 03bb 7aef 6f3d
000003c0: aad9 123d e695 393f f21d 23bd a83e 82bc
000003d0: 1def 023e ef35 7e3e 6eb8 1c3d beed 11bd
000003e0: 0d88 383b 76f5 383f 8dd8 db3c eb2a 2b3d
000003f0: cd7a 9e3d e7b4 893e a968 d9bc 3189 13be

fcs1.bias f4 [64]
-0.048857648 0.27174783 -0.715293 0.54581505 -0.08742938 0.00038595637 -0.26625985 -0.29927313
0.5630909 0.13183181 0.116756566 0.2675886 0.08242456 -0.14760926 -0.024343917 -0.25243872
0.22216727 0.07286638 -0.66958594 0.10878891 0.21401298 -0.042286385 -0.357938 -0.36628386
-0.20320907 -0.1669961 0.3751306 -0.11895235 0.084692225 -0.29587084 -0.1076072 0.054757934
-0.4094405 -0.45194754 -0.3771981 -0.22031671 -0.50074005 -0.02318426 -0.13362136 0.42892173
0.07896429 0.24781364 -0.17405066 -0.37197 0.13113444 -0.035125013 -0.11483168 0.12219152
0.35844657 0.38843134 -0.00915128 -0.22428541 -0.24967383 0.53946793 -0.39732885 0.16795179
0.7531746 0.3323739 0.08845312 -0.2912461 -0.48795947 -0.11199203 0.14902392 0.13374113
00000000: f51e 48bd 8822 8b3e 711d 37bf 89ba 0b3f
00000010: 2d0e b3bd 305a ca39 3653 88be 543a 99be
00000020: ba26 103f ebfe 063e 111e ef3d 5f01 893e
00000030: 35ce a83d e226 17be e56c c7bc a63f 81be
00000040: d17f 633e f83a 953d fc69 2bbf b8cc de3d
00000050: 3826 5b3e 7d34 2dbd a643 b7be 8f89 bbbe
00000060: 0a16 50be 0701 2bbe 1e11 c03e 4a9d f3bd
00000070: 1e73 ad3d 627c 97be 2a61 dcbd db49 603d
00000080: 2fa2 d1be ab65 e7be 1c20 c1be b49a 61be
00000090: 8030 00bf ebec bdbc 0ad4 08be a19b db3e
000000a0: 08b8 a13d dcc2 7d3e 563a 32be da72 bebe
000000b0: 1b48 063e 3fdf 0fbd df2c ebbd 8c3f fa3d
000000c0: 4f86 b73e 79e0 c63e 40ef 15bc 13ab 65be
000000d0: 7faa 7fbe 921a 0a3f b06e cbbe 8efb 2b3e
000000e0: 0dd0 403f e92c aa3e e926 b53d 351e 95be
000000f0: d3d5 f9be 145c e5bd ba99 183e 6ff3 083e

fc2.weight f4 [64, 68]
-0.0046305265 0.09992887 0.1444367 -0.11331453 0.013091736 0.13679174 -0.0236535 0.036946084
-0.24704392 -0.39472046 -0.036286134 0.008458585 -0.060417186 -0.14035049 -0.023401631 0.11786856
-0.2581799 0.08327377 -0.6085144 0.051143683 -0.05790232 -0.12918414 -0.062396888 -0.02979678
-0.26066864 -0.011271818 0.121237285 -0.09963767 0.04801088 -0.087874845 -0.013352426 -0.018984966
-0.066370115 -0.084244095 0.036348395 -0.059967525 0.10431348 -0.17664725 -0.0769363 -0.09348492
-0.10096475 -0.33994195 0.03784832 -0.049778223 0.04682669 0.082764804 -0.18565361 -0.15072568
0.15123296 0.026529554 0.08113791 0.059140608 -0.24155778 0.032614987 -0.042714573 -0.042407155
0.22046435 0.041837282 -0.022396766 -0.0815282 -0.108415075 -0.096869506 -0.21029927 0.0463071
0.0489798 0.07105776 -0.18131424 0.082562156 -0.09780087 -0.012995202 0.027855624 0.05871104
0.08745979 -0.012415519 0.04227456 -0.3533686 0.028443795 -0.11367585 -0.116077006 0.020429686
0.11051282 0.019163696 -0.061232094 -0.13305098 -0.15848857 -0.055201363 0.14341013 0.046941433
-0.07372483 -0.14503308 -0.06406918 -0.3397164 -0.02051351 -0.20938799 -0.5979995 -0.03256019
0.021128984 -0.055242438 -0.20814317 -0.3365192 0.119783185 -0.041925665 0.007139012 -0.3592453
0.08536003 -0.15534559 0.1544987 -0.040979333 -0.3693899 -0.0020848736 -0.4804971 -0.12632683
0.0037610983 -0.064276956 -0.25465173 -0.78941214 0.07214379 -0.5284261 -0.0077964715 -0.0888106
-0.25515854 0.13645957 0.080116 -0.03364902 0.002289655 0.093324274 0.030088468 -0.0006277479
-0.024716591 0.27634215 -0.10303145 0.12822974 0.30243352 -0.02764172 0.26727593 0.22139731
-0.052074224 -0.2558427 0.021466143 -0.09022565 0.14358588 0.060847502 0.009316057 -0.09391005
-0.048820645 -0.3844834 -0.005756876 -0.11783632 0.011852436 -0.012215144 0.1451277 -0.678587
-0.7091658 0.025720576 -0.119156174 -0.48617083 -0.10653676 -0.11508768 -0.28343356 0.20325825
0.28096735 0.054376446 0.021571051 -0.009966807 -0.02627341 0.025902221 -0.066516206 -0.077239245
-0.09661367 0.1810857 0.09607278 -0.104546405 -0.041321326 -0.010133477 -0.22480464 0.0070001553
-0.09240623 0.03911274 -0.5177376 -0.003910985 -0.041206833 -0.33013585 0.0067897085 -0.07915291
0.09492692 -0.2763004 0.08922251 -0.04111886 -0.09841762 0.24708258 -0.23530324 -0.09289332
0.005819165 -0.04792797 0.07300901 0.025811354 0.08750185 -0.02666394 0.01889054 -0.10592761
-0.06353811 -0.10997527 -0.072855026 0.018557083 0.09582648 -0.04092595 -0.10767553 0.028690932
0.098865874 0.012500701 -0.21316609 -0.103194736 -0.1535794 -0.06292219 -0.042145573 -0.06402149
-0.06303195 -0.032651156 -0.042271145 -0.021708101 0.11176651 0.11329101 -0.06340877 0.07971614
0.009909037 0.15234442 0.0005743759 0.064321354 0.02024366 0.009169469 0.14982685 -0.053755973
-0.049120907 0.17753409 -0.05634004 -0.06702006 0.07215101 0.049764942 -0.10199976 0.032311525
0.15321653 0.0014234659 0.13248424 0.075727716 -0.18080989 -0.17958863 0.040509958 0.06091333
0.039466947 0.0137762865 -0.03459304 0.062109206 0.005122338 -0.2311972 0.16956234 0.15915968
00000000: acbb 97bb 82a7 cc3d 37e7 133e 7311 e8bd
00000010: b87e 563c 2213 0c3e fcc4 c1bc c754 173d
00000020: 15f9 7cbe cd18 cabe c5a0 14bd e095 0a3c
00000030: 0378 77bd 0ab8 0fbe c7b4 bfbc 1265 f13d
00000040: 2830 84be 708b aa3d 9ac7 1bbf 0a7c 513d
00000050: fc2a 6dbd d948 04be e193 7fbd 6018 f4bc
00000060: 5c76 85be 6ead 38bc 414b f83d d60e ccbd
00000070: 0ea7 443d baf7 b3bd 22c4 5abc 5c86 9bbc
00000080: 0eed 87bd 2b88 acbd 0ee2 143d 82a0 75bd
00000090: 4ea2 d53d 04e3 34be c790 9dbd 0675 bfbd
000000a0: 9bc6 cebd df0c aebe d706 1b3d 40e4 4bbd
000000b0: 58cd 3f3d 9880 a93d fb1b 3ebe d557 1abe
000000c0: d0dc 1a3e 8254 d93c a22b a63d 6c3d 723d
000000d0: ec5a 77be 4b97 053d 7af5 2ebd 20b3 2dbd
000000e0: 68c1 613e 925d 2b3d 6c79 b7bc 42f8 a6bd
000000f0: b908 debd 8563 c6bd b158 57be 84ac 3d3d
00000100: 0b9f 483d bb86 913d 71aa 39be 5916 a93d
00000110: d34b c8bd d4e9 54bc 7a31 e43c fd7a 703d
00000120: 1e1e b33d 766a 4bbc 1728 2d3d bbec b4be
00000130: f602 e93c e2ce e8bd c8b9 edbd 285c a73c
00000140: 8c54 e23d 2ffd 9c3c 81ce 7abd 843e 08be
00000150: d44a 22be d31a 62bd 1bda 123e a945 403d
00000160: 0bfd 96bd 8d83 14be b436 83bd 4fef adbe
00000170: f30b a8bc ce69 56be 7f16 19bf d55d 05bd
00000180: b116 ad3c e545 62bd 7c23 55be 3f4c acbe
00000190: e350 f53d 3fba 2bbd 60ee e93b 00ef b7be
000001a0: 3dd1 ae3d ea12 1fbe e834 1e3e f2d9 27bd
000001b0: ac20 bdbe 60a2 08bb b703 f6be d25b 01be
000001c0: c27c 763b a3a3 83bd b661 82be ea16 4abf
000001d0: 20c0 933d ef46 07bf 8b79 ffbb 55e2 b5bd
000001e0: 24a4 82be 0fbc 0b3e db13 a43d 8ed3 09bd
000001f0: 090e 163b cc20 bf3d 177c f63c 738f 24ba
00000200: 737a cabc b87c 8d3e 2702 d3bd a84e 033e
00000210: 91d8 9a3e e370 e2bc 64d8 883e fab5 623e
00000220: c84b 55bd d0fd 82be c4d9 af3c 3ac8 b8bd
00000230: 2d08 133e 3b3b 793d 60a2 183c ea53 c0bd
00000240: 28f8 47bd 02db c4be 2da4 bcbb 2b54 f1bd
00000250: b830 423c 0722 48bc 5b9c 143e e1b7 2dbf
00000260: e48b 35bf f5b3 d23c 2708 f4bd 62eb f8be
00000270: f22f dabd 17b3 ebbd 341e 91be ee22 503e
00000280: f4da 8f3e d6b9 5e3d c6b5 b03c d24b 23bc
00000290: 563b d7bc e530 d43c a639 88bd 9c2f 9ebd
000002a0: 63dd c5bd 886e 393e cec1 c43d 6d1c d6bd
000002b0: 8d40 29bd e206 26bc 3033 66be 8f61 e53b
000002c0: 7a3f bdbd ae34 203d 748a 04bf b827 80bb
000002d0: 7fc8 28bd 9107 a9be 347c de3b ec1a a2bd
000002e0: 0c69 c23d 3f77 8dbe 4bba b63d 406c 28bd
000002f0: 2d8f c9bd 3703 7d3e 55f3 70be da3e bebd
00000300: b2ae be3b 1e50 44bd bf85 953d 5572 d33c
00000310: 2c34 b33d 566e dabc 55c0 9a3c 93f0 d8bd
00000320: 4520 82bd b73a e1bd 0435 95bd 0605 983c
00000330: ac40 c43d f8a1 27bd fd84 dcbd 3f09 eb3c
00000340: 317a ca3d bdcf 4c3c 3648 5abe c357 d3bd
00000350: eb43 1dbe 59dd 80bd d6a0 2cbd b31d 83bd
00000360: e516 81bd 38bd 05bd 8224 2dbd 30d5 b1bc
00000370: d7e5 e43d 1e05 e83d 75dc 81bd 3742 a33d
00000380: 8359 223c 2d00 1c3e b791 163a eaba 833d
00000390: 08d6 a53c 8a3b 163c 366c 193e 392f 5cbd
000003a0: 0133 49bd 7fcb 353e d0c4 66bd d041 89bd
000003b0: e9c3 933d 53d6 4b3d 40e5 d0bd 1759 043d
000003c0: cbe4 1c3e 9793 ba3a f3a9 073e 2217 9b3d
000003d0: 3a26 39be 15e6 37be c5ed 253d 4280 793d
000003e0: 18a8 213d efb5 613c 6eb1 0dbd 3966 7e3d
000003f0: 49d9 a73b f5be 6cbe c0a1 2d3e c1fa 223e

fc2.bias f4 [64]
-0.13702868 0.12710845 -0.4638021 -0.12106704 0.28528443 -0.25599802 -0.028053306 -0.006886479
-0.17159294 -0.30195373 0.15536919 -0.30279863 0.16492715 -0.10699991 0.16440502 0.09810513
-0.10787979 -0.01820312 -0.0320836 0.09801985 0.108034596 0.053900015 -0.15540756 -0.01865776
-0.07464785 -0.058594108 0.1386409 0.017265076 0.110302016 0.1047798 -0.3191377 -0.07063741
0.08874032 -0.048427366 0.3372073 0.26770857 -0.20982748 -0.15112533 0.25342456 0.15955587
-0.2343632 -0.2220404 -0.15274714 -0.052944243 0.039040353 -0.24683714 0.028994435 0.003216921
-0.08927122 -0.03634443 0.037311025 0.13187872 0.20904611 0.24211116 0.081595175 0.1830859
-0.36851108 -0.08643656 0.3591236 -0.09547987 0.0057630404 -0.06943901 0.13925979 -0.2804516
00000000: 3f51 0cbe b828 023e 7877 edbe fff1 f7bd
00000010: cd10 923e 2c12 83be 0cd0 e5bc f9a7 e1bb
00000020: 0fb6 2fbe ae99 9abe 1a19 1f3e 6c08 9bbe
00000030: aae2 283e c522 dbbd ca59 283e 58eb c83d
00000040: 14f0 dcbd b61e 95bc 186a 03bd a2be c83d
00000050: 3e41 dd3d 43c6 5c3d 2923 1fbe 29d8 98bc
00000060: f9e0 98bd 6000 70bd e1f7 0d3e 7d6f 8d3c
00000070: 06e6 e13d cb96 d63d 0466 a3be 59aa 90bd
00000080: 7cbd b53d c65b 46bd 6fa6 ac3e 1911 893e
00000090: 04dd 56be 99c0 1abe ddc0 813e 9d62 233e
000000a0: e8fc 6fbe 8f5e 63be bf69 1cbe 10dc 58bd
000000b0: c7e8 1f3d e0c2 7cbe bd85 ed3c fad2 523b
000000c0: d4d3 b6bd e6dd 14bd 72d3 183d 370b 073e
000000d0: 2f10 563e fdeb 773e 5f1b a73d df7a 3b3e
000000e0: 7cad bcbe a705 b1bd 0cdf b73e f38a c3bd
000000f0: e3d7 bc3b 0a36 8ebd 1e9a 0e3e 5a97 8fbe

fc3.weight f4 [1, 64]
-0.034605693 -0.11012426 -0.04357136 0.012865861 -0.017667769 -0.047982298 0.020964837 -0.019331716
-0.07556363 -0.034595333 -0.018449908 0.03150452 0.025748141 -0.013724248 -0.016721195 -0.05934551
-0.16020533 0.018298524 0.02978772 -0.07855207 -0.023622604 -0.015495393 -0.012353358 0.061599668
0.055035908 0.022014996 0.03881104 -0.019152347 0.01702401 -0.018677672 -0.029720316 -0.030067073
-0.02048777 0.023097925 -0.024263265 -0.020819722 -0.030495306 0.057043865 -0.040198974 -0.022059755
-0.0456256 0.020893678 -0.03343187 0.05416461 0.017844385 -0.046011865 0.025775963 -0.029473655
-0.09161717 0.018474419 -0.015135796 -0.033915587 0.07945958 -0.048076183 0.03252587 0.031803142
0.03291084 0.016580628 -0.040741418 -0.061819762 -0.022073738 0.018588653 -0.015573942 -0.15662602
00000000: b3be 0dbd d488 e1bd e277 32bd 55cb 523c
00000010: ffbb 90bc 1689 44bd 73be ab3c 8c5d 9ebc
00000020: 1bc1 9abd d6b3 0dbd 4324 97bc e20a 013d
00000030: c4ed d23c abdb 60bc e3fa 88bc 4714 73bd
00000040: de0c 24be c9e6 953c 6005 f43c e8df a0bd
00000050: 3184 c1bc 64e0 7dbc bd65 4abc ef4f 7c3d
00000060: 556d 613d cb58 b43c 53f8 1e3d 62e5 9cbc
00000070: f075 8b3c eb01 99bc 0578 f3bc 394f f6bc
00000080: f8d5 a7bc dc37 bd3c c1c3 c6bc 1f8e aabc
00000090: 4bd1 f9bc d4a6 693d aea7 24bd a9b6 b4bc
000000a0: e9e1 3abd 3829 ab3c dbef 08bd b6db 5d3d
000000b0: 632e 923c f076 3cbd 1d28 d33c bc72 f1bc
000000c0: c8a1 bbbd aa57 973c 21fc 77bc 12eb 0abd
000000d0: b4bb a23d 88eb 44bd d939 053d 0344 023d
000000e0: 84cd 063d 19d4 873c 79e0 26bd b836 7dbd
000000f0: fcd3 b4bc 3b47 983c d929 7fbc 9262 20be
