p3-CollaborationCompetition/MATD3_actor_1.pth (torch_old, 24566 bytes, 6 tensors)

fc1.weight f4 [64, 24]
0	0x3e3a2773	0.18179111
1	0x3cfc2077	0.0307772
2	0xbd20554d	-0.03914385
3	0x3dae306b	0.08505329
4	0xbeb5bf67	-0.3549759
5	0x3cd8838b	0.026429912
6	0xbd6f6b83	-0.05845214
7	0x3e8a87c9	0.2705672
8	0x3d705669	0.058676157
9	0xbe215e11	-0.1575854
10	0xbe0dae5f	-0.13836049
11	0xbcd8f908	-0.026485935
12	0xbe7a9eaa	-0.24474588
13	0xbeb2c80c	-0.3491825
14	0x3d5f2820	0.054481626
15	0xbd38c079	-0.04510543
16	0xbda58e34	-0.08083764
17	0xbeed0d16	-0.46299046
18	0x3d6d4233	0.05792446
19	0xbe9d1404	-0.30679333
20	0x3e29eedf	0.16595028
21	0xbecc4a95	-0.39900652
22	0x3d507831	0.050895873
23	0xbed832f0	-0.42226362
24	0x3e56e9a3	0.20987563
25	0x3ea48326	0.32131308
26	0xbda0a789	-0.07844455
27	0x3e921656	0.28532666
28	0xbe517a08	-0.20456707
29	0xbe437449	-0.19087328
30	0xbc0225f9	-0.007943624
31	0x3e872632	0.26396328
32	0xbd8d4f30	-0.068998694
33	0x3d0e0ac9	0.034678254
34	0xbcfb3d9f	-0.030669032
35	0xbdda3a5f	-0.10655665
36	0xbed1358a	-0.4086116
37	0xbdf028e8	-0.11726552
38	0x3d42ad95	0.047528822
39	0xbbd7dfe7	-0.0065879705
40	0xbe45db2a	-0.19321886
41	0xbea93b3a	-0.33053
42	0xbd501974	-0.050805524
43	0x3d8562f2	0.06513013
44	0xbd886b8e	-0.066611394
45	0xbec4f53f	-0.38468358
46	0xbe1904bd	-0.14943214
47	0x3e40ba1f	0.18821
48	0xbe7d2885	-0.24722488
49	0x3dfdb452	0.12387909
50	0x3db7d2b3	0.089757346
51	0xbede238f	-0.43386504
52	0x3e3e87f5	0.18606551
53	0xbdd4bd9f	-0.1038773
54	0xbde44207	-0.11145406
55	0xbe6f35a9	-0.23360313
56	0xbe22a0c2	-0.15881637
57	0x3e891eea	0.26781398
58	0xbce95cfa	-0.028486717
59	0xbe7d787e	-0.24752995
60	0x3de66944	0.112505466
61	0x3e45c356	0.19312796
62	0xbcd56b1f	-0.026052056
63	0xbda55ef8	-0.080747545
64	0xbe2f62ff	-0.17127608
65	0x3e5a7246	0.21332654
66	0xbd726d7e	-0.05918645
67	0xbce31afc	-0.027722828
68	0xbe5ed982	-0.2176266
69	0x3f0f1170	0.5588598
70	0xbd9b02a7	-0.07568865
71	0x3a930f9e	0.0011219864
72	0xbb98a0e6	-0.0046578525
73	0xbe3308a6	-0.17483768
74	0xbe0ed397	-0.13947903
75	0xbdd9285a	-0.106033996
76	0xbe86f837	-0.26361248
77	0xbe522c84	-0.20524794
78	0xbc3fe6e0	-0.01171276
79	0x3d4f2575	0.05057283
80	0x3ddb8579	0.10718817
81	0xbdf0ef28	-0.117643654
82	0xbae82486	-0.001771108
83	0x3e0f360e	0.13985464
84	0x3d703c51	0.058651272
85	0xbc90e667	-0.01768799
86	0xbe067ad6	-0.13132796
87	0x3e02525a	0.12726727
88	0x3e4383d7	0.19093262
89	0x3deca762	0.11555363
90	0x3c844524	0.01614625
91	0x3d1ff5a7	0.03905263
92	0xbd349837	-0.044090476
93	0x3f387800	0.72058105
94	0xbda23693	-0.079205655
95	0x3dadb6d8	0.0848214
96	0x3ea302b2	0.31837994
97	0xbf31dd3d	-0.6947821
98	0x3db400d0	0.087892175
99	0x3dc1a55c	0.09455368
100	0xbdf9b407	-0.121925406
101	0xbf0eb28f	-0.5574121
102	0xbdec60c8	-0.11541897
103	0x3c7468f5	0.014917602
104	0x3dc950b2	0.098298445
105	0xbf1167ab	-0.5679881
106	0xbd0b1f87	-0.033965614
107	0xbdbfcc65	-0.09365157
108	0xbe93378a	-0.2875331
109	0x3da21b5f	0.07915377
110	0x3dd3f143	0.103487514
111	0xbd9d7511	-0.07688344
112	0x3c4c81ec	0.012482148
113	0xbf630f23	-0.8869497
114	0x3c3c884b	0.011507104
115	0xbe86806c	-0.26269853
116	0xbf1e4a5e	-0.61832225
117	0x3f59ef20	0.851305
118	0xb9dc0dec	-0.00041972043
119	0xbe409229	-0.18805756
120	0x3dc941e4	0.09827021
121	0xbe954561	-0.29154494
122	0xbb51d8c0	-0.0032020062
123	0xbd3d21c0	-0.046174765
124	0xbe1c56a0	-0.1526742
125	0xbe6c49ee	-0.23075077
126	0x3c5574c4	0.013028327
127	0xbe4a4bb6	-0.19755444
128	0x3cb8edf6	0.022574406
129	0xbe659cc3	-0.22423081
130	0xbc190bed	-0.009341222
131	0xbddf3d6b	-0.109003864
132	0xbef49471	-0.47769502
133	0x3e53e513	0.20692854
134	0x3cd3e485	0.025865803
135	0xbe18fd5e	-0.14940402
136	0x3d754700	0.059882164
137	0xbeaf5069	-0.34241036
138	0x3cc1cb47	0.0236565
139	0xbe4b8a84	-0.19877058
140	0xbf3fd9dd	-0.7494181
141	0x3f65e144	0.89796853
142	0xbda5bec6	-0.08093028
143	0xbdfe231e	-0.12409042
144	0x3d1f2040	0.038849115
145	0x3f3c3c55	0.7352956
146	0xbe0b9df2	-0.1363447
147	0x3d87f5ce	0.066386804
148	0x3e3d408e	0.18481657
149	0x3dde780f	0.10862743
150	0x3de70fc8	0.11282307
151	0xbd9a0d14	-0.07522026
152	0x3e94f0bd	0.2908992
153	0x3f2f95a3	0.685877
154	0xbc98465e	-0.018588241
155	0x3d7877d0	0.060661137
156	0x3eb47ba2	0.35250574
157	0xbe552737	-0.2081574
158	0x3981e16d	0.00024772753
159	0xbcdce4e3	-0.02696461
160	0x3e3b9143	0.18317132
161	0x3e86d41a	0.26333696
162	0x3da0cd7f	0.07851695
163	0x3e754223	0.2395101
164	0x3f6d605a	0.92725146
165	0xbe087764	-0.13326794
166	0x3c1f980a	0.009740839
167	0x3e748dbd	0.23882194
168	0xbdf7428b	-0.12073239
169	0xbe1cae22	-0.15300801
170	0x3d93567c	0.0719423
171	0x3da0c188	0.07849413
172	0x3daeb4fb	0.08530613
173	0x3cadc314	0.021211185
174	0x3c9f71a6	0.019463371
175	0x3daacc5c	0.0833976
176	0xbdf41c8e	-0.11919509
177	0xbe2f4e82	-0.17119792
178	0xbb07fe09	-0.0020750782
179	0xbd0d3ed2	-0.03448374
180	0x3d816916	0.06318872
181	0x3cdd307b	0.027000656
182	0xbcd5455b	-0.026034048
183	0xbd15e821	-0.03659833
184	0x3dc3421b	0.09534093
185	0xbe812569	-0.25223854
186	0xbe6a79b1	-0.22897984
187	0xbe138a45	-0.14408214
188	0x3d82085e	0.06349252
189	0xbe1c60e4	-0.15271336
190	0xbe6f4611	-0.23366572
191	0xbd385a52	-0.04500801
192	0xbe1ca0d3	-0.15295725
193	0x3de1c75a	0.110243514
194	0xbd1bc8c9	-0.03803328
195	0x3e4d6134	0.20056611
196	0xbf115a87	-0.5677876
197	0xbe156b0d	-0.14591618
198	0xbd50a163	-0.05093516
199	0x3eae572e	0.34050888
200	0x3e474401	0.19459535
201	0x3e7eb021	0.24871875
202	0x3dc05d4f	0.09392797
203	0x3e10c39a	0.14137116
204	0xbe84c54e	-0.25931782
205	0xbe1bdcc5	-0.15220936
206	0xbbc4dea8	-0.006007988
207	0x3e0f5b0f	0.1399958
208	0x3e1da836	0.15396199
209	0x3e420dec	0.18950623
210	0xbc2f030d	-0.01068188
211	0x3f019858	0.50623083
212	0x3e893f00	0.26805878
213	0xbe52c85d	-0.20584245
214	0xbd9e8053	-0.0773932
215	0x3ecbe907	0.39826223
216	0xbd7ca8ac	-0.061684296
217	0x3dfa6233	0.12225761
218	0xbdd47f80	-0.10375881
219	0xbec2b857	-0.38031265
220	0x3f00fd49	0.5038648
221	0x3dab7493	0.08371844
222	0xbdf0dfca	-0.117614344
223	0xbeaec375	-0.34133497
224	0x3da2d836	0.07951395
225	0xbd2c9bcc	-0.042140767
226	0x3da0a90f	0.07844745
227	0xbe0a493a	-0.13504496
228	0x3e7f6589	0.24941076
229	0xbe3f3463	-0.18672328
230	0x3c0a1a91	0.0084291855
231	0xbd326463	-0.043552767
232	0x3ca5e9d5	0.020253101
233	0xbe45d624	-0.1931997
234	0x3ce7dc1f	0.028303204
235	0x3df19b3f	0.11797189
236	0x3e7bfcd5	0.24608167
237	0xbdf3711e	-0.1188681
238	0xbccd06c9	-0.02502765
239	0x3dc1ca16	0.09462373
240	0x3e4c1fd5	0.19934018
241	0xbe50737b	-0.20356552
242	0x3d5fa833	0.054603767
243	0xbe229b0b	-0.15879457
244	0x3df6297e	0.12019633
245	0x3dc12017	0.09429949
246	0xbd23e58d	-0.04001384
247	0x3cd012f2	0.025399659
248	0x3e685552	0.22688797
249	0xbc78ecf6	-0.015193215
250	0xbc9361f2	-0.01799104
251	0x3e2a1360	0.16608953
252	0xbe9418fc	-0.28925312
253	0x3e9c645c	0.30545318
254	0xbd034929	-0.032052193
255	0x3def5902	0.11686899

fc1.bias f4 [64]
0	0x3d680b4a	0.05665139
1	0x3d52bc32	0.05144901
2	0xbdec954b	-0.11551913
3	0xbeb5f285	-0.3553659
4	0x3e1054e8	0.14094889
5	0xbd707f9b	-0.058715444
6	0xbec3be00	-0.38230896
7	0x3df1de65	0.118099965
8	0x3c95feb1	0.018309923
9	0xbd1401a4	-0.036134377
10	0x3e7a1f1d	0.24425931
11	0x3dd97349	0.10617692
12	0xbe79e28e	-0.2440283
13	0xbd8d1a34	-0.068897635
14	0x3e5345f3	0.20632152
15	0x3eac0647	0.3359854
16	0xbf0281ed	-0.509795
17	0x3ede1a9d	0.4337968
18	0xbed48e37	-0.4151475
19	0xbe25e538	-0.16200721
20	0xbe03be4e	-0.12865564
21	0xbec9fa06	-0.39448565
22	0x3d9ab25e	0.07553552
23	0x3dee2a8d	0.1162921
24	0xbf067626	-0.5252403
25	0x3d5d3995	0.054009993
26	0x3dfdc275	0.12390605
27	0x3e0c943f	0.13728426
28	0xbd960082	-0.073243156
29	0xbe21b80f	-0.15792869
30	0xbda77385	-0.081763305
31	0x3a8d0420	0.0010758676
32	0x3e7de83d	0.24795623
33	0xbe189311	-0.14899851
34	0x3e06c0b1	0.13159443
35	0x3e8a3849	0.26996067
36	0x3e265d42	0.16246513
37	0xbc880bbf	-0.016607163
38	0x3de0fec9	0.109860964
39	0xbe046e10	-0.1293261
40	0x3f1cf486	0.61310613
41	0x3e54ff29	0.20800461
42	0xbcdb2edd	-0.026755745
43	0x3e580094	0.2109397
44	0xbdf72123	-0.12066867
45	0x3df2e0a2	0.118592516
46	0xbc702aee	-0.014658673
47	0x3f31159f	0.69173616
48	0x3ef149f9	0.4712675
49	0x3e95cfc8	0.29260087
50	0x3b0eba4f	0.002177853
51	0xbebc355d	-0.36759463
52	0xbdd51fa7	-0.10406428
53	0xbda3c6fe	-0.07996939
54	0xbe8b90cb	-0.27258906
55	0x3e885c07	0.2663271
56	0x3e751f35	0.23937686
57	0xbe078aee	-0.13236591
58	0xbed18760	-0.40923595
59	0x3df5a767	0.1199482
60	0xbee973d3	-0.4559618
61	0xbef4597f	-0.4772453
62	0x3eaa766c	0.33293474
63	0x3ea8f180	0.3299675

fc2.weight f4 [64, 64]
0	0xbddfa622	-0.10920359
1	0x3e14cffb	0.14532463
2	0xbd06e785	-0.032935638
3	0xbe62c425	-0.22145136
4	0xbe87b5c9	-0.2650588
5	0xbc21c64f	-0.009873941
6	0x3ed73d16	0.42038792
7	0xbda747c5	-0.08167986
8	0xbdd03471	-0.101662524
9	0xbe041515	-0.12898667
10	0xbdf41d91	-0.11919702
11	0xbdbc37a1	-0.09190298
12	0x3c919882	0.017772917
13	0xbe9fd685	-0.31218353
14	0xbdbb4359	-0.09143705
15	0x3e7cbce5	0.24681433
16	0xbeb21e80	-0.34788895
17	0xbe5fe2c6	-0.21863851
18	0xbe4589c1	-0.1929083
19	0xbe5a9fcb	-0.21350019
20	0xbe88cc1f	-0.26718232
21	0xbe9f59ff	-0.3112335
22	0x3bd8d943	0.0066176965
23	0x3e03ff45	0.12890346
24	0xbd156fc7	-0.036483552
25	0x3e22adb2	0.15886572
26	0xbda4ad4d	-0.08040867
27	0xbe25404a	-0.16137806
28	0xbe0e9013	-0.13922147
29	0x3e037be4	0.1284023
30	0x3e2526b9	0.16128053
31	0xbd984d01	-0.07436562
32	0xbd9b67e7	-0.07588177
33	0x3d802bac	0.0625833
34	0x3c450db1	0.01202719
35	0xba84dfbb	-0.0010137478
36	0x3e17accf	0.14812015
37	0x3e3c1842	0.18368629
38	0xbcc268b6	-0.02373157
39	0xbd4a6ec6	-0.049422048
40	0x3dcda465	0.100411214
41	0x3e4ae16c	0.19812554
42	0x3daa7986	0.0832396
43	0x3e7e52d2	0.24836281
44	0x3e8ef358	0.27920032
45	0x3d4649e0	0.048410296
46	0x3d9883a9	0.07446987
47	0xbef3a557	-0.47587082
48	0x3d22cb72	0.0397448
49	0x3f1289f0	0.57241726
50	0x3d70e287	0.058809783
51	0xbced9bd0	-0.029004961
52	0xbddd2a11	-0.10799039
53	0xbe7ad0ff	-0.24493788
54	0x3e2156db	0.15755789
55	0xbd8a5745	-0.067549266
56	0x3e85d5ff	0.2613983
57	0xbdd8c32f	-0.10584103
58	0xbdc98c3c	-0.09841201
59	0xbe88b13c	-0.2669772
60	0xbe3d91cc	-0.18512648
61	0xbc7e12a8	-0.015507378
62	0x3d8372d4	0.06418386
63	0xbd36f76b	-0.04466955
64	0xbde57db9	-0.1120562
65	0xbeeac2ba	-0.4585169
66	0x3de709f9	0.11281199
67	0xbe9ce6f3	-0.3064495
68	0x3d7b90a6	0.061417244
69	0x3df0d04b	0.11758479
70	0xbe2db00f	-0.16961692
71	0xbdf82188	-0.121157706
72	0xbbdd8f27	-0.00676145
73	0xbe038d09	-0.1284677
74	0x3df1da9b	0.11809274
75	0xbe48ebae	-0.19621155
76	0xbf10dc0c	-0.56585765
77	0x3db508ad	0.088395454
78	0x3cd55a79	0.026044117
79	0x3eab3c16	0.3344428
80	0xbdfa74c5	-0.12229303
81	0xbd27ddc9	-0.040982995
82	0xbe54939c	-0.20759434
83	0xbe37ee40	-0.17961979
84	0xbc3ec0fe	-0.011642693
85	0x3dc208c0	0.09474325
86	0xbe889294	-0.2667433
87	0x3e445b68	0.19175494
88	0x3dc5bb05	0.09654812
89	0x3e148ba7	0.14506398
90	0xbcb107d2	-0.021610174
91	0xbd7a4891	-0.06110436
92	0x3e2d77cd	0.16940232
93	0xbca96562	-0.020678226
94	0xbe1c7b86	-0.15281495
95	0xbea715f4	-0.32633936
96	0x3dd2a799	0.10285873
97	0x3e1d8be2	0.15385392
98	0xbe5dad58	-0.21648157
99	0xbe528c04	-0.20561224
100	0x3df66dca	0.12032659
101	0x3d834324	0.064092904
102	0xbea8a3d7	-0.329375
103	0xbf147663	-0.57993144
104	0x3ebd72c0	0.3700161
105	0xbd26e22f	-0.04074305
106	0x3d5596c5	0.05214574
107	0x3d048b63	0.032359492
108	0x3d594aa1	0.053049687
109	0x3e86d1c0	0.26331902
110	0x3ed0d41f	0.40786836
111	0x3d8a9d6d	0.06768308
112	0xbdf203b5	-0.11817113
113	0x3d3045f3	0.04303546
114	0x3db3745c	0.08762428
115	0x3c9c42f5	0.019074896
116	0xbe07440f	-0.13209556
117	0xbe03a5db	-0.12856238
118	0xbdd041d3	-0.10168805
119	0x3e014245	0.12622936
120	0x3ea51f7e	0.3225059
121	0xbe12b35d	-0.14326234
122	0xbe008f56	-0.12554678
123	0xbd1c2526	-0.038121365
124	0xbd89e330	-0.06732786
125	0xbd857ea0	-0.065182924
126	0xbea62527	-0.3245022
127	0xbec02480	-0.37527847
128	0x3e1cc421	0.15309192
129	0x3e4b1da1	0.19835521
130	0xbba81f7b	-0.005130706
131	0xba756d94	-0.0009362337
132	0x3c4cc11a	0.012497211
133	0x3d47652e	0.048680477
134	0xbe711f4b	-0.23547094
135	0xbe9b4453	-0.30325565
136	0xbe4e1b89	-0.20127691
137	0x3e9ab7b7	0.30218288
138	0x3e041de9	0.12902035
139	0xbd205225	-0.03914084
140	0x3e35659c	0.17714542
141	0xbd8ae651	-0.067822106
142	0xbe984b81	-0.29745105
143	0xbe11e8ae	-0.14248917
144	0x3eaf8cef	0.3428721
145	0xbdc2b03c	-0.0950627
146	0xbecae209	-0.39625576
147	0x3e088e14	0.13335449
148	0x3e013b0f	0.12620185
149	0x3cd3512b	0.02579554
150	0x3e558fac	0.20855588
151	0xbec1da5e	-0.37861913
152	0xbdaeddc5	-0.08538393
153	0xbd5148c8	-0.0510948
154	0xbd12d7f5	-0.035850484
155	0xbdf8e073	-0.12152185
156	0x3dd7da40	0.10539675
157	0x3e651257	0.22370277
158	0x3db33066	0.08749466
159	0x3e0216c7	0.12704001
160	0xbf1e60cd	-0.61866456
161	0xbe19c857	-0.1501783
162	0x3dde8a03	0.108661674
163	0xbe6450a4	-0.22296387
164	0xbd724729	-0.059149895
165	0x3e0c5953	0.1370595
166	0x3d329fc7	0.043609407
167	0x3e618b4d	0.22025795
168	0xbef05dae	-0.46946472
169	0xbd33268d	-0.043737937
170	0xbd8de397	-0.06928175
171	0x3ebe67fe	0.37188715
172	0xbd6cbab1	-0.05779523
173	0xbe691f5e	-0.22765872
174	0xbcdfdda6	-0.02732737
175	0x3df0fd3a	0.11767049
176	0xbd0928fc	-0.03348635
177	0x3e75055c	0.23927826
178	0xbcb4a636	-0.022051912
179	0xbdd36392	-0.10321726
180	0x3d33943e	0.043842547
181	0xbd2ccb06	-0.042185806
182	0x3dd9d648	0.10636574
183	0xbb02aa68	-0.0019937996
184	0xbd2cf41f	-0.042225
185	0x3de8e58d	0.11371908
186	0xbd6a1e31	-0.0571577
187	0xbde44703	-0.11146357
188	0x3d838b3b	0.064230405
189	0xbe01cb40	-0.1267519
190	0x3ddbdc76	0.10735409
191	0xbe49fe90	-0.19726014
192	0x3e22758e	0.15865156
193	0x3e39fa33	0.1816185
194	0xbe48a45c	-0.19593948
195	0x3b77855a	0.0037768693
196	0xbea3f0fc	-0.32019794
197	0xbe6a05b1	-0.22853734
198	0xbe7172c1	-0.23578931
199	0x3c4f28e9	0.012644031
200	0x3e4183b2	0.18897894
201	0xbf26e784	-0.65197015
202	0xbde7efbb	-0.11325022
203	0x3d28af04	0.041182533
204	0xbdd3f545	-0.10349516
205	0xbe663109	-0.22479643
206	0xbe0f18e1	-0.13974334
207	0x3e60c11c	0.21948665
208	0xbd9ce53d	-0.07660911
209	0xbe300c9a	-0.17192307
210	0xbeb98c93	-0.36240062
211	0xbb5541d8	-0.0032540467
212	0x3ca7b13b	0.020470252
213	0xbe25ded2	-0.1619828
214	0xbc456858	-0.012048803
215	0xbc6e37c3	-0.014539662
216	0xbcdd3452	-0.027002487
217	0xbdb65a78	-0.08903974
218	0x3e6f7eb2	0.23388174
219	0xbe1832a2	-0.14863065
220	0x3e0d066a	0.13771978
221	0xbdfc98d8	-0.1233384
222	0xbdb9cf5b	-0.09072753
223	0xbda6ff13	-0.0815412
224	0xbf01b742	-0.50670254
225	0x3ccf3be8	0.02529712
226	0x3e26de36	0.16295704
227	0x3dc71daa	0.09722455
228	0x3c80f1a7	0.015740229
229	0x3d807561	0.06272388
230	0x3e3f04f9	0.1865424
231	0x3df8e67c	0.121533364
232	0x3e74b692	0.2389777
233	0x3dda24eb	0.10651573
234	0x3ddba1ad	0.107241966
235	0xbdad4055	-0.08459536
236	0x3ddab701	0.106794365
237	0x3e812f71	0.25231507
238	0xbe1e79ca	-0.15476146
239	0xbc6f4dc9	-0.014605948
240	0xbce43a6e	-0.027859893
241	0x3eeaa608	0.45829797
242	0x3dbf9e5b	0.09356376
243	0x3dd5c5ca	0.10438116
244	0xbf017401	-0.5056763
245	0x3d616a4e	0.05503302
246	0xbe672c07	-0.22575389
247	0xbddb8fec	-0.1072081
248	0xbbc805d9	-0.0061042127
249	0xbc9723ae	-0.01844963
250	0x3caf8d34	0.021429636
251	0xbe5b80e0	-0.2143588
252	0xbdaad91f	-0.08342194
253	0xbe4bb9cf	-0.19895099
254	0x3dec84cc	0.115487665
255	0x3e07af24	0.13250405

fc2.bias f4 [64]
0	0x3d97cdf3	0.074123286
1	0x3e713491	0.23555209
2	0x3b4f6579	0.0031646176
3	0xbd9a1234	-0.07523003
4	0xbe4d7778	-0.20065105
5	0xbc3a9f17	-0.011390469
6	0xbdf89380	-0.121375084
7	0xbe69d8f1	-0.22836663
8	0xbe83b5b1	-0.25724557
9	0x3db87ac5	0.090077914
10	0xbd987d51	-0.07445777
11	0xbdcf7a21	-0.10130716
12	0xbe5ca889	-0.21548666
13	0xbd302500	-0.043004036
14	0x3d35b60f	0.044363078
15	0xbe87b668	-0.26506352
16	0xbe00b1a0	-0.12567759
17	0xbd711c4a	-0.05886487
18	0xbd1bf957	-0.038079586
19	0xbd202af5	-0.039103467
20	0xbe9ce212	-0.30641228
21	0x3d3c7786	0.046012424
22	0xbdcb4061	-0.09924389
23	0xbe3d9175	-0.18512519
24	0xbe07ffdd	-0.13281198
25	0xbe8ec969	-0.2788804
26	0xbeb2a38b	-0.34890398
27	0xbd94ae8c	-0.07259855
28	0xbd7f7775	-0.062369782
29	0x3e77a2ba	0.24183169
30	0xbc0b3322	-0.008496078
31	0xbe266df5	-0.16252883
32	0x3e632225	0.22180994
33	0x3d5775f7	0.052602734
34	0xbddb0c12	-0.106956616
35	0x3e3e3bf6	0.18577561
36	0x3e3f8bc5	0.18705662
37	0x3da5f33f	0.08103036
38	0xbb809717	-0.0039242613
39	0x3cb092f8	0.021554455
40	0xbd33b4e2	-0.043873675
41	0xbdae0437	-0.08496898
42	0xbe264b18	-0.16239583
43	0x3e483edf	0.19555233
44	0x3e2a7fd0	0.16650319
45	0xbc4b8dfd	-0.012423989
46	0x3e52d5f3	0.20589428
47	0x3e23d0f3	0.15997677
48	0x3d77e73a	0.06052325
49	0xbc58cbcf	-0.0132321855
50	0xbbd57bdf	-0.0065150107
51	0xbe3f0c3b	-0.1865701
52	0xbcaf936b	-0.021432599
53	0xbd96f8b6	-0.073716566
54	0x3dcade68	0.09905702
55	0xbe757537	-0.23970495
56	0xbe644238	-0.22290885
57	0xbe006694	-0.1253913
58	0xbd4aa25c	-0.049471244
59	0x3e33cab1	0.1755779
60	0xbd91dd26	-0.07122259
61	0x3cdf6e28	0.027274206
62	0xbd5cd18c	-0.053910777
63	0x3dc2a544	0.09504178

fc3.weight f4 [2, 64]
0	0x3e2e5e8e	0.17028257
1	0xbe8e2ec0	-0.27770042
2	0x3d11bd9e	0.035581224
3	0x3e3990ca	0.18121639
4	0x3ee8788c	0.4540447
5	0xbdfdd551	-0.123942025
6	0xbe45b01c	-0.19305462
7	0xbe108024	-0.14111382
8	0xbeef6840	-0.46759224
9	0x3eaab873	0.3334385
10	0xbe5d691d	-0.21622129
11	0x3d3de43c	0.04636024
12	0x3e44766f	0.19185804
13	0x3f275306	0.6536106
14	0x3e83099f	0.25593278
15	0xbd5fb8b1	-0.054619495
16	0xbdb99b7c	-0.090628594
17	0x3e577735	0.21041568
18	0xbdbbaa79	-0.091633745
19	0xbdb359f3	-0.08757391
20	0x3ee7b496	0.45254964
21	0x3eb112cb	0.3458465
22	0x3d2143cd	0.0393713
23	0xbc8cda5f	-0.017193971
24	0xbe0dbe71	-0.13842179
25	0x3ed353b5	0.412748
26	0xbe97074e	-0.2949776
27	0x3e8e3aba	0.2777918
28	0x3e158368	0.14600909
29	0xbe71364b	-0.23555867
30	0xbed24349	-0.4106696
31	0x3e96036e	0.29299492
32	0x3df8be25	0.12145642
33	0xbdde06de	-0.108411536
34	0xbe79780d	-0.24362202
35	0xbe12584a	-0.14291492
36	0xbe32113b	-0.17389385
37	0x3e1cc4d9	0.15309466
38	0xbea32ee0	-0.318717
39	0x3eb6157a	0.3556326
40	0x3ea2479d	0.31695262
41	0x3e5bfbf9	0.21482839
42	0xbe363ed5	-0.17797406
43	0xbdf78b02	-0.120870605
44	0x3f3611b1	0.71120745
45	0xbd9d8804	-0.076919585
46	0xbd9d43f7	-0.07678979
47	0xbdcefbe9	-0.10106642
48	0xbe83780c	-0.25677526
49	0x3f17958c	0.59212565
50	0x3ef84c82	0.4849587
51	0x3e82c94d	0.25544205
52	0x3d2a5505	0.041584987
53	0x3f07b4d7	0.53010315
54	0x3ebb46a0	0.3657732
55	0x3ebfff75	0.37499586
56	0x3ee5c9bf	0.44880483
57	0xbea71da3	-0.326398
58	0xbe96f7f8	-0.2948606
59	0xbe80bf42	-0.25145918
60	0x3ec7afd3	0.3900133
61	0x3e215210	0.1575396
62	0x3ea5e77e	0.32403177
63	0xbdce7956	-0.10081737
64	0x3d98ef25	0.07467488
65	0xbd9a2976	-0.07527439
66	0x3e92a6ba	0.28642827
67	0x3dd4dd3f	0.10393762
68	0xbd9c31b2	-0.07626666
69	0xbef9a707	-0.48760244
70	0x3e3aada6	0.18230304
71	0x3ed287eb	0.41119322
72	0x3e0829a2	0.13297132
73	0xbee24ec5	-0.4420072
74	0xbe3fbcd9	-0.18724383
75	0x3e933c41	0.28756908
76	0xbedafbc9	-0.42770222
77	0x3e1c0ea0	0.15239954
78	0xbf00c854	-0.50305676
79	0x3e3d6f82	0.18499568
80	0x3e7c4d95	0.2463897
81	0x3ebbcf7d	0.36681738
82	0x3f0724a8	0.5279031
83	0xbebb1b78	-0.36544394
84	0x3ef1c4e7	0.47220537
85	0x3e91e90d	0.28498116
86	0x3f16f47a	0.5896679
87	0x3eae73eb	0.34072813
88	0x3ee84383	0.45364007
89	0x3f20b4bc	0.6277578
90	0x3dbe9a8f	0.093068235
91	0xbc33804e	-0.010955883
92	0x3dd41117	0.10354822
93	0x3d3632a5	0.044481892
94	0xbd118cba	-0.035534598
95	0x3e67dbcc	0.2264244
96	0xbf214f57	-0.6301169
97	0x3dca14b6	0.098672315
98	0xbe858934	-0.2608124
99	0xbb0f16b0	-0.002183359
100	0xbd96101a	-0.0732729
101	0xbd69676f	-0.056983408
102	0x3bccb045	0.006246599
103	0x3e86ebb9	0.26351717
104	0xbe089b32	-0.13340452
105	0x3dd62f66	0.10458259
106	0x3e07711b	0.1322674
107	0xbe1d5213	-0.1536334
108	0x3d594ab6	0.053049766
109	0xbe1bb8ca	-0.1520721
110	0xbe7b9ad9	-0.24570788
111	0xbd848fe1	-0.06472755
112	0xbf255508	-0.6458287
113	0xbd199071	-0.037491266
114	0xbe8696b8	-0.26286864
115	0x3eca306a	0.39490062
116	0x3ef0c3ba	0.47024328
117	0xbe394ebe	-0.18096444
118	0x3d71b33d	0.059008826
119	0x3f59f56f	0.85140127
120	0xbd9c635d	-0.076361395
121	0xbf3fda7b	-0.7494275
122	0xbf30df32	-0.6909057
123	0xbca9c86b	-0.02072545
124	0xbe86959f	-0.26286027
125	0xbea428dc	-0.32062423
126	0x3d4b2e5c	0.04960476
127	0xbef524ca	-0.4787963

fc3.bias f4 [2]
0	0x3c45bdbc	0.012069162
1	0xbde833b7	-0.11337989
