p3-CollaborationCompetition/MATD3_actor_0.pth (torch_old, 24566 bytes, 6 tensors)

fc1.weight f4 [64, 24]
00000000: 79c6 7a3e 1766 fabe eee9 70bd ea31 93bd
00000010: b18d 49be 31fc 8ebe 0100 a0bd 0bbd e83d
00000020: bf51 013e a689 f9be 74a6 37be fbf1 88bd
00000030: a8f1 bebe 0df2 dabe c224 5d3c be13 afbd
00000040: 92ab 273e cdfa 1cbf 2e16 7c3d c1a1 013e
00000050: 1698 25be a38b a93d f04b 5f3d 3038 363c
00000060: 171d 893d d3d9 72be 9c46 80bd 8728 1e3e
00000070: 8eda ec3d f087 6a3b e3e1 003c 1a48 083e
00000080: f40d 8c3d 4482 aabd 4879 de3d e10b c03d
00000090: a2e0 283d 19da efbe 2a50 3f3e 7e64 463e
000000a0: 8b79 eabd 05e9 c6be 528f 4a3d cced 0e3c
000000b0: a2ab a83e a690 08bf b06a 49bd 47f7 063e
000000c0: f8f8 9e3c 8c15 593e e465 d83d a93d 12be
000000d0: 8be7 0ebf f1bb 19bf 3eaf c3bd 2450 6b3d
000000e0: 0c4e 713c 64fc 3f3e ad25 0a3b a6b2 e3bd
000000f0: d113 86be fd1a 83be 53db 943b d1bd 633d
00000100: 5c73 9bbc 72ed 6a3e b3f8 583d cd88 623e
00000110: 5ac8 e33d 1986 31be b460 153d f908 803e
00000120: 2109 063e b928 763e 614a 73bd 5b85 08bf
00000130: c73b 24bf 558b 223d 2805 8c3d 92db c0be
00000140: ff2a 743e f5ac 91bc 2567 7f3d 0ae7 dbbd
00000150: cd2a 7d3d 8f6c dc3d 4da1 89bd a6ae f5bd
00000160: 33ee 813e 8d11 2a3d 22de bd3d ca3b 443e
00000170: 87d9 df3e a65f 353f f839 2dbb fc19 733e
00000180: b0dc bd3e b00a 85bf 7185 1a3d 0d7e 903e
00000190: e6c2 893e cc66 a2be 548f 29be d36f 4f3e
000001a0: da20 b6bd 7e25 74bf 94b4 f1bd 3bd8 a2bd
000001b0: 6849 2d3f a6ca 0ebf b331 9f3c eb80 80bd
000001c0: fe47 c1bc cfec 84bf 4a96 d1bc 746f 07bf
000001d0: d802 b63e a00e b5be 8ca5 19bd 90a7 e8be
000001e0: e617 183c a773 b1be 6af6 60bc b3d7 de3d
000001f0: 4d86 af3e 8d60 96be 67ce 233b ec5c 2ebd
00000200: 6311 0dbd e816 e5bd 676b 95bc 626a c8bb
00000210: ec49 debd 8c3d 553e 95ff 8a3c 8087 3ebd
00000220: 2001 45bc 8e0e 97be eba6 073d f964 9dbd
00000230: 7de4 c1be e648 513f 155e 92bd 6568 0ebb
00000240: e17a 793d 7059 b1bd 76af 03be f446 093e
00000250: 7bcb 383e 29e3 833e b1ed f63d a054 f7bb
00000260: 59a3 b5bc 32fd 5ebe 2afd 2f39 62a8 21be
00000270: 070b 003f eee9 033f ceb0 9b3c c362 7bbe
00000280: 0058 e63d 9f07 c3be c828 0c3d 916e 91be
00000290: d1ba 7d3f 78b8 073f 248c 0dbd d5c8 91be
000002a0: 033c 333d ca52 dabe 33b7 d13c f69b f53d
000002b0: 6b5a 04be 76fb f3bd 2b2f dcbc a7a6 ff3d
000002c0: 6c6e 5abd 0067 06bf 4acc 7f3c d34f a0bc
000002d0: f651 76bd 8a8b c63e 35c0 08bc 5ca2 b1bc
000002e0: b199 f23d 828d 33bf ad43 79bc 3530 87be
000002f0: 6b10 913e d17b f03e 1d05 a3bc 94ec 28be
00000300: 1e21 d1bd a49f 1f3f fe65 8bbc 9725 8f3e
00000310: 680d f23b 72b0 edbe 1316 f5bc 1ccc d63e
00000320: d457 7ebd 00c5 023f 7730 e53d 2d4f 503c
00000330: 4c9c f43d e2ea ffbe dc29 443c b9c6 393c
00000340: b415 12be 1d1b 623e 78eb 023e dedb 34be
00000350: 7579 ef3e 49a5 47bf 366e 7a3d 62b5 91be
00000360: 6efa 7e3d bb99 a93e e4b6 56bb cdfd a33e
00000370: 875e e23e b3fb 8a3c 8355 8cbc b6f2 b73e
00000380: 373c d23d fc69 3d3e f790 113d ca56 c1bd
00000390: 508b 193f abb0 81be 2c3a 0dbd 61bf 3ebb
000003a0: a316 6e3d 582b 363d 315b d13c 6a63 35be
000003b0: 9031 253f b9b9 98bb 3987 e3bc 164c 4dbe
000003c0: 62c2 21be 3f85 19bf b14f 033d b274 86be
000003d0: 0d89 aebd 7f26 e6be f11e 80bd 7197 a0bd
000003e0: ec5c 98bd 795e f8be 9afd 2ebd c101 3a3d
000003f0: dbdc 963d 2027 8d3d b295 68bd cc8a 79bb
0.24489774 -0.48906013 -0.058816843 -0.07187255 -0.19682957 -0.27926782 -0.07812501 0.11364182
0.1262884 -0.4873783 -0.1793459 -0.06686779 -0.37293744 -0.42762795 0.013497533 -0.085486874
0.16374043 -0.6132019 0.06154459 0.1265936 -0.16171297 0.08278587 0.05451578 0.011121795
0.066950016 -0.23715906 -0.06263468 0.15445147 0.115651235 0.0035786591 0.007866356 0.13308755
0.06838599 -0.083256274 0.10862976 0.09377266 0.04122985 -0.46846083 0.18682924 0.19374272
-0.11448964 -0.38849655 0.049453087 0.008723687 0.32943445 -0.53345716 -0.04917401 0.13180266
0.019405827 0.21199626 0.10566309 -0.14281334 -0.55822057 -0.600524 -0.09554909 0.057449475
0.0147280805 0.18748623 0.0021079585 -0.11118059 -0.26186994 -0.25606528 0.004542747 0.055600945
-0.018975906 0.2294214 0.052971553 0.22122498 0.111221984 -0.1733631 0.036469176 0.25006846
0.1308942 0.24038972 -0.059397105 -0.53328484 -0.64153713 0.03968366 0.06836921 -0.3766752
0.23844527 -0.017782668 0.062354226 -0.107374266 0.061808396 0.107628934 -0.06720219 -0.11996202
0.25377044 0.041520644 0.09270884 0.19163433 0.43720648 0.7084907 -0.0026432257 0.23740381
0.37082434 -1.0393887 0.037724916 0.2822117 0.26906508 -0.31719053 -0.16558582 0.20257501
-0.08892985 -0.9536971 -0.11802021 -0.07951399 0.67690134 -0.55777967 0.019432878 -0.06274589
-0.023593899 -1.0384768 -0.025584359 -0.5290444 0.35549045 -0.3536272 -0.037511393 -0.4544034
0.009283042 -0.34658548 -0.013730625 0.10880985 0.3428215 -0.29370537 0.0024994852 -0.042569086
-0.03444041 -0.1118601 -0.01823969 -0.0061161974 -0.10853943 0.2082426 0.016967574 -0.04651594
-0.012024194 -0.29503292 0.03311817 -0.07685275 -0.37869635 0.8175186 -0.07146851 -0.0021729704
0.060908202 -0.08659637 -0.12859902 0.13405973 0.18046372 0.25759247 0.12057055 -0.00754793
-0.022172617 -0.21776274 0.00016783611 -0.15786889 0.50016826 0.51528823 0.019005205 -0.24549393
0.112472534 -0.38091752 0.03421858 -0.28404668 0.99113184 0.5301585 -0.034557477 -0.28473535
0.043758404 -0.42641288 0.025600052 0.11992638 -0.12925117 -0.11913197 -0.02687796 0.12482958
-0.053327963 -0.52500916 0.015612671 -0.019569313 -0.060136758 0.38778335 -0.008346607 -0.021683864
0.118457206 -0.701378 -0.015213889 -0.26403967 0.28332838 0.46969464 -0.0198999 -0.16496497
-0.10211395 0.6235297 -0.017016407 0.27958366 0.007386852 -0.4642368 -0.029917752 0.41952598
-0.06209548 0.5108185 0.111908846 0.0127141895 0.11943874 -0.4998389 0.011972871 0.011338883
-0.14266092 0.22080655 0.12785137 -0.17661998 0.46772352 -0.7798658 0.06114026 -0.28458697
0.062250547 0.331251 -0.003276282 0.32029572 0.44212744 0.016965723 -0.017130619 0.3592736
0.10265391 0.18497461 0.03553864 -0.09440382 0.599782 -0.253301 -0.034479305 -0.002910577
0.058127057 0.04447493 0.025556179 -0.17713705 0.6452875 -0.0046608117 -0.02777444 -0.20048556
-0.15796807 -0.5996894 0.03205842 -0.26260906 -0.08522234 -0.44951245 -0.062559016 -0.07841385
-0.074395984 -0.48509577 -0.042722322 0.04541183 0.073663436 0.06892228 -0.056783386 -0.0038077114

fc1.bias f4 [64]
00000000: 76cb 6dbd 7534 223b 6a29 223e 5271 b63c
00000010: d1dc f9bd 9723 17be c539 fe3c 1d4e fb3d
00000020: e601 883e 201f 0abe e739 c5bd 306e 6a3d
00000030: 9a64 21be 4581 f03e 4b3b 0d3e 1f89 993e
00000040: de61 e5bd 44e3 883d 777d 423e 6849 7f3e
00000050: 09b7 ea3d ac14 12be 054e e53d bc38 ebbd
00000060: a6c2 fbbc 2e7a 323e 03c2 08bd 4e36 043d
00000070: ddd9 dbba d4d9 26be 7331 93be d201 c53d
00000080: b26f c9bd b116 423b a8a8 593b 65b1 1f3e
00000090: 0452 9a3c 83e6 403c 555f 65be 52b9 8b3e
000000a0: 5135 a63e 96c3 973c 95f5 6bbe f511 933e
000000b0: 2790 8b3e d286 28bd ca9a 20be 7597 e03e
000000c0: 373d 683e 0400 85bd ad98 7dbc 5f5c 0bbd
000000d0: 09c5 7dbe b390 a73d 30e9 2abe 182d c03d
000000e0: a861 293e 4749 a43e a015 023e 1a3b 693e
000000f0: 9f66 99bd dcec c8be 634e 803e 9886 9c3e
-0.058055364 0.0024750505 0.1583611 0.022270832 -0.122003205 -0.1475967 0.031033406 0.12270758
0.26563948 -0.13488436 -0.096301846 0.05723399 -0.15761033 0.46973625 0.1379215 0.29987428
-0.11200307 0.066839725 0.18993174 0.24930346 0.114606924 -0.14265698 0.11196522 -0.114854306
-0.030732464 0.1742942 -0.03338815 0.03227835 -0.0016773302 -0.16294032 -0.28748664 0.09619488
-0.09835757 0.0029615576 0.00332121 0.15595014 0.018837936 0.011773708 -0.22399648 0.27289826
0.32462552 0.01852588 -0.23042901 0.28724638 0.27258417 -0.0411442 -0.15684047 0.43865553
0.22679602 -0.064941436 -0.015478295 -0.03402364 -0.24782194 0.08181896 -0.16690516 0.09383601
0.16541159 0.32087156 0.12703562 0.22776452 -0.074902765 -0.3924321 0.25059804 0.30571437

fc2.weight f4 [64, 64]
00000000: b1f2 23bd 658b 9b3d 9486 d23d 0865 c6be
00000010: 44d1 4bbf c01c 063e 2bc3 81be d0bc 88be
00000020: 427a 61bd c4b3 88be 4d57 70be d09d f5bd
00000030: 7c62 ff3d 10a7 84be 6c17 d93d 9dd0 52bf
00000040: d4f3 5e3d 3d4f 3c3e 162a cebe 1b23 993d
00000050: e601 79be e4b7 c6bd 2d42 4abe 9501 af3d
00000060: ef12 c6bc 9d60 743d c415 bbbd 166b b43d
00000070: 3a2e d3bb 7c87 083e 2c12 913e 4dce 91be
00000080: a859 02be bb78 923d 40f5 3fbe ade1 da3d
00000090: 4c73 4fbe 2bba 243c 1578 f03d b1c8 463d
000000a0: 62a5 583e a434 a03e 7b24 123e e63c 233e
000000b0: 2e67 bfbc e434 d13c 93a9 43be 80ee 5a3e
000000c0: 0aab 8b3d 2993 633e 306b 30bd 66dd 723e
000000d0: 364e 86bc 81c4 12be 1dfb 293e 338a 2d3e
000000e0: 72b1 db3a e95b 70be a614 933d a3bf f2be
000000f0: 41a7 7bbe d446 dbbe e3b7 6a3c 97e2 a3be
00000100: 1329 9cbe a421 9dbe 2311 7a3e 562a bc3e
00000110: 9412 a7be c8f5 933d 748c a63c 9018 60be
00000120: 419a 143e 3d7a 8a3e eea7 9f3d 4d7d 52be
00000130: 97c8 3a3b 515b d3be 10da 8b3e 6a49 be3e
00000140: 2007 d13d c6c0 8e3e d1d2 db3c c1f0 f6bb
00000150: 036c bdbd 8a8f af3e 9359 96bd ec44 783d
00000160: 10dd f73d 7672 833e 830a 03be f313 23be
00000170: fe2a c6be de17 8b3d dd24 15be c82d c03d
00000180: 41fc 203d 850e f4bd 2e91 933e c436 0abe
00000190: 79e9 4bbe 2aec 203d 478d f63c e908 b0bd
000001a0: 09f0 d93c 92b8 8bbe 7b1d 073e 0c2c 25bd
000001b0: 8f9d 533d ca1a a1bd eabf 42be 047f 50bd
000001c0: bbf1 2abd 2866 273d 91b4 efbc 8fd7 ad3e
000001d0: 504a 56bc 2991 3bbe 2a47 9cbd 5c88 7b3d
000001e0: eb39 2d3c d0c5 8d3d c5c6 b1be 76b8 9dbe
000001f0: e72f 863e da29 eabd 503b 38be c6f1 14be
00000200: 5dee 62be b4c3 c93d 22ef 103e 0635 073f
00000210: 138b 443f e363 283e 9035 fdbe 1d6e 2dbe
00000220: f80b 783e b82a 9d3e 105b 483e f171 91be
00000230: 015c 02be 9a6c 983a aa7c 933c 766b 643e
00000240: 91f1 833e 63af 733c cf71 6b3c afd4 e4bd
00000250: 8406 5f3e 54ec 533d eefe 0bbe badf 6cbd
00000260: 18c5 573d 8ac0 0a3e 3869 073e 11e2 ba3c
00000270: db25 973d abdc b63c 6210 56be a588 65bd
00000280: 4cf4 8bbe 298a aebc 41f7 a33e e387 50bd
00000290: 7d70 a5bd 7d6c 55bd 536e e93b 0b64 7a3c
000002a0: d40f 04bd 2879 f03d 5fdc e23b deca a73d
000002b0: 9f53 0a3e b38b 4fbd c16b f5bd ac58 c5be
000002c0: 174b 28be 526b bc3c 3c8c 41be f0e9 923d
000002d0: d74a 01b9 8cf0 57be aad7 313d 66f6 143e
000002e0: 4b11 23be 8277 a5bd 4c53 303e fc4d e53d
000002f0: ed16 aebe 8950 25be 8a9b e63d 2b9d 13bd
00000300: bf06 e53c 623e e23d a16b cabe bf65 1bbf
00000310: c055 eb3e 8fce 10be 8c52 52bf 0487 2abe
00000320: 06cb 6dbe 7ed5 2abe c4c9 a3be a52b 113e
00000330: 3832 c8be 1669 813d 4ef8 583e 4c67 84be
00000340: 5d42 713e c1d6 d23d d35a 75be 3f14 f83d
00000350: f3a3 20bd ed83 0dbe 704b 2abe 3f87 30bd
00000360: ea66 fb3d c22f 443e 06b6 023e 4e81 ca3c
00000370: eb69 f2bd e314 1bbe dd82 2dbd 355e bbbd
00000380: 3675 1e3e 9cae a73e cae7 2b3d 65cd 483e
00000390: 1e2b cabe 3edd 3c3e c457 aa3d e9b2 213e
000003a0: d174 a33d 4641 b63e cd44 12bd 817e 4a3e
000003b0: 311c 4d3e ecc4 1d3e 0074 31be e61c 72be
000003c0: b36f a8bc f740 073e d777 003e 3cbe ddbe
000003d0: 886e 93be fcb4 8dbe 1dfc 993d 3865 eabd
000003e0: aa34 9cbd 4c99 10bf c204 e8bc 4821 533d
000003f0: 212a 72bf 5b6a 5bbc 670b 8e3d 7bd5 a83d
-0.04002637 0.07594947 0.10279575 -0.38748956 -0.7961619 0.13096905 -0.25344214 -0.26706553
-0.055048235 -0.2669965 -0.23470803 -0.11992991 0.12469956 -0.2590871 0.106001705 -0.8234957
0.05443175 0.18389602 -0.40266484 0.07477399 -0.2431713 -0.09703043 -0.19751807 0.085452236
-0.02417895 0.05966245 -0.09135011 0.088094875 -0.0064447196 0.13332933 0.28334177 -0.28477708
-0.12729514 0.07151934 -0.18745899 0.106875755 -0.20258826 0.0100541515 0.11741654 0.048531238
0.21156839 0.31290162 0.14271729 0.159412 -0.02336463 0.025537916 -0.19107656 0.21380043
0.068197325 0.22224106 -0.043070972 0.2371727 -0.016394716 -0.14332773 0.16599698 0.1694725
0.0016761257 -0.23472561 0.07181673 -0.47411832 -0.24575521 -0.42827475 0.014326069 -0.32008812
-0.30500087 -0.30689728 0.244206 0.3675105 -0.3263136 0.072246134 0.020330645 -0.2188437
0.14511968 0.27046385 0.07795702 -0.20555611 0.0028500909 -0.41280606 0.27314806 0.37165385
0.10206437 0.2788145 0.026833924 -0.0075360243 -0.09249117 0.342892 -0.07341304 0.060612604
0.12102711 0.25673264 -0.12796979 -0.15925579 -0.38704675 0.06791662 -0.14564843 0.09383732
0.039303068 -0.11916832 0.288217 -0.13497454 -0.19913282 0.039287724 0.030096663 -0.085954495
0.026603715 -0.27289253 0.1319484 -0.04032521 0.05166393 -0.07866438 -0.19018522 -0.05090238
-0.04173444 0.04086891 -0.029260905 0.3395352 -0.013079241 -0.18317093 -0.07630761 0.06140934
0.010572891 0.06922495 -0.34721962 -0.30804795 0.26208422 -0.11433764 -0.17991376 -0.14545354
-0.22161241 0.098517805 0.14153722 0.5281528 0.7677471 0.16444354 -0.49454927 -0.16936536
0.24223316 0.30696654 0.19565988 -0.28407243 -0.12730409 0.0011629045 0.01800378 0.22306618
0.25770238 0.014873358 0.014370396 -0.11173379 0.2177983 0.051739052 -0.13671467 -0.05783055
0.052678198 0.1355001 0.13223732 0.022812875 0.07380267 0.02232202 -0.20904687 -0.056038518
-0.2733482 -0.021306114 0.32024577 -0.05091084 -0.08078096 -0.052105416 0.0071237474 0.015282641
-0.032241657 0.11741859 0.006923243 0.08192991 0.13508461 -0.050670337 -0.11983443 -0.38544214
-0.16434895 0.023000393 -0.18901151 0.07173526 -0.00012330279 -0.21087855 0.043418564 0.14547119
-0.15924565 -0.08079435 0.17219275 0.11196515 -0.34001866 -0.16144003 0.112601355 -0.03603856
0.027957318 0.11047055 -0.3953524 -0.6070213 0.4596386 -0.14141296 -0.82157207 -0.16653067
-0.23221979 -0.16683003 -0.31989872 0.14176805 -0.39100814 0.06318872 0.2118847 -0.2586006
0.23560472 0.10294867 -0.23960428 0.12113237 -0.039218854 -0.13819857 -0.1663034 -0.04309773
0.12275489 0.19158843 0.12764749 0.02471986 -0.118366085 -0.15144686 -0.04236113 -0.09148828
0.154744 0.32750404 0.0419691 0.19609602 -0.3948602 0.18443772 0.08317521 0.15790905
0.07981265 0.35596675 -0.035710145 0.1977482 0.20030285 0.15407151 -0.17329407 -0.23643836
-0.020561075 0.13208376 0.12545715 -0.433092 -0.28795266 -0.27677143 0.0751879 -0.11445087
-0.076272324 -0.5648391 -0.028322581 0.05154541 -0.94595534 -0.013392056 0.069357686 0.08243843

fc2.bias f4 [64]
00000000: e426 6fbe a373 11be efbc b53c 8b0f 573c
00000010: 87e4 38bd 7963 89bd 5154 b2bd c9af 62bd
00000020: 8e10 4dbe 47ad 9dbe 1768 223d 33cc bf3d
00000030: 731c 85be 3671 593e 3be9 9b3c ed08 9e3e
00000040: 77a8 e73d 6596 3bbd dc5c cc3e 1341 b53e
00000050: 64e1 45bd dabe 5d3d 77e1 383d 7020 20be
00000060: 59bf 243d 6d53 0b3e ce9a 63be fd01 cfbd
00000070: f56c b83d 5cef a63d b3b6 a2bd f60c 393d
00000080: 947d 9c3d bc82 a13d e571 383e 7295 3c3e
00000090: 322c fe3d ed68 a6b9 8f3c 67be 1124 4fbe
000000a0: e6f7 34be 5623 a53d e80a d0be a535 ef3d
000000b0: 6e6f 1c3d 0dfb b83d b1fd d23d c7e3 1b3e
000000c0: b454 e2bd f02e 2c3d 1202 b13e b0fd 72bd
000000d0: 3265 773e 8fd7 1bbd 1837 a53d 5118 a0be
000000e0: 5939 04bf c887 82be 697d b43e 7623 7a3e
000000f0: 18bf 9ebd 547e 963b c4d9 273d 25f4 90bd
-0.2335468 -0.14204268 0.022184817 0.013126264 -0.045139816 -0.06708426 -0.08707488 -0.055343423
-0.20025846 -0.30796263 0.03965005 0.0936512 -0.25998268 0.21234593 0.019032111 0.30866185
0.11311429 -0.045797724 0.39914596 0.3540121 -0.048310652 0.05413709 0.045136895 -0.15637374
0.040221546 0.13606043 -0.22227022 -0.10107801 0.09005157 0.08151123 -0.07945003 0.045178376
0.076411396 0.07886264 0.18012197 0.18416384 0.12410773 -0.00031740163 -0.22581695 -0.20228602
-0.17672691 0.080633804 -0.4063332 0.11680154 0.038192205 0.09032259 0.10302294 0.15223609
-0.11051312 0.04203695 0.34571892 -0.059323967 0.24159697 -0.03804737 0.08067149 -0.31268552
-0.51650006 -0.25494218 0.3525193 0.2442759 -0.07751292 0.004592696 0.04097916 -0.07077817

fc3.weight f4 [2, 64]
00000000: 794b cdbd f3b6 2ebd b99f 4a3e 2de1 45bc
00000010: a016 76be b230 a93e 452b 453e f48a 84bc
00000020: f3c2 053f 9c16 34bc f9f9 bf3d b1ce 713e
00000030: 7306 9c3e c4c1 4c3d f02f 093f b50c 663c
00000040: 27a4 bd3e 9900 acbe a92e 37bd 5fd9 4cbe
00000050: 64d4 923c aa02 1a3e 79ff 22bf c45f f4be
00000060: 23df 493e bc7a a23b 8859 1d3d a45c ad3e
00000070: 0002 8bbd 8321 edbd ce59 dfbd f379 ffbc
00000080: 7426 cd3e ad8b 2c3e 0970 de3d 8a3a bbbe
00000090: 2eaa b1be 8024 ad3e d6e4 66be 0455 83be
000000a0: bbd7 a93d 62d9 d93e a939 763e 45c6 2ebe
000000b0: 8fee 88be 333d bfbe 1e10 003f 8f1e 11be
000000c0: 91a2 efbc 4d14 e63e cd80 9bbe f168 1f3e
000000d0: 0dc0 fcbd 7edf 87bd 0744 9b3d 50f6 b13d
000000e0: 3aac 0c3f 352b 103e a97c 39be a5de b93d
000000f0: 8bee 613e d483 5ebe a0b5 0b3e 8726 9abd
00000100: 5b76 a63e 9cfc ab3e a7ed a33e 5f14 ecbe
00000110: 340d 0b3c beb7 6e3e 38f5 a83e 0876 ae3e
00000120: d9cd 02be 3948 c23e 91d6 2b3f 07b2 76be
00000130: e0c0 ad3e 6bab 00bf 8154 f43b bedb 5ebe
00000140: 8338 703d ba46 fbbd ece6 89be cb2b 90be
00000150: 02fc 4b3b 2f34 d5bc 78fc 303f 44ea 103d
00000160: 9c42 d23d 6ef4 0abf ac19 533e ba44 f8bd
00000170: 411c bebe b62f 953d 9f41 ee3d 82c6 5ebf
00000180: a09d 4e3f 261b 483e 8259 073f 871c afbd
00000190: 48ba 20bd 68a1 2ebe fdf6 f83b ae38 bebe
000001a0: ddd1 1c3f 189f 60be 376c 823e f313 303d
000001b0: 85c3 ea3d 4782 11be 2108 e23a 68bd 0e3e
000001c0: 3659 b33e b251 ab3e 753f aebe 2042 483e
000001d0: 4dce e5be 3c71 6a3e 0fda 32bf 5d1e b73d
000001e0: 32b2 593f 72d5 853e a999 5abf 908d a8be
000001f0: bd3a e2be d11c ac3d d614 993e 8a6f 103e
-0.10024161 -0.042654943 0.19787492 -0.012077612 -0.24032068 0.33044964 0.19254787 -0.01617954
0.52250594 -0.010991719 0.093738504 0.23614003 0.3047367 0.049989477 0.5358877 0.0140411155
0.370393 -0.33594206 -0.044722233 -0.20004795 0.017923541 0.15040079 -0.6367107 -0.47729313
0.19714026 0.0049584787 0.03841546 0.33859742 -0.06787491 -0.115786575 -0.10905801 -0.03118608
0.400684 0.16850157 0.10861213 -0.365681 -0.3470015 0.3381691 -0.22548231 -0.256508
0.082931004 0.42548662 0.24045433 -0.17067821 -0.26744506 -0.3735138 0.5002459 -0.14171813
-0.029252322 0.44937363 -0.30371705 0.15567376 -0.12341318 -0.066344246 0.075813346 0.086895585
0.54950297 0.14078982 -0.1811396 0.09075669 0.22063653 -0.21729976 0.13643503 -0.0752688
0.32512173 0.33591163 0.32017252 -0.46109292 0.008487035 0.2331228 0.32999587 0.34074426
-0.12773837 0.37945727 0.6712428 -0.2409135 0.33936214 -0.50261563 0.0074563627 -0.21763512
0.058647644 -0.122693494 -0.26933992 -0.2815841 0.003112555 -0.02602586 0.69135237 0.035379663
0.10266611 -0.5427922 0.20615262 -0.121224836 -0.3713093 0.07284491 0.1163361 -0.8702165
0.80709267 0.19541606 0.52870953 -0.08550363 -0.03924015 -0.17053759 0.0075978027 -0.37152618
0.61257726 -0.2193569 0.25473186 0.042987775 0.11463074 -0.14209853 0.0017244854 0.1393944
0.35029 0.33460766 -0.3403279 0.19556475 -0.44883958 0.22894758 -0.6986398 0.08941338
0.8503753 0.26139408 -0.85390717 -0.32920504 -0.4418544 0.08403934 0.2989871 0.14105049

fc3.bias f4 [2]
00000000: d388 0abd 1a2c 73bd
-0.033821892 -0.05936823
