p3-CollaborationCompetition/MATD3_critic1_0.pth (torch_old, 31477 bytes, 5 tensors)

fcs1.weight f4 [64, 48]
00000000: 759e 0a3e dd77 52be 47b1 a73d dbb7 ddbb
00000010: c43f 36bd b8d2 7dbd 124d 9dbd 25de c4bc
00000020: 8a17 0e3c 3fe4 f4be 3a64 cdbd dd7c f9bc
00000030: ccf2 773d 6c51 373e dcf5 cc3d 7a63 223e
00000040: 30b2 f43d 9694 77be 6aee 893c 8872 fc3d
00000050: c9ae 83bd 15c4 cd3e 2a40 c9bc 88a9 38bd
00000060: 141c f5bd 6857 cabe 5e33 833c 48dd 573d
00000070: 9b96 cdbd 5df4 1bbd e59d cdbc 9c54 9bbd
00000080: f039 5fbd e14d bebe 91fc b1bc 7c0d bdb9
00000090: f864 aa3d e4c8 553e 4343 29bc 0590 98bd
000000a0: caf7 eb3e e90a 4dbe 145b 2e3c 8f31 db3d
000000b0: 0e25 aa3d 8fa1 dc3e 7440 5dbc 7000 dcbc
000000c0: 7278 c73e c8ad 803e 9712 b23c 5c0d 58bd
000000d0: 3cb9 41be 5e69 6abe d811 39bd f40b 5ebb
000000e0: 2337 863e 3da7 9c3e b7a4 9d3a 07c9 2a3e
000000f0: 17cc 8ebd d570 94be 0021 ad3b 7e9b 773e
00000100: 4707 eb3e 2762 a33e f3db 81ba 6e4b 2d3e
00000110: 032c abbe 0fba d0be 6398 fc3c 4de8 463e
00000120: e7c1 b53d 1831 91bd 9022 aabc a6e2 37bd
00000130: fde6 623e f217 06bc 6c2b d33b 4ed9 083e
00000140: f303 b03d 9d51 6b3c 964c a8bd 4993 f43d
00000150: 330b 173e d450 9ebe 9cee 843d b4f7 6e3e
00000160: f12d 053c fe7b c9bd 89e3 39bd 3086 95bc
00000170: e1aa 7d3e b486 ccbe 08ad dfbc 5b69 8b3a
00000180: 9d92 d83d cc0a c5bd ba6f c93b a277 db3d
00000190: 81fc 9cbc d7e8 513e 1119 b2bc 2d1f 8c3d
000001a0: b939 313e 2795 223d 4772 82bd be0a 013d
000001b0: 50de adbc b720 8a3e e560 473d bddf 78bb
000001c0: bf61 4e3d 953b 653e f55c ef3b d3f5 be3e
000001d0: 32e1 7cbe 3267 3dbc ff61 3b38 6a8e 6a3e
000001e0: 9ad4 3dbc 3883 c33e 2679 6b3d 010a 43be
000001f0: 100b 35be 03e9 663e ab77 5ebd 8c32 153d
00000200: ef65 7cbc 9dd6 293e 6073 1e3d 75cb 05be
00000210: 86f9 1d3e 07a3 5a3e cb9e 5ebd 27c8 9abd
00000220: 6d4e de3d ff56 3f3e dec4 013d 184c e3bd
00000230: 221f 933e f043 6bbe 4e74 81bd 9558 853d
00000240: b9f8 b0bd 9572 0fbe 2963 913d b63c 573d
00000250: 54b8 6e3e 71d8 3abc 6b8c 96bd e422 30bd
00000260: 7430 7e3d 501e 693d 4c7b 0fbd f7b5 d6bc
00000270: ed6d b4bc 9a19 e03d d9cd 9f3c f949 403c
00000280: c053 8e3d dc43 a2bd fa97 d33d d925 9aba
00000290: f637 f2be af16 38bd bc9d e0bd 964a b33d
000002a0: 8045 223d 860b 013e 9768 b9bd bf0d 25bc
000002b0: 692d 71be fa8c 5fbc e3ec c13d 89fa 8abc
000002c0: 65f6 b0bd 54c4 523e 6617 b2bd a993 bc3d
000002d0: 09d6 5a3d 3927 443e 4e61 ce3d c1d4 8ebd
000002e0: 1513 63bd 2db2 813d 391a f7bc 30b3 fb3d
000002f0: 5979 0e3f 595c 55bd 7314 2f3d 2a17 65bd
00000300: 4b0e 053e a168 48bd f436 c8bd f848 3bb9
00000310: 383e ad3d 5f3d a03e 45f0 b93d 682d 9c3c
00000320: 8d01 53bd 1503 c9bd b697 2f3d b71c 27bd
00000330: 11f5 c3bd ef66 38bc 7f0d ffbc 8cbc ee3d
00000340: 0d98 30be ced1 ecbd 8244 113c 3f97 233d
00000350: 981b f83d 0f55 71bf d20e a839 3a67 a7bd
00000360: 4075 e83d 665f 813e fbc4 be3c ee66 893a
00000370: ecb5 ac3d 0f89 a93e 8983 6f3b 6f71 50bc
00000380: 8555 133e 5486 5c3e 4250 123d 3146 aabd
00000390: c35d 3dbc 75b7 5e3c d511 303d c77c 013e
000003a0: 2b1b 6e3e 94ca 823e 400b 8b3c fcc5 d33d
000003b0: 5121 75be 39b0 7ebf 8ec8 333b f456 a63d
000003c0: ac2d aebd 827e 8bbe 4f94 4abd 8d08 2ebd
000003d0: d159 b0bd 7d6a 463c fb83 ea3c 33d7 7ebd
000003e0: 40b2 1b3d d113 13bd 6aba 913c 9340 0cbd
000003f0: e8c4 5abe a714 a93d 9bc3 11bd cd63 61be
0.13537009 -0.20553537 0.0818811 -0.006766302 -0.044494405 -0.061968535 -0.076807156 -0.024031708
0.008672604 -0.47830388 -0.10028882 -0.030455047 0.060534284 0.17902154 0.100078315 0.1585826
0.11948049 -0.24177775 0.016837317 0.123265326 -0.06429822 0.4018866 -0.024566729 -0.045083553
-0.11968246 -0.3951981 0.016015705 0.052701265 -0.10038491 -0.03807484 -0.025099704 -0.07584497
-0.054498613 -0.37168792 -0.021726878 -0.00036058936 0.083200395 0.20877415 -0.010330978 -0.074493445
0.46087486 -0.20023693 0.010641832 0.10702812 0.08307849 0.4309201 -0.013504136 -0.026855677
0.3895908 0.25132585 0.02173738 -0.052747115 -0.18918318 -0.22891757 -0.045183033 -0.0033881636
0.2621394 0.30596343 0.0012027238 0.16678248 -0.06972521 -0.28992334 0.005283475 0.2418041
0.4590399 0.31910822 -0.0009907469 0.16923305 -0.33432016 -0.4076695 0.030834382 0.19424553
0.088748746 -0.07089442 -0.020768434 -0.044893883 0.22158428 -0.00818442 0.0064443853 0.13364145
0.08594503 0.01436272 -0.082177326 0.11942155 0.14750366 -0.30921042 0.064908236 0.23336679
0.008128629 -0.09838103 -0.04538301 -0.018252462 0.24772216 -0.3994652 -0.027304187 0.0010636257
0.10574839 -0.096212 0.006147352 0.107161775 -0.019163372 0.20498978 -0.021740468 0.06841884
0.17307176 0.039693024 -0.06369453 0.031504385 -0.02122417 0.26978084 0.04867639 -0.0037975155
0.050386187 0.2238601 0.0073047825 0.37296924 -0.2469528 -0.011560248 4.467554e-05 0.22905889
-0.011586333 0.3818605 0.057488583 -0.19046785 -0.17680001 0.22549824 -0.054313343 0.03642516
-0.015405162 0.16585775 0.03868425 -0.13065894 0.15427217 0.21351252 -0.054350656 -0.07557707
0.10854802 0.1868553 0.031681888 -0.11098498 0.2873469 -0.22975135 -0.063210115 0.06511036
-0.0864119 -0.14008553 0.070989914 0.052548133 0.23312503 -0.011404143 -0.07351001 -0.043002024
0.062057927 0.056913674 -0.035029694 -0.026209814 -0.022025073 0.10942383 0.019507335 0.011736386
0.06949568 -0.079230994 0.103317216 -0.0011760547 -0.4730832 -0.044943508 -0.109675854 0.087544605
0.03961706 0.12602052 -0.09053152 -0.010074078 -0.23552479 -0.013644451 0.09469011 -0.016965168
-0.08640746 0.20582706 -0.08695869 0.092078514 0.053426776 0.19155587 0.10077153 -0.06974173
-0.05543812 0.063328125 -0.030163871 0.12290037 0.5565391 -0.052090023 0.04274411 -0.055930294
0.12993734 -0.048927907 -0.097761065 -0.00017860893 0.08459133 0.31296822 0.09079031 0.01906462
-0.05151515 -0.09815041 0.042869292 -0.04079887 -0.09568227 -0.01125501 -0.031134365 0.11657056
-0.17245503 -0.115634546 0.008866431 0.03993916 0.12114638 -0.94270414 0.000320545 -0.08173986
0.11350489 0.25268096 0.023287287 0.0010482946 0.08433136 0.3311238 0.0036546907 -0.012722357
0.14388092 0.21535617 0.03572107 -0.08314169 -0.011557999 0.013593544 0.042985756 0.12645255
0.23252551 0.2554518 0.016973138 0.10340497 -0.2393849 -0.99487644 0.0027432772 0.08122054
-0.08504805 -0.27244955 -0.049457844 -0.042488623 -0.08610881 0.01211035 0.028627386 -0.06221695
0.03801179 -0.03590757 0.017789084 -0.03424127 -0.21364176 0.08255892 -0.035586935 -0.22010727

fcs1.bias f4 [64]
00000000: 7a72 9fbe 49c4 51bd 7ffc e6be cb7e 13be
00000010: cfba 103f 30d9 94bd 7404 87be 5776 97be
00000020: 1366 a6bc 515c e7bc 1ecb d4be 7007 1b3e
00000030: bee0 933e e77c 8cbd 2050 3ebe 9dc4 9fbe
00000040: 232f a1be 947d 083e 8e6e b63d 5595 89bd
00000050: 4873 8ebe 3ce6 b83e 1f7b 84be 244e 513e
00000060: 683f 26be 1ac2 473e 4cc8 a4bd 0c76 9fbc
00000070: 5ca1 efbd 7af9 b3bd 3ca4 6c3e 15f0 233d
00000080: b49b 72bf eef1 ad3d b873 acbb 0006 d33e
00000090: d9b0 e83e 5522 1ebe 1335 683d 0ff5 c2be
000000a0: 427e 0ebe c881 28bf 39e0 a6be cd27 95be
000000b0: 2d5d f9be 6db9 9dbe 125d 94be f602 833e
000000c0: 7a39 bf3e ff0f 813c aced 94be d7fc 8cbe
000000d0: 212c 8bbd 4bc7 fb3e 5c99 863c 3a78 723e
000000e0: 6d73 5ebd 05a8 133f 5183 713e fed0 c03d
000000f0: 9a78 a3be 80c8 8bbc 23a2 333f a326 abbe
-0.31142026 -0.051212583 -0.45114514 -0.14403836 0.5653505 -0.07267988 -0.26370585 -0.29582474
-0.020312345 -0.028242262 -0.41561216 0.15139556 0.28882402 -0.06859761 -0.18585253 -0.31204692
-0.31481275 0.13329154 0.089078054 -0.06717936 -0.27822328 0.36113155 -0.25875184 0.20439965
-0.16235125 0.19507638 -0.08046016 -0.019465469 -0.11700699 -0.08787818 0.23109525 0.040023882
-0.94768834 0.0849341 -0.005262818 0.41215515 0.45447424 -0.15442784 0.05669124 -0.3807759
-0.13915351 -0.6582303 -0.32592943 -0.29131928 -0.487039 -0.3080553 -0.28977257 0.25588197
0.3734854 0.015754698 -0.2908758 -0.27536651 -0.06795526 0.49175486 0.01643055 0.23678675
-0.054309297 0.5767825 0.2358525 0.09414862 -0.3192795 -0.01706338 0.70169276 -0.33427915

fc2.weight f4 [64, 68]
00000000: ae8c 493d 1ea8 64be a964 443d ef15 013e
00000010: 3c3b a1bd f357 01be 9b32 df3c 1413 32be
00000020: d4c4 32bd 49fd 45bd 01e0 aebd 0ba2 223e
00000030: 92ea 4abd 8dfb 82bd 1fe4 1c3e 0916 f4bb
00000040: d6ca 72bc 0fd5 55be 7b23 f6bd 371c 0fbe
00000050: 0135 e03d e5bd cfbe f762 54bd f29f dcbd
00000060: 0871 9cbd 3936 40be b679 50be 2375 bc3c
00000070: 26a0 3cbe ef6a 233e 8f4c 8dbd 2807 a4bd
00000080: 38a1 d23a 5f97 253c cf93 cabe 6397 c83c
00000090: 1f03 103e 4dce d3be 6baa bcbd 9311 ab3d
000000a0: 4e05 84bc e833 14bd c345 2fbe fc6e dd3c
000000b0: 6de9 13be b86a 8ebd 84b8 acbc 4748 48be
000000c0: 9180 20be 2e36 86bd e4c1 ac3d 2671 a93d
000000d0: 6f96 a5be 6834 9b3d 9e3e 48be 06c9 e3bc
000000e0: bac3 1bbe d004 0d3d 3a4d 01be 7af5 523d
000000f0: 15c0 73bd 0347 62bd 7ab6 193e a487 a83b
00000100: 6fda e23e d65c 123e edaf c5bd 7094 2abe
00000110: 1b95 7a3c 45ae b2be 496b 8fbc 2322 f53b
00000120: 5a78 a8bd a6ed efbe bd29 a3be e652 513d
00000130: 44e6 56be 4d40 383e c7b1 64bc 64b1 a4bd
00000140: 6e51 a1bd be84 d23d d0d4 3e3e 8ef7 fb3c
00000150: 459e 49bf 3e16 ef3d 3557 dd3d 1180 693e
00000160: bebf a13c c691 31bf 54a5 163e d1af a63d
00000170: e722 32bc b05f 0bbe 81e0 8b3c cd7d dcbd
00000180: b80c edbd edf6 b7bb 39c7 23bf c7a2 36be
00000190: 0305 10be 27e6 55be 814a f9be 7b9f d4bd
000001a0: 8cb1 9b3e 203b 78bc a7b2 24bd f9f7 b8bd
000001b0: c8a1 74be 074b a6bd 26cd 0bbe 6258 cbbd
000001c0: f6d1 acbc f9a0 65be ecdb 4b3d 54ff 903d
000001d0: 4fb0 36be 717d 34be 5866 b63a 98b4 1bbc
000001e0: cb2f 9dbd 0342 e13c f8bb 193d 1300 90be
000001f0: f894 bc3a 9aa3 5e3e c772 69bc b9fe 71be
00000200: 7599 0c3e c9f6 8abe 2aa2 05be 776b 82be
00000210: 6724 94be 49fc dfbd 769d 38be 70e0 e03c
00000220: 79d7 4fbe 170d 313b c8e5 323d d90e c7bc
00000230: fcbe 283e 881b 8fbe 6dc2 84be 971a 36be
00000240: 854c 95bc e5b2 a23d 11bb 8dbd 3605 c2bc
00000250: b08a 7abe 1557 f43d 097e b2ba 8a1d ae3c
00000260: 88d5 72bd defb 55be 1e1c 0d3e 5a3a db3d
00000270: c650 263d 8364 18bf 9720 4f3d 5a83 043d
00000280: bdd9 cb39 7c05 06bf 72ff a5bd 48f4 67be
00000290: 3550 fb3c 19f8 62bd b6d2 d1bc 0631 16be
000002a0: 998b 283e f2f2 c83d b0b5 463e fbb1 41be
000002b0: adfd 9ebe d444 1a3d 6e50 ccbc ae3d 063e
000002c0: 7041 53bd 75bf 90be 91cc bebc 6fb1 91bd
000002d0: 59e2 743d c8d1 2fbd a55b 233c c7a9 70bf
000002e0: aa5c 0dbf 409b 3ebf c5d8 873b 51a2 93bd
000002f0: 15c9 33be 61c9 6a3e 58e6 a13d 78ee d73d
00000300: feb1 19bd ede2 3dbc b38c 8fbe eb4f 17be
00000310: fcbd 9abd e0d1 afbd 30d8 d6bb 22cc 883c
00000320: 4299 cc3d 6f9c 433e caa1 7fbe c231 e7bd
00000330: 0fbc 933d c397 4abe 6ac7 7fbd 6de2 d6bc
00000340: dc37 d9be 7829 10be 4a04 d53a 94dd 173d
00000350: f292 1abd e09f 41bd cf00 6e3c 87fc d23b
00000360: b23e 9c3d 637d 69bd 7b84 83bb b1b0 043d
00000370: ced5 ce3c b52b f2bd ec31 5bbd 37a9 6c3d
00000380: 394e 0bbc 2dc3 083e d428 87bd 7233 e83d
00000390: 07fb b33d 19f7 c9bd 38a1 043e ace5 7a3c
000003a0: 4149 1f3e d314 dc3b d6ea 1cbd e983 14be
000003b0: e29b 143e 376f 663b 96e0 1ebe fbb6 04bd
000003c0: bada 89bd 09de 9b3c 7d4e 3ebc c0e2 8bbd
000003d0: 2a08 07bd 676d 66bd 55b5 53bd fad0 a2bd
000003e0: 195f 60bc eec7 2b3d 0a4e 15bc 2ada e8bc
000003f0: c45b 95bd b562 6fbd 0111 913d bdc9 923c
0.04920643 -0.22329757 0.04794756 0.12606023 -0.07872626 -0.12631206 0.02724581 -0.1739009
-0.04364474 -0.048337255 -0.08538819 0.15882127 -0.04954011 -0.06395636 0.15321396 -0.007448916
-0.014818868 -0.20882057 -0.12018486 -0.13975607 0.1094761 -0.40574566 -0.051852193 -0.10772695
-0.076387465 -0.18770684 -0.20358929 0.023005074 -0.18420467 0.1595876 -0.06899368 -0.080091774
0.0016069775 0.01010689 -0.39565894 0.02448625 0.1406369 -0.41368333 -0.09212192 0.083529614
-0.01611581 -0.036182314 -0.17116456 0.02703046 -0.14444514 -0.06953949 -0.021084078 -0.19558822
-0.15674044 -0.06553303 0.08435419 0.082735345 -0.32341334 0.07578355 -0.19555137 -0.027805816
-0.15211383 0.034428418 -0.12627116 0.051503636 -0.059509356 -0.055243503 0.15011016 0.0051431227
0.44307277 0.14293227 -0.09652696 -0.16658187 0.015294339 -0.34898582 -0.017507212 0.007480876
-0.0822608 -0.46861 -0.3186778 0.05110445 -0.20986277 0.17993279 -0.013958401 -0.08041647
-0.078768596 0.10279225 0.18635869 0.030757692 -0.78757125 0.11674164 0.10807649 0.2280276
0.01974475 -0.6936306 0.14711505 0.08139003 -0.010872579 -0.1361072 0.017074825 -0.10766182
-0.115746915 -0.0056141526 -0.63975865 -0.17835532 -0.14064412 -0.20888577 -0.48689654 -0.10381981
0.30408895 -0.015150815 -0.04020944 -0.09031672 -0.2388984 -0.08119779 -0.13652477 -0.09928967
-0.02109621 -0.22424687 0.04977028 0.0707995 -0.17840694 -0.17625977 0.0013915999 -0.009503506
-0.076751314 0.027497297 0.037532777 -0.28125057 0.0014387658 0.21742097 -0.014248556 -0.23632325
0.13730414 -0.27141407 -0.13050142 -0.25472614 -0.28934023 -0.109367914 -0.18028817 0.02745077
-0.2029704 0.0027015859 0.043676168 -0.024299072 0.16479105 -0.27950692 -0.25929585 -0.1778358
-0.018224964 0.07944278 -0.06920446 -0.023684125 -0.24466968 0.11930672 -0.0013617884 0.02125432
-0.05928567 -0.20896861 0.13780257 0.10704489 0.040604375 -0.5952837 0.05056819 0.03235183
0.00038881405 -0.5235212 -0.08105363 -0.2265178 0.030677894 -0.055412386 -0.02561317 -0.14667138
0.16459502 0.09811963 0.19405246 -0.1891555 -0.31052914 0.037663296 -0.024940696 0.13109466
-0.051576078 -0.2827107 -0.023290904 -0.07113921 0.059786174 -0.042924672 0.00997058 -0.9400906
-0.5521952 -0.7445564 0.004145714 -0.07208694 -0.17557175 0.22928382 0.07905263 0.10543531
-0.037523262 -0.011589748 -0.28037032 -0.1477658 -0.07555768 -0.08584952 -0.0065565333 0.0166989
0.09990169 0.19102643 -0.24964061 -0.112887874 0.07213604 -0.19784455 -0.062446035 -0.026231015
-0.4242543 -0.14078319 0.0016251889 0.037076548 -0.037737794 -0.04727161 0.01452656 0.006438795
0.07629146 -0.057004344 -0.0040135956 0.03239507 0.025248434 -0.11824743 -0.053514406 0.057778563
-0.008502536 0.13355704 -0.06599584 0.113379374 0.08788114 -0.09861583 0.12952125 0.015313547
0.15555288 0.0067163496 -0.038309895 -0.14503445 0.1451259 0.0035161504 -0.1551536 -0.032401066
-0.06731172 0.019026773 -0.011615393 -0.068303585 -0.03296677 -0.056256678 -0.051686604 -0.07950015
-0.013694548 0.041938715 -0.009112844 -0.028424341 -0.072928935 -0.058443744 0.07083321 0.017918462

fc2.bias f4 [64]
00000000: 1372 9abe 133e ab3b 056d bfbd c7b4 ff3d
00000010: 8c38 53be aef1 0d3e 5745 81be ee5c 5abd
00000020: a446 f3bd 756f c5be 51bc 603e 164d 08be
00000030: 7d99 5fbd add6 4abe 8cc5 aebd 21eb 913d
00000040: d6ee 6c3d 74f5 86be 69e2 e33d 661e 473e
00000050: 6b4b a3bb 6df8 8b3d f791 17be d160 a4bd
00000060: d6d0 1ebe 5278 a5bd 5558 0bbe 291d 03be
00000070: 49eb b03e c860 7e3e 2ece dc3d 77f0 cabd
00000080: 764a 3ebe 738b 3a3e d7a6 31be 5b6b ecbd
00000090: 86e7 09be a413 95be 8201 abbd 15eb bc3d
000000a0: debd 1ebd e778 8f3e 6978 63b9 c91a 8abe
000000b0: c9ba 81be 4825 46be 2fd9 a03e 3038 d83e
000000c0: bf78 173d aeb9 debd 3fdd 1dbe 7ef4 20bf
000000d0: 687f 21be ccad 26be 961e bd3c e9eb ca3d
000000e0: 644e 7dbc e09a 983a e551 643e 1994 053e
000000f0: 983a 8d3e 8846 39bd c43a f7bd 80e3 a43e
-0.30165157 0.0052259057 -0.09346966 0.124856524 -0.2062704 0.13861725 -0.25248215 -0.05331128
-0.11878708 -0.38561597 0.21946837 -0.13310656 -0.054589737 -0.19808455 -0.08533773 0.071249254
0.05784496 -0.2635914 0.11127169 0.1944519 -0.0049833558 0.06834493 -0.14801775 -0.08026279
-0.15509352 -0.0807959 -0.13607915 -0.12804092 0.34554508 0.24841607 0.10781513 -0.09909146
-0.18583092 0.18217258 -0.173488 -0.11543914 -0.13467225 -0.29116547 -0.08349897 0.09224526
-0.03875529 0.2802193 -0.00021693263 -0.2697356 -0.25337818 -0.19350159 0.31415698 0.42230368
0.036980387 -0.10875259 -0.1541643 -0.62873065 -0.15771258 -0.16277236 0.023085874 0.099082775
-0.015460584 0.0011642836 0.22296865 0.13044776 0.27583766 -0.04523328 -0.120717555 0.3220482

fc3.weight f4 [1, 64]
00000000: b377 01bd a107 9fbd c8f7 a33d 0ed6 da3c
00000010: 4aa8 a6bc 47cf 403c 9af0 59bd a03a ae3c
00000020: 4acd 10bd 4872 55bc 70f2 cf3c 1c03 3fbd
00000030: 6a80 8d3d 02ec 33bd 1a7c 10bc b211 38bd
00000040: 5b5b 53bd 6b26 75bd 801f 173d 59aa d03c
00000050: 3836 85bd ddeb a6bd 4f88 203d 1ee2 023d
00000060: 9b2a 753d 3b0b cb3c 705b 973c 569a 85bc
00000070: 6184 d6bc 2435 d03c 29c4 cbbc d95d 82bc
00000080: 6fe5 c5bd bc39 733c e24f 59bc a87f a5bc
00000090: 062f 51bc 323a e7bc 1a42 dfbd e55f a73c
000000a0: b741 bdbd 7e95 983c f5a0 12bc 9c5b 14bd
000000b0: 8548 863c 2a28 29bc 6d35 023d d15c 293d
000000c0: 36f1 01bd dd04 e73c f397 99bb 6ba4 84bd
000000d0: 0136 8ebd 3d17 b13c 4462 223c 0e62 963c
000000e0: 0369 ddbc 5058 a63d 35a6 72bc 2d58 1c3d
000000f0: 9e9a 8b3c f3a8 7a3c b2c3 78bc c54b 00bd
-0.031608295 -0.07765127 0.08006245 0.026713397 -0.020343918 0.011768169 -0.05320797 0.021268189
-0.03535203 -0.013027735 0.025384158 -0.046633825 0.06909259 -0.043926246 -0.008818651 -0.04493875
-0.051600795 -0.05985109 0.036895275 0.025471853 -0.06504482 -0.08150456 0.039192494 0.031953923
0.059855085 0.024785629 0.018476218 -0.016308945 -0.02618617 0.025415964 -0.02487381 -0.01591389
-0.096629016 0.014845308 -0.013263674 -0.020202473 -0.012767559 -0.028225992 -0.1090128 0.020431468
-0.0924105 0.01862597 -0.008949508 -0.036220178 0.016392002 -0.010324517 0.031789232 0.041348282
-0.031724177 0.028200561 -0.004687303 -0.06476673 -0.06943894 0.021617526 0.009911124 0.018357303
-0.027027613 0.08122313 -0.014810135 0.03817003 0.0170415 0.01529907 -0.015183376 -0.03132226
