p3-CollaborationCompetition/MATD3_critic1_1.pth (torch_old, 31477 bytes, 5 tensors)

fcs1.weight f4 [64, 48]
000000 37 03 c7 3c 6c 55 be 3e d1 9e af 3d d1 f6 eb 3b
       0.024293525 0.37174547 0.08575214 0.0072010537
000010 f3 38 3d bd e7 2d 74 be bb 5f 95 bd 31 e5 24 bc
       -0.04619689 -0.23845635 -0.0729365 -0.010064409
000020 20 be 28 bd 24 63 a2 3d 99 a9 c4 bd f7 88 bb bd
       -0.041196942 0.07929066 -0.09602661 -0.09156983
000030 e4 56 b0 3d 4c 14 5b 3d b7 af d5 3d 84 9c c7 3d
       0.08610323 0.053486153 0.104339056 0.0974665
000040 3f 40 ee bc 59 64 8b 3e 98 1c b3 3c d2 35 d5 3d
       -0.02908337 0.27224997 0.02186422 0.10410656
000050 fc 86 e5 3c 26 68 00 3f 12 12 a0 bc b7 90 83 bd
       0.028018467 0.5015892 -0.019539867 -0.064240865
000060 91 1d f2 3d a1 1e 9f be 62 5f 89 3c ec 38 14 3e
       0.118220456 -0.31078056 0.016769115 0.14474839
000070 45 1a ca bd 8f b6 5b be 26 72 c7 bc 34 b9 84 3c
       -0.09868292 -0.2145636 -0.024346422 0.016201593
000080 9f 63 80 3d 57 11 e9 be 2a 41 8a 3a c9 9c 90 3c
       0.06269001 -0.45521042 0.0010547985 0.017652886
000090 f9 0d 6c 3d fa 78 aa 3d 03 fd 4b 3c 5f 57 67 bd
       0.057630513 0.08323856 0.012450459 -0.056479808
0000a0 76 38 1c 3e 47 f2 b4 be b8 c8 15 3d 95 d0 1e 3e
       0.15255913 -0.35341093 0.036568373 0.15509255
0000b0 ce 5a 17 bc bf d6 07 3f 54 85 4b 3c 16 c1 ad 3c
       -0.009237958 0.5306205 0.012421925 0.021210235
0000c0 2f 9c 67 3e 28 16 c6 3d 77 cc 11 3d cc 27 bc bd
       0.22618173 0.09672195 0.035595383 -0.09187278
0000d0 5c a9 d6 3e 2a 94 1f be 72 4e 00 bd b3 22 2e bd
       0.41926086 -0.15583864 -0.03132481 -0.04251356
0000e0 2b 25 13 be 8d f0 79 3d b1 6d 75 3b 26 40 8e 3d
       -0.14369647 0.061020423 0.0037449414 0.06945829
0000f0 a5 0e 50 3e 93 20 6b be e0 37 00 3c 15 f3 13 3e
       0.20318086 -0.22961645 0.007825822 0.14448197
000100 47 89 eb 3d ea b7 01 bc 67 e9 31 bc 8d f7 c0 bc
       0.11500793 -0.007917384 -0.01085887 -0.023555541
000110 bf 11 bc be 27 11 0a bf cd bf ab 3c ba 01 bf 3a
       -0.3673229 -0.5393242 0.020965481 0.0014572658
000120 58 81 1e 3e e7 7d a5 3e 2c 7b 37 bc 15 88 76 bd
       0.15479028 0.32322618 -0.0111988 -0.06018837
000130 75 12 c6 be e6 e6 84 3d 1f 30 83 3c cc 60 f2 3d
       -0.38685957 0.06489353 0.016014157 0.11834869
000140 d2 87 6d 3e 88 f4 26 3f 1e a0 81 bd fd 4b f5 3d
       0.23196343 0.65216875 -0.06329368 0.11977384
000150 e6 68 00 be ef e0 7e be 26 9b ab 3d 43 54 6f 3e
       -0.12540016 -0.24890493 0.083792016 0.23371987
000160 31 e2 bb 3d 4a 9d 19 3f 32 23 a2 bd 31 30 01 3e
       0.09174002 0.6000563 -0.07916869 0.1261604
000170 4a bb 8f 3e 76 f7 07 bf 64 3a 7a bd 9f f7 14 3e
       0.28072578 -0.5311197 -0.061090842 0.14547585
000180 d1 e6 1b 3d 86 f3 51 bc c3 bf 93 3c 1d 37 9c bb
       0.03806192 -0.012814408 0.018035775 -0.004767312
000190 eb 79 84 bd f9 2a d7 3e 7f 69 21 bc 87 38 32 bd
       -0.064685665 0.42024973 -0.009851812 -0.04351094
0001a0 1c 78 9d bb dd ff b7 3d 7d f5 6c bd ab c7 48 3d
       -0.004805578 0.08984349 -0.057851303 0.049018543
0001b0 b4 1a b2 bd b6 bb c6 3e 24 51 5f 3d 6d c2 60 3c
       -0.086964995 0.38815087 0.05452074 0.01371823
0001c0 32 1d 29 bd 1e 7f 0d 3c 25 46 6e ba af 26 a7 3e
       -0.04128761 0.008636264 -0.0009089432 0.326467
0001d0 8a 3c 82 be 57 ac cc be 99 d8 05 bc 05 f1 3a 3e
       -0.25436813 -0.39975235 -0.008169317 0.18256004
0001e0 55 52 15 bd e7 e1 df 3e 36 74 6e 3d 9c 33 26 be
       -0.03645547 0.43727037 0.058216296 -0.16230625
0001f0 5a 6d 06 be 4c ab e1 3e 5a 7c 5b bd a6 46 84 3d
       -0.13127652 0.44076002 -0.053585388 0.064587876
000200 ba 96 be 3d f7 7b 56 3e 25 b5 24 3d a2 df 9c bd
       0.093060926 0.20945726 0.040211815 -0.07659842
000210 c0 4a 61 3e d4 ec a9 3e d6 5c 58 bd da 42 b0 bc
       0.22001171 0.33188498 -0.05282291 -0.021516252
000220 b7 c8 a1 3d 97 62 09 be 35 15 36 3d 71 55 04 be
       0.078996114 -0.13416515 0.04445382 -0.12923218
000230 c5 ea 96 3e 42 31 1e bf 5a 98 4e bd 03 f3 3f 3d
       0.2947599 -0.6179391 -0.050438263 0.046862613
000240 8a 2d fe bd 46 60 11 be 82 60 ab 3d d1 c0 83 3d
       -0.1241103 -0.14196882 0.08368017 0.06433261
000250 18 65 fc 3d 96 62 8d 3e 3c 1e 79 bd 94 bb ff bc
       0.123239696 0.27614278 -0.06081985 -0.031217374
000260 91 7b b7 3d 48 38 9f bd cc 5d 9f bc b6 c3 33 bd
       0.08959115 -0.07774407 -0.019453906 -0.043887816
000270 eb 04 c7 3d b3 14 1f bf 3b b4 0f 3d 7e b9 c2 bb
       0.09717735 -0.6214096 0.03508399 -0.0059425225
000280 5e 10 87 bd 45 b3 fc 3d bf c5 e6 3d df 56 cc 3d
       -0.06594919 0.123388804 0.11268186 0.09977507
000290 cf 18 6b bd 87 ed 30 bf 4a 6f cd bd 70 04 41 3e
       -0.057396706 -0.6911244 -0.10030992 0.18849349
0002a0 28 db 11 3e 8d 88 13 3d fa 0b b3 bd e3 f8 ba 3c
       0.14243758 0.036018897 -0.08742519 0.022823757
0002b0 90 a7 00 be e0 3c 8c 3e 7d 49 c8 3d b7 84 82 3c
       -0.1256392 0.27390194 0.09779642 0.015932424
0002c0 bd f8 b9 bd 12 29 59 3a bd aa b9 bd 5a e7 01 3e
       -0.09080646 0.0008284013 -0.09065769 0.1268591
0002d0 75 b5 86 bd f6 0d 0a bf 62 cd c6 3d fa 31 0f bd
       -0.06577579 -0.5392755 0.097071424 -0.03495977
0002e0 31 dd 3e bc 34 17 a0 3c be b5 21 bd dd 36 90 3e
       -0.011649416 0.019542314 -0.039479963 0.28166857
0002f0 21 3a 10 3e e8 c1 32 bf f6 eb 08 3d 6a 9f d2 3d
       0.14084674 -0.6982713 0.033428155 0.10284312
000300 ff d3 3c 3e 2a 45 3a 3e 25 c6 a0 bd a1 4c 82 3b
       0.18440245 0.18190446 -0.07850293 0.00397642
000310 74 5b 50 3e 48 8e 6e be 15 61 e1 3d b9 36 be 3c
       0.20347387 -0.23296463 0.11004845 0.023219453
000320 c1 65 3e bc 4e 6f ac 3e 96 d3 09 3d 37 52 27 3d
       -0.01162094 0.3367867 0.03364905 0.04084989
000330 cb 54 c9 bc 06 be 9b bd 8a 4b 25 bd 8a f9 4a 3e
       -0.024576565 -0.076046035 -0.040355243 0.19821754
000340 18 61 18 be 70 0c a1 3e 2c ab ec bb bd 5b 54 bd
       -0.14880788 0.31454802 -0.0072225537 -0.0518453
000350 0e 4a 87 3c 1c 46 0f bf 95 2d 81 bc d0 b0 31 be
       0.016514804 -0.55966353 -0.015768806 -0.17352605
000360 fc 81 80 3d ec 31 16 bd 15 1b 23 3d 23 12 45 3e
       0.062747926 -0.036668703 0.03982075 0.192452
000370 67 85 0d bd c6 f6 5b be 2d 61 a5 3c 45 f8 36 3e
       -0.03455105 -0.21480855 0.020187939 0.17868145
000380 7c 26 ca 3d 79 ad 32 3d 8d 92 8c 3d a8 5c 3c be
       0.098706216 0.043622468 0.0686389 -0.1839472
000390 d4 4b a9 bd 93 b4 51 bd 10 73 9b 3d 4f 19 d2 3c
       -0.08266416 -0.0511976 0.07590306 0.025646834
0003a0 e3 f0 13 3e 72 65 a2 be d7 4b cc 3a 69 f7 77 3d
       0.1444736 -0.31718022 0.0015586567 0.060538683
0003b0 3c fc 09 be 4c a1 1c bf e2 99 4f bc 3a 19 1d 3d
       -0.13475126 -0.6118362 -0.012670966 0.038354136
0003c0 4f 37 8d 3c d3 ac 86 3e d8 c4 df bc 51 b1 b2 3c
       0.017238287 0.2630373 -0.027315542 0.021813067
0003d0 95 35 d3 3c f2 db 31 be e5 f3 4f 3d ee aa 08 3b
       0.025782386 -0.17369059 0.050769705 0.0020853835
0003e0 67 61 2b 3d ba 04 83 3d f0 87 35 3c ff f1 9a bd
       0.041840937 0.06397386 0.011079773 -0.07565688
0003f0 53 7e ae bd 63 89 e5 3d 0b 3f 2d bd 80 e6 85 be
       -0.08520188 0.11207845 -0.04229645 -0.2615242

fcs1.bias f4 [64]
000000 f3 be 91 be 3b c3 9d bc 1d a9 cc 3e a0 4e 36 3e
       -0.28465995 -0.019258132 0.39972773 0.1780343
000010 8a 7d 6c 3d e9 f6 9a 3e f4 ce 91 be df 0d 42 be
       0.05773691 0.30266502 -0.28478205 -0.18950604
000020 6a 27 6b 3d 5e 1a 9f bb cc 0c 28 be d0 a9 30 bf
       0.057410635 -0.004855438 -0.16411132 -0.69009113
000030 b8 57 be bd d1 aa 02 bf a6 d0 97 bf f8 50 a8 bd
       -0.09294075 -0.51041895 -1.186055 -0.082185686
000040 0d 60 0b bf cd df c1 bd b1 27 e7 be 98 12 0c 3b
       -0.54443437 -0.09466515 -0.4514747 0.0021373387
000050 e3 53 16 3f 1b 15 ca 3c 8f 25 83 bd 6f f6 03 3f
       0.5872175 0.024668267 -0.06403648 0.515479
000060 85 9f 5e be 39 d4 27 3e 94 26 28 3e a4 c0 13 be
       -0.2174054 0.1638955 0.16420966 -0.14428955
000070 65 3d 91 be 46 ae cb be ce 5f ee 3d 0f 28 b6 3d
       -0.28367153 -0.39781398 0.11639367 0.08894359
000080 63 7e 3c bd 72 3b 31 3e 91 03 60 3e e3 a1 a8 3d
       -0.04601897 0.17307833 0.2187636 0.082340024
000090 73 31 14 3d 9b 82 bc be 01 5c f7 be ff 5b 39 3d
       0.03617997 -0.36818394 -0.4831238 0.04525375
0000a0 81 55 40 3c 6d 6e ed 3e 47 5e 8b be 9e bc 6d 3e
       0.011739136 0.4637331 -0.27220365 0.23216483
0000b0 6d ed a0 be 2e 9c 1e bf c0 30 b8 3d 2c ed 16 3d
       -0.31431141 -0.6195706 0.08993673 0.03684728
0000c0 20 99 be 3e 7d a9 24 3e aa 56 93 be f2 5c 6c 3e
       0.372262 0.1608028 -0.28777057 0.23082331
0000d0 5f 43 29 3f 9e c9 20 3f ab 6e 33 bd 6e 7a 44 3e
       0.66118425 0.62807643 -0.043806713 0.19187328
0000e0 d9 d9 2c be bf 33 f0 3e b6 89 ab 3e fd 37 02 bf
       -0.16879977 0.4691448 0.33503503 -0.5086668
0000f0 a4 fe b3 be 70 d0 aa be eb f0 fe bd b9 ba 81 bd
       -0.35155213 -0.3336215 -0.12448295 -0.06334443

fc2.weight f4 [64, 68]
000000 a5 68 6a 3d 6b 16 b3 3d 9b fa d4 bd 62 6e 3c 3e
       0.057228703 0.0874451 -0.10399362 0.18401483
000010 bb ba 8d 3d 62 59 09 3d 73 a6 f3 bd 26 5a 5c bd
       0.06920382 0.033532508 -0.11896982 -0.05379691
000020 ec 4c f5 3d 5e 26 d6 bd 17 dd ed 3d 61 32 ae bd
       0.11977562 -0.10456537 0.11614435 -0.08505703
000030 48 7b 1a be 31 8e cb 3c 07 f1 0a 3d ea 4b 44 3d
       -0.1508609 0.024848076 0.033921268 0.04792396
000040 cb 56 70 be a8 d2 dd 3c 37 a1 e3 bd d3 50 81 bc
       -0.23470609 0.027077988 -0.11114734 -0.01578561
000050 90 bc d5 bd dd 8b 41 bd bd 70 1a 3e 75 0a 47 3e
       -0.10436356 -0.047252525 0.15082069 0.19437583
000060 fe 19 af bd 1f 65 59 be aa b5 85 3d 7f 02 75 bd
       -0.085498795 -0.21229981 0.0652879 -0.059816834
000070 c9 ac 3b bd f8 77 5a 3d 68 67 29 3d 59 88 67 3d
       -0.045819078 0.053337067 0.04135838 0.056526516
000080 8d de eb 3d 41 52 50 3c ef f7 dd 3c 70 7b 29 3c
       0.115170576 0.012714923 0.027095763 0.010344371
000090 65 29 c3 3c 93 da 4e bd 6a 47 1d be 44 5c 53 3c
       0.02382345 -0.050501417 -0.15359274 0.012900416
0000a0 a1 d1 37 bc 61 3d 6a bd bf 02 00 bc 64 44 95 bd
       -0.011219413 -0.05718744 -0.007813155 -0.07288435
0000b0 e3 5f cb 3d f9 22 62 be 76 64 0a 3e 19 51 dc bd
       0.09930398 -0.22083654 0.13514885 -0.10757656
0000c0 94 48 56 3c da 41 a2 bc c1 9b ba 3d c4 3c 9d bd
       0.013078827 -0.019806791 0.09111739 -0.07677606
0000d0 44 a2 35 bd b5 d2 07 3e 4f 5c be 3d a8 48 6e 3b
       -0.0443442 0.13263972 0.0929495 0.0036359224
0000e0 30 bd 6f 3c 33 11 25 bc 2b 8b 26 3d 24 71 fa bc
       0.014632508 -0.010074901 0.040660065 -0.030571528
0000f0 e2 5d d5 bd 23 9c c5 3b c0 02 7a bd 51 fd 1d 3e
       -0.10418297 0.006030576 -0.06103778 0.15428664
000100 ac d1 02 bc 3d 57 b6 bc 90 fa e5 bd 2d 7a a9 bc
       -0.00798456 -0.022258395 -0.11229432 -0.02068814
000110 0d 32 30 3d e6 ec 74 3a a4 03 d9 bc 9d b2 59 3d
       0.043016482 0.0009343162 -0.026490994 0.053148855
000120 0d 3b 4d 3d 2a fe 3f bd e7 06 6b 3d 90 61 2c be
       0.050105143 -0.04687325 0.05737963 -0.16834092
000130 ef 5d 85 be ed 0f 01 bc d0 69 00 be 8b 18 bd ba
       -0.26048228 -0.007877332 -0.12540364 -0.001442687
000140 d8 8f b0 3b 03 93 b5 bc de a4 c0 3e 29 ee b1 bd
       0.0053882413 -0.022164827 0.37625784 -0.086880036
000150 e9 ee 24 3e 64 1a 5f 3c fe eb 9c bc d3 c5 2e bd
       0.16106762 0.013617132 -0.019155499 -0.04266913
000160 91 8a 47 be 8e dd 88 3c 35 81 85 3c 8f 87 be bd
       -0.19486453 0.016707208 0.016296962 -0.093031995
000170 ab 40 0e 3d 85 9a b6 bd 4b 20 4c bd e3 be 98 3c
       0.03472964 -0.08916191 -0.049835484 0.01864571
000180 d6 59 a1 3c 53 74 88 3d c8 d6 10 bd 27 31 70 bd
       0.019696157 0.06662812 -0.03536108 -0.058640625
000190 07 a5 d4 bc 40 c8 6b bd 66 ec 83 bd cc 9c 44 bd
       -0.025957597 -0.05756402 -0.06441574 -0.048001096
0001a0 f3 57 ef bc f9 0e e1 3c 43 e8 30 3c ec a7 7f bd
       -0.029216742 0.02747296 0.010797563 -0.062416002
0001b0 89 89 27 bd 06 14 63 be 2d b0 09 bd 55 f8 17 bd
       -0.040902648 -0.22175607 -0.03361528 -0.037102062
0001c0 d9 89 35 bc 3d 92 53 bc 0f df b9 bb 8c f1 bc bd
       -0.011080229 -0.012913284 -0.0056723426 -0.09225759
0001d0 9b 0b c1 bd b2 a3 cb ba c7 39 9e 3d 07 c6 22 3d
       -0.09426042 -0.0015536456 0.07725864 0.039739635
0001e0 0e c7 2f bf c8 72 98 3d 23 ca a0 bd 7e 7c eb 3c
       -0.6866311 0.07443768 -0.078510545 0.028745886
0001f0 63 5b 0b bb 20 c8 78 3b f5 d6 3b bd c1 12 ef 3b
       -0.0021264188 0.003796108 -0.045859296 0.007295937
000200 f6 51 02 bf 06 e7 e1 3d 11 1c 80 bc 2b ef c0 bd
       -0.5090631 0.11030392 -0.015638383 -0.09420618
000210 f9 08 c3 3c d3 53 2b bb 2a f6 13 3c 1d 82 6f 3c
       0.02380799 -0.0026142492 0.009030858 0.014618424
000220 f8 c3 1a 3c e7 cc 6f be 17 13 82 3c df 4a a1 bd
       0.009446137 -0.23418008 0.015878243 -0.07875609
000230 8f 49 1c bd 1e 4a c4 3d 70 95 ed bb 05 de bc 3d
       -0.03815609 0.09584449 -0.0072504804 0.09222034
000240 49 e9 54 be 9f fa 40 bd de 2e c8 bd ee f7 13 be
       -0.20792116 -0.04711401 -0.09774564 -0.14450046
000250 2c 1c bc bb e5 61 6e be 40 df b4 bd d2 3f 8a bc
       -0.005740663 -0.23279531 -0.08831644 -0.016876135
000260 f8 bf 7b be 6f 50 74 be 10 a3 c1 bd 23 0e b0 be
       -0.24584949 -0.23858808 -0.0945493 -0.34385785
000270 59 06 80 be e3 e7 eb be 20 a7 0b be 4a 26 32 bf
       -0.25004843 -0.46075353 -0.13637972 -0.69589674
000280 6a f3 2e be 55 c3 81 be 16 4c a2 bd 44 4f 0b 3d
       -0.17085043 -0.2534434 -0.079246685 0.03401114
000290 e7 3a e3 3d 5b 93 17 be 4a 06 33 3d 50 12 3c be
       0.11095219 -0.14802305 0.04370717 -0.1836636
0002a0 d8 ac 8a be 69 53 44 bc 40 77 40 be 02 f4 af 3d
       -0.27084994 -0.011982777 -0.1879549 0.08591463
0002b0 34 44 9f be 9e 9b 2e 3e f2 a7 ad be 9f a5 63 3d
       -0.31106722 0.17051551 -0.33917195 0.05557787
0002c0 5e fc 01 3e 0e af 25 3e 5d b4 61 be d1 d5 19 bd
       0.12693927 0.1618006 -0.2204146 -0.037557427
0002d0 e1 1a 8b be 06 8a be 3a 8d 2c 86 bc dc 28 b6 bc
       -0.27168944 0.0014536984 -0.016378665 -0.02223628
0002e0 c1 d5 94 bc b3 fa 32 bf 3f 28 35 bd ad 3c 37 bd
       -0.018168332 -0.69913787 -0.044227835 -0.0447356
0002f0 c2 a0 92 3e 6c 6e 45 be ab a5 d3 bd 46 45 37 bf
       0.28638273 -0.19280404 -0.10334333 -0.7159008
000300 3a b5 c0 bd d6 dd 02 3d 11 07 0a be 18 0b 91 3d
       -0.09409566 0.03194984 -0.13479258 0.07082194
000310 0d ae 65 bb 34 d1 1d bd 08 90 4f be 95 83 5c be
       -0.003504637 -0.03852959 -0.20269787 -0.2153457
000320 b6 01 72 bd 98 88 8b 3f aa 87 d1 bd a4 a8 13 be
       -0.059083663 1.090106 -0.10230954 -0.144198
000330 93 e5 4e 3d 34 36 85 bd fe 85 02 be cf 65 78 3d
       0.050511908 -0.06504479 -0.12746426 0.060643967
000340 60 4d 10 3d c2 0a 9d 3b cf a8 6f bd 3b 2b 4e 3d
       0.03523004 0.004792542 -0.058510598 0.050334197
000350 0d 35 d3 bd a0 19 5f 3d 6f 3a 12 be 6b 50 fb bc
       -0.10312853 0.054467797 -0.14280103 -0.030677995
000360 7d 15 52 3d 66 f7 4d 3c 39 84 95 bc 55 20 53 bd
       0.051290024 0.012571191 -0.018251525 -0.051544506
000370 61 58 ec 3d de 22 35 bd ed ef e2 3d 8f e5 68 3c
       0.115402944 -0.044222705 0.110809185 0.014214887
000380 5d 76 82 3c d3 97 ba 3c f2 4a 99 3c 43 cd 24 bf
       0.01592558 0.022777474 0.018712495 -0.64375705
000390 4f 3b 7b bc dc 27 c7 3d 42 85 fa 3d 7e 89 99 bd
       -0.0153339645 0.097243994 0.12232448 -0.07496928
0003a0 a1 bb 62 3e 98 c5 c6 3c 05 2f c4 bd 0e 38 2f be
       0.22141887 0.024264142 -0.09579281 -0.17111227
0003b0 7c 86 33 bd 87 3e 21 be c4 3d 2b bd 5c a8 c4 3c
       -0.043829426 -0.15746509 -0.04180695 0.024006061
0003c0 f8 6e b7 3a 41 14 7b 3d be 0c 58 3d b2 69 b0 3d
       0.0013994863 0.061298613 0.052746527 0.0861391
0003d0 52 b4 ba bb b1 f9 76 bf 2a 27 1e 3d d7 6c 18 bd
       -0.0056977654 -0.9647475 0.03861157 -0.037213173
0003e0 89 6f 17 bd 5c 86 21 be 2c 69 f9 3d 00 2b 02 be
       -0.036971603 -0.1577391 0.12178263 -0.12711716
0003f0 66 a7 0a 3c 23 3f 3b bc be a3 90 bc bd f7 ac 3d
       0.008462762 -0.011428627 -0.017656203 0.0844569

fc2.bias f4 [64]
000000 fd b7 6a bd 64 dc e6 be f0 2e 91 be 0b 2a a1 3e
       -0.05730437 -0.4509002 -0.28356123 0.3147739
000010 bc 6a c0 bd 6b 20 ce 3c 4d 3f 82 3d 48 99 d5 bd
       -0.09395358 0.025161942 0.0635973 -0.10429627
000020 66 60 5d bd d6 b7 60 bc fa 4b ca b6 84 53 aa be
       -0.05404701 -0.013715705 -6.028914e-06 -0.33266842
000030 f5 0e ba 3d 86 44 a1 bd be a6 4c 3d 77 4e 04 be
       0.09084884 -0.07874398 0.049963705 -0.12920557
000040 58 20 cc bb ff 62 d0 be b8 d4 4d bc f8 2d 49 3d
       -0.0062294416 -0.40700528 -0.012562923 0.049116105
000050 f0 4b 85 3d 9a f3 1f be 7a fc 1a be 7e 6c 80 3e
       0.065086246 -0.1562027 -0.15135375 0.25082773
000060 5a 77 ab 3d 4e 44 4c bd 94 db 70 bc b5 ac 8f be
       0.08372374 -0.049869828 -0.014700789 -0.28061453
000070 85 5c 4e be d5 36 c0 3d bd 85 d4 bd 81 1f 95 3e
       -0.20152481 0.093854584 -0.10377071 0.29125598
000080 7c 38 10 bf ab f8 8c 3d 60 15 3f 3c a2 a8 74 3e
       -0.5633619 0.06883367 0.011662811 0.23892453
000090 f1 5f 44 3d 64 fc 1e be b3 6c c2 bd 6c 1c 1e be
       0.04794306 -0.15525967 -0.09493389 -0.1544053
0000a0 94 18 93 be 72 53 29 3e 36 23 b5 bc d8 6b dd bc
       -0.2872969 0.16535738 -0.022111516 -0.027028963
0000b0 41 6e d5 3d 02 88 2a 3e d2 8a 62 3e 77 2c 92 bd
       0.1042142 0.16653445 0.22123268 -0.07137387
0000c0 bc b1 a8 3d aa b7 8a bd c1 3b 10 bb f2 99 56 be
       0.08237025 -0.067733124 -0.0022008272 -0.20957163
0000d0 2c e4 19 3d 3a 4c 1c 3e 64 7a 1c be d2 d7 83 3e
       0.037571117 0.15263453 -0.15281063 0.25750595
0000e0 70 f5 65 be 1e 3a 2e 3d 39 73 42 3e 0f 00 c3 3d
       -0.22456908 0.042535894 0.18989266 0.095214956
0000f0 0d 2d d0 bd 3e 0e 86 be 87 70 7c 3e 8c 05 29 3d
       -0.10164843 -0.2618274 0.24652301 0.041265056

fc3.weight f4 [1, 64]
000000 79 40 a5 bc 14 fe ca bd c4 03 68 be 7a 69 4a 3d
       -0.020172345 -0.09911743 -0.22657686 0.049416997
000010 62 e0 aa bc 8a 5e 43 be a5 15 21 bd 04 82 e3 3c
       -0.020858947 -0.19079033 -0.039327282 0.027771957
000020 de 7c fa bd e1 00 dc 3c ca 4d be bc 0c ae 12 3d
       -0.12230848 0.026855888 -0.023230452 0.035810515
000030 bd 5c ed 3c 40 81 7e bc 6c 96 59 bc aa 70 be bc
       0.028974885 -0.015533745 -0.013280492 -0.023247082
000040 5b c8 8d 3b 8e 53 1a bd 9e ff 13 3e a7 70 d6 bd
       0.0043268627 -0.03767734 0.14452979 -0.104707055
000050 1d 71 00 bd 83 92 ea bd 45 46 b9 bc d0 e0 bb 3c
       -0.031357873 -0.11453726 -0.022616515 0.022934347
000060 93 e2 14 3d e0 74 2a 3d a6 ea 14 3d 17 12 07 bd
       0.03634889 0.041615367 0.03635659 -0.032976236
000070 22 ff 1a bd 69 34 a8 bc eb db a3 bc 8a 1d 83 3d
       -0.03784097 -0.020532804 -0.020002326 0.064021185
000080 0d 3e ec bd be 29 73 3c 7d da ad bc 35 80 a1 bc
       -0.11535273 0.014841495 -0.021222347 -0.019714454
000090 97 38 a9 bc 81 57 c1 bc f6 22 d1 bd cf 5a cb bd
       -0.020656867 -0.023601295 -0.102117464 -0.0992943
0000a0 cc 1c ab bd c2 f7 b0 3c 16 45 02 bd 26 7f 82 bd
       -0.08355102 0.021602515 -0.031804167 -0.06371908
0000b0 39 0f 91 bd 6b 6e 89 bc b0 68 89 3c 96 d6 5f 3d
       -0.070829816 -0.016776284 0.016773552 0.054648004
0000c0 a4 a3 b5 bd 03 ab 65 3c cb c1 b0 bc d4 8e a8 bc
       -0.088691026 0.014017823 -0.021576783 -0.020575918
0000d0 2e 35 9b bd 46 12 a5 3c f3 91 b8 3c 0c bb 70 3d
       -0.075785026 0.020150315 0.022530532 0.05877213
0000e0 13 fb cb bd 23 62 30 3d 52 70 12 bd 74 11 04 bd
       -0.09959998 0.04306234 -0.03575165 -0.032243207
0000f0 49 69 08 3d 56 19 a2 3c 34 62 bb bc 50 1a 12 bd
       0.033303533 0.019787472 -0.022873975 -0.035669625
